KMM-3d/outputs/gru_residual.pt (torch, 59194 bytes, 6 tensors)

gru.weight_ih_l0 f4 [192, 3]
0	0xbe382f70	-0.17986846
1	0xbe8da22c	-0.2766279
2	0xbe6ae36b	-0.22938316
3	0xbd7834ae	-0.060597114
4	0xbe3eaa42	-0.18619636
5	0xbdafabea	-0.08577712
6	0x3ca4db18	0.020124003
7	0x3ea43e92	0.32078987
8	0xbcd2686b	-0.025684556
9	0x3d612f9d	0.05497705
10	0x3db050de	0.08609174
11	0xbc2f6f3f	-0.0107076755
12	0xbe564ccc	-0.20927733
13	0xbea250b9	-0.31702211
14	0xbe10da50	-0.1414578
15	0xbd6d9f82	-0.058013447
16	0x3e528cdb	0.20561545
17	0x3dd063c4	0.10175279
18	0xbe2a3dba	-0.1662511
19	0xbebc4c25	-0.36776844
20	0xbdace59d	-0.08442233
21	0x3be689e7	0.007035482
22	0xbeaf8cf9	-0.3428724
23	0x3d458383	0.048221122
24	0xbd5e3862	-0.05425299
25	0x3e4d624b	0.20057027
26	0x3dede0ce	0.11615144
27	0xbda111e5	-0.07864741
28	0xbe993c91	-0.2992902
29	0xbe1e8fa6	-0.15484485
30	0x3e0546a8	0.13015234
31	0x3e277108	0.16351712
32	0x3dd50f7e	0.104033455
33	0x3c0d7c58	0.008635603
34	0xbd079177	-0.03309771
35	0xbe2144aa	-0.1574885
36	0xbdb75e92	-0.08953585
37	0x3d99ae05	0.07503895
38	0xb9dfe05c	-0.00042701035
39	0x3d9a2d0f	0.075281255
40	0x3e0c9099	0.13727035
41	0xbe58a8fc	-0.21158212
42	0xbde9a33f	-0.1140809
43	0xbf019425	-0.50616676
44	0xbd4a4269	-0.04937974
45	0xbdde6598	-0.10859221
46	0x3e6db517	0.23213612
47	0x3e85e6d7	0.2615268
48	0xbc9fcb2f	-0.019506065
49	0x3da452e9	0.08023626
50	0x3ce8c68d	0.028414989
51	0x3d3a8ce2	0.045544513
52	0xbc88844e	-0.01666465
53	0xbd8180f1	-0.06323422
54	0x3d5d9ad9	0.054102752
55	0xbe8faaf4	-0.28060114
56	0xbdd7ec2f	-0.10543095
57	0xbdbe4f0b	-0.0929242
58	0xbc2a4898	-0.010393284
59	0xbd98a667	-0.07453614
60	0x3d3b1738	0.04567644
61	0xbdcd026d	-0.10010228
62	0xbe1c6e36	-0.15276417
63	0x3d32e975	0.043679673
64	0xbd68c865	-0.056831736
65	0xbdb09c89	-0.08623607
66	0xbd81e74e	-0.06342946
67	0x3d86c804	0.06581119
68	0x3e41d13e	0.18927476
69	0xbd28ad31	-0.041180793
70	0x3df59e7e	0.119931206
71	0xbd557dc2	-0.052121885
72	0x3e027f3d	0.1274385
73	0x3dd4665a	0.103710845
74	0x3e8f2102	0.2795487
75	0xbc0eccfd	-0.008715865
76	0xbae0a6a2	-0.0017139504
77	0xbe599ea9	-0.2125193
78	0xbe09987d	-0.13437076
79	0xbdd03509	-0.10166366
80	0xbd5e26a9	-0.054236088
81	0xbd311274	-0.04323049
82	0xbe2476fa	-0.16061011
83	0xbe0b1bc4	-0.1358481
84	0x3e016ca8	0.12639105
85	0x3ad60067	0.0016327024
86	0x3e15327c	0.1457004
87	0xbda7c106	-0.08191113
88	0x3be81c80	0.0070834756
89	0xbdf9b3de	-0.1219251
90	0x3e3dd12c	0.18536824
91	0x3e69e026	0.22839412
92	0x3e2cd9de	0.16879985
93	0xbdedbb01	-0.11607934
94	0xbe994d96	-0.29942006
95	0xbe7e9318	-0.248608
96	0xbd83c227	-0.06433516
97	0x3ddd90eb	0.108186565
98	0x3c42ac1d	0.011881855
99	0xbd116260	-0.03549421
100	0x3ebde978	0.37092185
101	0x3dd0e905	0.10200695
102	0x3ddadbbc	0.10686442
103	0xbdabc906	-0.083879516
104	0xbe7e0e80	-0.24810219
105	0xbdb33680	-0.087506294
106	0x3e35b80f	0.17745994
107	0xbd68df92	-0.05685384
108	0xbc6d9874	-0.01450168
109	0x3e9044be	0.28177446
110	0x3e3dda45	0.18540294
111	0xbd18e600	-0.03732872
112	0xbea5156f	-0.32242915
113	0x3e009ba7	0.12559377
114	0x3e02802c	0.12744206
115	0xbcb30f82	-0.02185798
116	0x3e27ea33	0.16397934
117	0x3d909853	0.070603035
118	0xbe8ab251	-0.2708917
119	0xbced3af6	-0.028958779
120	0xbdbc4b88	-0.09194094
121	0x3e130c5b	0.14360182
122	0x3d469c04	0.04848863
123	0xbeac7814	-0.33685362
124	0xbdf2df51	-0.118590005
125	0xbe46ffca	-0.19433513
126	0x3cce6104	0.025192745
127	0xbd7bcb21	-0.061473016
128	0xbd98ad05	-0.07454876
129	0xbddedbc3	-0.1088176
130	0xbe8bd3de	-0.2731008
131	0xbd653c00	-0.055965424
132	0xbdaa409a	-0.08313103
133	0xbdd096cb	-0.101850115
134	0x3e80a516	0.2512595
135	0xbd951e6d	-0.07281194
136	0x3d062ae1	0.032755736
137	0x3a055d8b	0.00050874864
138	0x3e0702ee	0.13184711
139	0x3e2f6cb0	0.17131305
140	0x3e366a7a	0.17814055
141	0xbd3998f8	-0.045311898
142	0x3ec11d6a	0.37717754
143	0xbd967b73	-0.07347765
144	0xbd1bbc2f	-0.038021263
145	0xbea2b5b1	-0.31779245
146	0x3cd20703	0.02563811
147	0x3db0db81	0.08635617
148	0x3d5e9ac9	0.054346833
149	0xbe32d78f	-0.17465042
150	0xbd7a8a49	-0.061167035
151	0xbce9ce69	-0.028540807
152	0x3cd455f5	0.025919894
153	0x3e9f182a	0.31073123
154	0x3e20cf33	0.1570404
155	0xbe484dc7	-0.1956092
156	0x3d44fe2d	0.048093963
157	0xbdf8ec02	-0.1215439
158	0xbe0a539d	-0.13508458
159	0x3d435013	0.047683787
160	0xbe5ef5d2	-0.2177346
161	0xbe0a99dc	-0.13535255
162	0xbe2e9d4b	-0.1705219
163	0xbd680325	-0.056643624
164	0x3e75ba79	0.23996915
165	0x3db47afe	0.088125214
166	0x3d8c23df	0.06842779
167	0x3c846f3f	0.016166328
168	0xbeb802ad	-0.3593954
169	0xbe42eec8	-0.190364
170	0x3da9db6f	0.08293807
171	0xbc113cf4	-0.00886463
172	0x3eb091be	0.34486192
173	0x3d6223fd	0.055210102
174	0xbd99d190	-0.07510674
175	0x3c5f05ff	0.013612269
176	0xbe68b893	-0.2272666
177	0xbe28185e	-0.16415545
178	0x3e005547	0.1253253
179	0xbc96fdf1	-0.018431636
180	0xbe259458	-0.1616987
181	0x3ed55315	0.4166495
182	0x3dad5948	0.08464295
183	0xbd8e2c02	-0.069419876
184	0xbe31a8bb	-0.17349522
185	0x3cbcbc78	0.023039088
186	0xbdd2b074	-0.10287562
187	0xbe1fe208	-0.15613568
188	0xbe8bcafa	-0.27303296
189	0x3d24e74a	0.040259637
190	0x3d6ae75f	0.05734956
191	0x3ea6875e	0.32525152
192	0xbea11975	-0.31464735
193	0xbe28640a	-0.16444412
194	0xbdc73631	-0.09727133
195	0xbe072bd5	-0.13200314
196	0x3e8aa9b1	0.2708259
197	0x3f410aec	0.7540729
198	0xbc8c46b1	-0.017123552
199	0xbe41fc0b	-0.18943803
200	0x3e94ab15	0.29036775
201	0x3dc8a370	0.09796798
202	0xbeb1b65d	-0.34709445
203	0xbd8c476a	-0.06849559
204	0x3de6655d	0.11249802
205	0x3edb5435	0.42837682
206	0xbe4be8ce	-0.19913027
207	0x3e807034	0.25085604
208	0x3d6ec04d	0.05828886
209	0xbedcf30c	-0.4315418
210	0xbdd37eca	-0.103269175
211	0xbe76a3f7	-0.24085985
212	0xbdeca95b	-0.115557395
213	0xbe0f55a3	-0.13997512
214	0x3e0f62bf	0.14002512
215	0x3e116c5a	0.14201489
216	0xbc501fe8	-0.01270292
217	0xbec0c5f3	-0.37651023
218	0xbe8e1937	-0.27753612
219	0xbf58d1dc	-0.8469522
220	0x3e560350	0.20899701
221	0x3ec5af5e	0.38610357
222	0xbe3926ca	-0.18081203
223	0xbd398cbf	-0.04530024
224	0xbf556a39	-0.8336521
225	0xbc443e5b	-0.011977757
226	0xbe7ef10c	-0.2489664
227	0x3f0f5cd2	0.5600101
228	0x3d3c70ba	0.046005942
229	0x3e85dc12	0.26144463
230	0x3e3000f2	0.1718786
231	0x3ecf8367	0.4052994
232	0xbb2935fb	-0.0025819528
233	0x3f5e2f60	0.8679104
234	0x3e62e161	0.22156288
235	0xbe83109f	-0.25598618
236	0xbe0fbf02	-0.14037707
237	0x3ec8e25a	0.39235193
238	0x3c100ce4	0.008792136
239	0xbe8583cc	-0.26077116
240	0xbde2ed55	-0.11080424
241	0x3eaf00d2	0.34180313
242	0x3e9a5fcf	0.3015122
243	0x3e973ce9	0.29538658
244	0xbc066efe	-0.008205174
245	0x3cbdd2c4	0.02317179
246	0xbd117f56	-0.035521828
247	0x3e965dc1	0.29368404
248	0x3f0057bd	0.5013388
249	0xbd31f7c5	-0.043449182
250	0xbdfb337d	-0.1226568
251	0x3ec782d1	0.38966992
252	0xbeb71812	-0.35760552
253	0xbdca3c16	-0.09874742
254	0xbd76df9f	-0.060271855
255	0xbd6332df	-0.055468436

gru.weight_hh_l0 f4 [192, 64]
0	0xbe4c9af5	-0.19980986
1	0xbe5331b8	-0.20624435
2	0xbe1a968e	-0.15096495
3	0x3e21286d	0.15738077
4	0x3abf2436	0.0014582935
5	0xbec3a996	-0.3821532
6	0xbe43910d	-0.19098301
7	0x3aac6bc1	0.0013154672
8	0x3dbbabb6	0.09163611
9	0x3d8a6831	0.06758154
10	0x3e056b12	0.13029125
11	0x3c8c528f	0.01712921
12	0x3e85e778	0.2615316
13	0xbdf83e75	-0.12121288
14	0x3d0cf23e	0.034410708
15	0x3e127a2d	0.14304419
16	0xbe4a954c	-0.19783515
17	0xbdc52f5c	-0.09628174
18	0x3e23f497	0.16011272
19	0x3d7519ee	0.05983918
20	0xbe67c977	-0.22635446
21	0x3dae0208	0.08496481
22	0x3d8397c8	0.06425434
23	0x3db25a2a	0.08708604
24	0xbdd69125	-0.10476903
25	0x3e853d14	0.2602316
26	0x3e23773f	0.15963458
27	0x3d89ea3c	0.0673413
28	0xbdf230b1	-0.118256934
29	0xbeba1e36	-0.36351174
30	0x3e456e99	0.19280471
31	0xbd858d1c	-0.06521055
32	0x3c564736	0.013078501
33	0xbd28cb04	-0.041209236
34	0xbe1b3adc	-0.15159172
35	0x3e6e469a	0.2326912
36	0x3e72259b	0.23647158
37	0x3e09b3cc	0.13447493
38	0xbda8f7e0	-0.082504034
39	0x3d93bcee	0.0721377
40	0x3e0c8cd8	0.13725603
41	0x3db0b754	0.08628717
42	0xbe8061fc	-0.25074756
43	0x3df3f9b4	0.119128615
44	0xbd5a16e4	-0.053244486
45	0x3e99117e	0.29896158
46	0x3e198323	0.14991431
47	0xbdf2294e	-0.118242845
48	0xbc09fdbd	-0.008422312
49	0x3e27ee2f	0.16399454
50	0x3dc63177	0.096774034
51	0x3d1cce8f	0.038282927
52	0xbe3450ca	-0.17608944
53	0x3da3d5e9	0.079997845
54	0xbe8aac74	-0.27084696
55	0x3e281149	0.16412844
56	0x3de0a6e0	0.10969329
57	0x3d925298	0.0714466
58	0xbc8d05cb	-0.017214676
59	0x3c8817cb	0.016612908
60	0xbe3a5516	-0.1819652
61	0xbdd32a14	-0.1031076
62	0xbe2b7c0e	-0.16746542
63	0x3d4acfb7	0.0495145
64	0x3b5e7edb	0.0033950123
65	0x3f054b2f	0.52067846
66	0x3d2478d3	0.04015429
67	0x3c3f68db	0.011682714
68	0xbceb3936	-0.028713804
69	0xbdab93d5	-0.08377806
70	0x3ced30df	0.028953968
71	0x3e040481	0.12892343
72	0xbe96d7f5	-0.29461637
73	0x3e57ec63	0.21086268
74	0xbbb8aa97	-0.0056355703
75	0xbe2f56eb	-0.17123
76	0x3e19d53a	0.15022746
77	0xbe30b1ef	-0.17255376
78	0xbe87ba05	-0.2650911
79	0xbd1f8e35	-0.03895398
80	0x3de6c564	0.11268118
81	0x3e1e7745	0.15475185
82	0xbe12af9b	-0.143248
83	0x3d9b5c1e	0.07585929
84	0x3d18c4f3	0.0372972
85	0xbe3b20f1	-0.18274285
86	0x3da15b94	0.07878795
87	0x3e608d73	0.21928959
88	0x3df33c19	0.11876697
89	0x3db94e89	0.090481825
90	0xbe43d9fc	-0.19126123
91	0xbc8ba653	-0.017047083
92	0x3d1382ec	0.03601353
93	0x3d422cf8	0.047406167
94	0x3ec640dd	0.38721362
95	0xbd99df68	-0.075133145
96	0xbcb62364	-0.022233672
97	0x3d81ea1a	0.063434795
98	0xbd082595	-0.033238966
99	0x3b5a9453	0.0033352568
100	0xbdbfad8f	-0.093592755
101	0x3caae6df	0.020862041
102	0x3e82ff73	0.25585517
103	0xbd620191	-0.055177275
104	0x3d7927a2	0.060828812
105	0xbcd403b2	-0.025880668
106	0xbd2a6d36	-0.041608058
107	0xbd97ae31	-0.07406271
108	0x3dab1163	0.08352926
109	0x3dc58a4a	0.09645517
110	0x3e17774a	0.14791599
111	0x3da20995	0.07911984
112	0x3da3a166	0.07989769
113	0x3e5e026d	0.21680613
114	0x3db7b997	0.08970945
115	0x3dd9262b	0.10602983
116	0xbd8e77b4	-0.06956425
117	0x3e791a87	0.24326526
118	0xbd19f841	-0.03759027
119	0xbe002985	-0.12515838
120	0x3e085673	0.13314228
121	0xbe2f745b	-0.1713423
122	0xbc69e0b1	-0.014274762
123	0xbe5aa373	-0.21351413
124	0x3d46a379	0.048495743
125	0xbc0a89a2	-0.008455666
126	0xbc1f316a	-0.009716371
127	0xbc9b236d	-0.01893779
128	0xbe13fb7b	-0.14451401
129	0x3e0d16fb	0.13778298
130	0xbe068837	-0.131379
131	0xbe8e6cdf	-0.27817437
132	0xbec1bf68	-0.37841344
133	0x3e536c2c	0.20646733
134	0xbdcd176c	-0.10014233
135	0xbe2329d1	-0.1593392
136	0x3e7b388e	0.24533293
137	0x3c79793f	0.015226661
138	0x3d5c7a0b	0.053827327
139	0xbdb563c9	-0.08856923
140	0xbd2d3a3a	-0.042291857
141	0x3d6bba81	0.05755091
142	0x3e99bd0b	0.3002704
143	0x3cb35c04	0.021894462
144	0x3e4d372a	0.20040575
145	0xbddc6c64	-0.10762861
146	0xbb366191	-0.002782915
147	0xbde09646	-0.109661624
148	0x3e38d188	0.1804868
149	0x3dbfc3ac	0.09363493
150	0x3df9df50	0.122007966
151	0xbed2db1b	-0.4118279
152	0x3e233f1d	0.15942045
153	0xbe074d29	-0.13213028
154	0x3e3e291a	0.18570367
155	0x3d0e084a	0.034675874
156	0xbd90c32e	-0.070684776
157	0xbd2023a6	-0.039096497
158	0xbea5d38f	-0.3238797
159	0xbe4d0d2a	-0.20024553
160	0xbe6583bb	-0.22413532
161	0xbe0997f3	-0.1343687
162	0x3d753a41	0.05987001
163	0xbf29ba8d	-0.6630028
164	0xbe53dfea	-0.20690885
165	0xbed12a43	-0.40852556
166	0x3eb57aac	0.35445154
167	0xbdcb04aa	-0.09912999
168	0x3e4a5547	0.19759093
169	0x3d39a8fe	0.04532718
170	0x3db3fd24	0.08788517
171	0x3e75cc5c	0.24003738
172	0x3e629b7a	0.22129622
173	0xbdc827d5	-0.09773222
174	0xbe5dd325	-0.21662576
175	0xbe541856	-0.20712408
176	0x3e66e055	0.22546513
177	0x3d7546b4	0.05988188
178	0x3c20a89a	0.009805823
179	0xbe785ad9	-0.24253406
180	0xbdc10923	-0.09425571
181	0x3e32d099	0.17462386
182	0xbdd90161	-0.10595966
183	0xbe2f8f75	-0.17144568
184	0x3d067266	0.032823943
185	0x3d1862e9	0.037203703
186	0x3e40805e	0.18798968
187	0xbe3719ba	-0.17880908
188	0xbc68f997	-0.014219663
189	0xbe83131e	-0.25600523
190	0x3d7b3790	0.061332285
191	0x3e0d96d2	0.13827065
192	0xbdf4d04e	-0.119537935
193	0xbd8868f4	-0.06660643
194	0x3e1a3f2a	0.15063158
195	0xbe0c755d	-0.13716646
196	0x3ad623e1	0.0016337597
197	0x3dcf6818	0.10127276
198	0x3d168088	0.03674367
199	0xbe226fe6	-0.15862998
200	0xbeb5f368	-0.35537267
201	0x3c6b70d5	0.014370163
202	0xbc34688d	-0.011011255
203	0xbdb230bb	-0.08700701
204	0xbdc51479	-0.096230455
205	0x3d8ebc77	0.069695406
206	0x3c9186f1	0.01776454
207	0xbe833bf7	-0.25631687
208	0xbcd5d48f	-0.026102332
209	0xbca3dc87	-0.020002617
210	0xbcfb75d3	-0.030695831
211	0xbdf35120	-0.11880708
212	0x3e210de3	0.15727954
213	0x3ddeb49d	0.10874293
214	0x3c81cd34	0.015844919
215	0xbcaf78cf	-0.02141991
216	0x3e07d134	0.13263398
217	0xbc0b70e5	-0.008510803
218	0xbe077e64	-0.13231808
219	0x3cff4d85	0.031164894
220	0x3d27b45e	0.040943496
221	0xbe98bce2	-0.29831606
222	0xbbc2de68	-0.005946923
223	0xbe829b81	-0.25509265
224	0xbe49f4b1	-0.19722249
225	0xbdd89a77	-0.10576337
226	0x3e0293b0	0.12751651
227	0xbe003f6c	-0.12524194
228	0xbdc6fa83	-0.0971575
229	0xbdd86a6c	-0.10567173
230	0x3e0b2ce8	0.13591349
231	0xbdd5f7cc	-0.10447654
232	0xbdbdef66	-0.09274177
233	0xbdd55978	-0.104174554
234	0xbe7dd2ca	-0.24787441
235	0x3d39c1bb	0.04535077
236	0x3e10c710	0.14138436
237	0xbe56bc7b	-0.20970337
238	0xbd49646d	-0.04916804
239	0x3dcd02b4	0.10010281
240	0x3b9fabf7	0.0048727947
241	0x3e7db8a1	0.24777462
242	0x3ddb836f	0.10718428
243	0xbd15ece7	-0.03660288
244	0x3e1fdfd0	0.15612721
245	0xbb8fcc57	-0.004388373
246	0xbd1eb9e5	-0.0387515
247	0x3d27f633	0.04100628
248	0xbd858462	-0.06519391
249	0xbc46bff6	-0.012130728
250	0x3e0025b4	0.12514383
251	0xbe806575	-0.25077406
252	0xbe06b4cd	-0.13154908
253	0xbde22672	-0.11042489
254	0x3e3728f7	0.1788672
255	0x3e66be84	0.22533613

gru.bias_ih_l0 f4 [192]
0	0xbcc516c7	-0.024058713
1	0x3e3e138c	0.18562144
2	0x3e4d8910	0.20071816
3	0x3d598017	0.05310067
4	0x3ef5dcc1	0.48019984
5	0x3c29a313	0.010353821
6	0x3e51003a	0.20410243
7	0x3def8b58	0.116964996
8	0x3e214c03	0.15751652
9	0x3e2d5130	0.16925502
10	0x3dad1a2e	0.08452259
11	0x3d49cbd5	0.049266655
12	0x3de5d584	0.112223655
13	0x3eabba5e	0.33540624
14	0x3e00bca3	0.12571959
15	0x3e4a7d4d	0.19774361
16	0x3ea3baef	0.31978557
17	0x3eb28eec	0.34874666
18	0x3db3f5c5	0.08787111
19	0x3c6517f4	0.013982762
20	0x3d4b4aef	0.04963201
21	0x3ecc6709	0.3992236
22	0x3ebece45	0.37266746
23	0x3dd154d7	0.1022126
24	0x3e61853d	0.22023483
25	0x3e6a2b4f	0.22868083
26	0x3e58ec68	0.21183932
27	0x3e2cac4b	0.168626
28	0x3e364878	0.17801082
29	0x3ece2329	0.402612
30	0x3df4b3a6	0.11948328
31	0x3d967de1	0.07348228
32	0x3b72350f	0.0036957895
33	0x3e8221fd	0.25416556
34	0x3e283669	0.16427006
35	0x3e35d716	0.1775783
36	0x3e78b050	0.24286008
37	0x3e20cda7	0.1570345
38	0x3e03f4ed	0.128864
39	0x3ea4a17d	0.32154456
40	0x3d494fa1	0.049148206
41	0x3de504ef	0.11182582
42	0x3e42bf30	0.19018245
43	0x3e943754	0.28948462
44	0x3e251671	0.16121842
45	0x3e29e834	0.16592485
46	0x3e3ae5d5	0.18251736
47	0x3e26ab12	0.16276196
48	0x3e2ec684	0.17067915
49	0x3eb8214e	0.3596291
50	0x3dfb8128	0.12280494
51	0x3c35c440	0.011094153
52	0x3da343a9	0.079718895
53	0x3df5bb0e	0.119985685
54	0x3eb52cfc	0.35385883
55	0x3e57062f	0.20998453
56	0xbd325253	-0.04353554
57	0x3e4bc7d9	0.19900455
58	0xbc68ad02	-0.0142014045
59	0x3e08442e	0.13307258
60	0x3e0e7b35	0.13914187
61	0x3de5b3de	0.112159476
62	0x3cd68cf5	0.02619026
63	0xbcd7200d	-0.0262604
64	0xbef02d15	-0.46909395
65	0xbebad478	-0.36490226
66	0xbecd8c2d	-0.40146008
67	0xbeee7dc0	-0.46580315
68	0xbf21f132	-0.6325866
69	0xbf6f5a23	-0.9349691
70	0xbe8c3ecd	-0.27391663
71	0xbee3fb8d	-0.44527856
72	0xbf344285	-0.70414
73	0xbefc7383	-0.49306878
74	0xbf18c047	-0.5966839
75	0xbec47cac	-0.38376367
76	0xbe1e6148	-0.15466797
77	0xbf210d0a	-0.6291052
78	0xbe9745c3	-0.2954541
79	0xbf1cf820	-0.6131611
80	0xbe8dacc9	-0.27670887
81	0xbf3f90e9	-0.7483049
82	0xbedd6ae4	-0.43245614
83	0xbf1ea08d	-0.6196373
84	0xbe8ac0d6	-0.27100247
85	0xbf1cbfe6	-0.61230314
86	0xbf72051f	-0.94539064
87	0xbe9256f7	-0.28581974
88	0xbee324d4	-0.44364035
89	0xbf0e696f	-0.5562963
90	0xbe721c32	-0.23643568
91	0xbf41ed45	-0.7575267
92	0xbf0d25d9	-0.55135876
93	0xbee3a850	-0.4446435
94	0xbf0ddf7e	-0.55419147
95	0xbf3a8a6c	-0.72867465
96	0xbe8b85ff	-0.27250668
97	0xbf0ca75a	-0.5494286
98	0xbf41e377	-0.7573771
99	0xbf2496d2	-0.64292634
100	0xbf0b33f0	-0.54376125
101	0xbe8304b7	-0.25589535
102	0xbf7ee1e0	-0.9956341
103	0xbeb2214f	-0.34791037
104	0xbe3ae9c7	-0.18253241
105	0xbf297e5b	-0.6620843
106	0xbf03a011	-0.51416117
107	0xbedb3b3f	-0.4281864
108	0xbe8786a4	-0.2646991
109	0xbf0c373c	-0.5477178
110	0xbeb12272	-0.34596592
111	0xbedcd3a3	-0.43130216
112	0xbea43443	-0.32071123
113	0xbeb50095	-0.35352007
114	0xbf21b808	-0.63171434
115	0xbeef000d	-0.46679726
116	0xbf549eab	-0.8305461
117	0xbefe8556	-0.49711102
118	0xbf8ee642	-1.1164019
119	0xbf09d2d5	-0.5383733
120	0xbe87a901	-0.26496127
121	0xbeba0543	-0.3633214
122	0xbec6fbae	-0.3886389
123	0xbe2a8da8	-0.166556
124	0xbf25ceb0	-0.64768505
125	0xbeba88a8	-0.36432385
126	0xbe9991a1	-0.2999392
127	0xbf107b2f	-0.56437963
128	0xbc2adc25	-0.010428463
129	0x3e84f3b1	0.25967172
130	0xbe8f75c5	-0.2801954
131	0xbe3ec820	-0.18631029
132	0xbf1c7292	-0.6111232
133	0x3e3b0fea	0.1826779
134	0x3d93145a	0.07181616
135	0xbd22402c	-0.03961198
136	0xbe076e06	-0.13225564
137	0x3e3e8d45	0.18608578
138	0xbeb5fc68	-0.35544133
139	0xbe720d6a	-0.2363793
140	0xbd9feba8	-0.0780862
141	0xbece36b0	-0.40276098
142	0x3c160e8f	0.0091587445
143	0xbea6cfe2	-0.32580477
144	0x3e8479d0	0.25874186
145	0x3c4b80bd	0.01242083
146	0x3e8da436	0.27664346
147	0xbd5da505	-0.054112453
148	0x3ccbfe88	0.024901643
149	0xbeb686ac	-0.3564962
150	0xbecb578d	-0.39715233
151	0x3e953225	0.2913982
152	0xbd7d4d4b	-0.06184129
153	0xbe5d04b8	-0.21583831
154	0xbd648f69	-0.05580083
155	0xbe9c8cbe	-0.30576128
156	0xbe16a444	-0.147111
157	0x3e8b3d6c	0.271953
158	0x3c90f245	0.017693648
159	0xbe88a3a3	-0.26687345
160	0xbe6e7bd6	-0.23289427
161	0x3dd2e0f3	0.10296812
162	0xbeb0fbc9	-0.34567097
163	0xbe54e60d	-0.20790882
164	0xbecc8b12	-0.39949852
165	0x3d93c580	0.072154045
166	0xbd129fc3	-0.035796892
167	0xbebb48f0	-0.36579084
168	0x3ec5e78b	0.38653216
169	0x3e339163	0.1753593
170	0x3e76b769	0.24093403
171	0x3e5d510f	0.21612953
172	0x3e89375e	0.26800054
173	0xbe588672	-0.21145037
174	0xbe1361f4	-0.14392835
175	0x3d2384e2	0.03992165
176	0x3d0428fc	0.03226565
177	0x3e08580f	0.13314842
178	0xbe760494	-0.24025184
179	0x3e4759b8	0.19467819
180	0xbe74f5e3	-0.23921923
181	0x3eb21ada	0.3478611
182	0x3e96965b	0.29411587
183	0xbd5508a3	-0.05201019
184	0x3ebfaabd	0.3743495
185	0x3d8d2376	0.06891529
186	0x3d167330	0.036730945
187	0xbe11c1a6	-0.14234027
188	0x3c3ccfbc	0.011524137
189	0x3d00c3d3	0.031436753
190	0x3e6c2020	0.2305913
191	0xbdfa9f64	-0.122374326

gru.bias_hh_l0 f4 [192]
0	0xbbb7431e	-0.005592718
1	0x3d921ebc	0.07134768
2	0x3e0f14cd	0.13972779
3	0x3dae2249	0.08502633
4	0x3eeddc61	0.46457198
5	0x3c9e59c6	0.019329917
6	0x3da22b55	0.07918421
7	0x3e84b5e6	0.25920027
8	0x3d20cf19	0.039260004
9	0x3ce79542	0.028269414
10	0x3e139aab	0.1441447
11	0xbd6fb3a3	-0.058520924
12	0x3c563d4d	0.013076139
13	0x3e201f86	0.15637025
14	0x3c0e6fd4	0.008693654
15	0x3e193e48	0.14965165
16	0x3ead4a1f	0.33845612
17	0x3e5e395f	0.21701573
18	0x3d5ad9eb	0.05343048
19	0xbd0c5062	-0.034256347
20	0x3d2ac3e1	0.04169071
21	0x3ec4eec9	0.3846343
22	0x3eede458	0.46463275
23	0x3dcd2569	0.10016901
24	0x3e014b2e	0.12626335
25	0x3e83cbd9	0.2574146
26	0x3e2067cc	0.15664595
27	0x3e6f122f	0.2334678
28	0x3dcb828c	0.09937009
29	0x3e90f278	0.2830999
30	0x3e9985f4	0.2998501
31	0x3e1440c0	0.14477825
32	0xbcc19268	-0.023629382
33	0x3e84b589	0.2591975
34	0x3e51deb7	0.20495115
35	0x3e61dcf4	0.22056943
36	0x3e235098	0.15948713
37	0x3dc613c1	0.096717365
38	0x3e3fb555	0.18721516
39	0x3e40e4be	0.18837258
40	0x3e22039a	0.15821686
41	0x3e34bdf3	0.17650585
42	0x3e345d5c	0.17613739
43	0x3e4c6a09	0.19962324
44	0x3e4668f7	0.19375978
45	0x3e5ad7fa	0.21371451
46	0x3c648800	0.013948441
47	0x3df55ff5	0.11981193
48	0x3db1fe98	0.08691138
49	0x3e5e1032	0.21685866
50	0x3e4e84e9	0.20167889
51	0xbd4e9ca8	-0.050442368
52	0x3daf0892	0.085465565
53	0x3e51fe53	0.20507173
54	0x3ed01972	0.40644413
55	0x3dc8ab29	0.09798271
56	0x3d16176b	0.036643427
57	0x3e50dc45	0.20396526
58	0x3e05ee13	0.130791
59	0x3d147940	0.036248446
60	0x3e091fe7	0.13391076
61	0x3da5032b	0.08057245
62	0xbd58733c	-0.05284427
63	0xbd04758f	-0.032338675
64	0xbee34740	-0.44390297
65	0xbed2b6ce	-0.41155094
66	0xbecbdf4b	-0.39818797
67	0xbedc74be	-0.43057817
68	0xbf0da152	-0.5532428
69	0xbf840a6a	-1.0315678
70	0xbe768041	-0.24072362
71	0xbef5b35d	-0.47988406
72	0xbf1a922a	-0.6037928
73	0xbefc2b4f	-0.49251792
74	0xbec876cc	-0.39153135
75	0xbe9e51d4	-0.30921805
76	0xbe826616	-0.2546851
77	0xbf15d186	-0.5852283
78	0xbe95edc6	-0.2928297
79	0xbefd19d8	-0.4943378
80	0xbebfc419	-0.37454298
81	0xbf741f95	-0.9536069
82	0xbeb9152e	-0.3614897
83	0xbee11780	-0.43963242
84	0xbea28b60	-0.3174696
85	0xbeedc4a1	-0.46439078
86	0xbf76154b	-0.9612624
87	0xbec1f477	-0.37881824
88	0xbf2f6a20	-0.6852131
89	0xbf3d43c5	-0.73931533
90	0xbe1f84da	-0.15578023
91	0xbf2e09f1	-0.6798392
92	0xbf1813d1	-0.5940524
93	0xbf0057b2	-0.5013381
94	0xbf0e9c54	-0.5570729
95	0xbf04d029	-0.5188013
96	0xbea396d7	-0.3195102
97	0xbed982ec	-0.42482698
98	0xbf20b9d4	-0.6278355
99	0xbf4009ae	-0.7501477
100	0xbf033896	-0.5125822
101	0xbe378553	-0.17921953
102	0xbf7c7a89	-0.98624474
103	0xbe8806bf	-0.26567647
104	0xbe5ccc43	-0.21562295
105	0xbf2e9d8c	-0.6820915
106	0xbf18ced1	-0.59690577
107	0xbed90ad0	-0.42391062
108	0xbed2880a	-0.41119415
109	0xbf2c334e	-0.67265785
110	0xbe491b26	-0.19639263
111	0xbf00b517	-0.5027632
112	0xbe6e79d6	-0.23288664
113	0xbec9f721	-0.39446357
114	0xbf4c583e	-0.79822147
115	0xbee313f1	-0.44351152
116	0xbf5c2cb4	-0.8600571
117	0xbef1cd8e	-0.47227138
118	0xbf8aeb04	-1.0852971
119	0xbee841ca	-0.45362693
120	0xbee88906	-0.4541704
121	0xbe9ea2c5	-0.30983558
122	0xbedc3f74	-0.4301716
123	0x3d28616a	0.041108526
124	0xbf2593b5	-0.6467851
125	0xbebe1f4a	-0.37133247
126	0xbe30c0c6	-0.17261037
127	0xbf13af2e	-0.5768918
128	0xbd7e8b7a	-0.062144734
129	0x3e7f2a0f	0.24918388
130	0xbe695cfa	-0.22789374
131	0xbe3811d8	-0.17975557
132	0xbeee58d0	-0.46552134
133	0x3e76918e	0.24078962
134	0xbd7a10ea	-0.061051287
135	0xbe0c8261	-0.1372161
136	0x3da6775f	0.08128237
137	0x3e6a8219	0.22901191
138	0xbe9e3bfb	-0.30905136
139	0xbdd856eb	-0.10563453
140	0x3cbe546f	0.02323362
141	0xbe45bebb	-0.19311039
142	0x3e3a3a58	0.18186319
143	0xbf0f18fc	-0.558975
144	0x3e9961df	0.29957482
145	0xbd9fc16a	-0.07800563
146	0x3ea44d0f	0.3209004
147	0xbd2f5023	-0.042801034
148	0xbe4bf9fd	-0.19919582
149	0xbeebc2f0	-0.46047163
150	0xbef7a2f9	-0.48366526
151	0x3d81e8bb	0.06343218
152	0xbe7cd2d1	-0.24689795
153	0xbe9244ad	-0.2856802
154	0x3e018252	0.1264737
155	0xbecdb0cd	-0.4017395
156	0x3dcfd6c6	0.10148387
157	0x3e4dd17e	0.20099446
158	0xbe6cd4c1	-0.23128034
159	0xbea6b792	-0.32561928
160	0xbe26580b	-0.16244523
161	0xbd20fc7c	-0.039303288
162	0xbee03596	-0.43790883
163	0xbe464412	-0.19361904
164	0xbed246ba	-0.41069585
165	0xbe277e29	-0.1635672
166	0xbdf14e6d	-0.11782537
167	0xbea3ec7e	-0.32016367
168	0x3e493b59	0.19651546
169	0x3dcc93fa	0.09989162
170	0x3e1810c4	0.14850146
171	0x3e2c98b8	0.16855133
172	0x3eba5f00	0.36400604
173	0xbe1d398f	-0.15353988
174	0xbd8f75fc	-0.070049256
175	0x3e945d7b	0.2897757
176	0x3eb9c647	0.36284086
177	0xbe08b4b2	-0.1335018
178	0xbe3ca9fc	-0.18424219
179	0xbce5dc4a	-0.028059144
180	0xbecb91d9	-0.3975971
181	0x3ef360b0	0.47534704
182	0x3efc8657	0.49321243
183	0xbdfe84aa	-0.124276474
184	0x3ea6a310	0.32546282
185	0x3d600b0a	0.054698028
186	0x3e2f1487	0.17097674
187	0x3ca3762f	0.019953815
188	0x3e942f3e	0.28942293
189	0xbd74fecd	-0.05981331
190	0x3e74eb25	0.23917826
191	0x3e00f598	0.12593687

head.weight f4 [3, 64]
0	0x3d837ea4	0.06420639
1	0xbe12b87f	-0.14328192
2	0x3db86ee7	0.09005528
3	0x3e15c268	0.14624941
4	0x3d2d4ad8	0.042307705
5	0x3e007091	0.1254294
6	0xbd38e023	-0.04513563
7	0x3df1ff8d	0.118163206
8	0x3daeb659	0.08530874
9	0x3cc5eb03	0.024159914
10	0x3dbc41dc	0.09192249
11	0x3e3bfc3a	0.18357936
12	0xbdc1189a	-0.094285205
13	0xbd426bec	-0.047466204
14	0x3d486629	0.048925553
15	0xbd444089	-0.047913108
16	0xbd4876e5	-0.04894151
17	0x3d827b96	0.063712284
18	0x3d36ee47	0.044660833
19	0xbd9fc2bf	-0.07800817
20	0x3cb23f24	0.021758623
21	0x3ca187c0	0.019718051
22	0x3cf7fd67	0.030272199
23	0xbdd079f8	-0.10179514
24	0x3d745407	0.059650447
25	0xbd27c6e3	-0.040961158
26	0x3da86ce7	0.082238965
27	0xbccf888e	-0.025333669
28	0xbcf9dc39	-0.030500518
29	0xbce172b9	-0.027520524
30	0x3defabf9	0.11702723
31	0xbda297b2	-0.0793909
32	0xbc7282c2	-0.014801683
33	0xbb94cbf2	-0.0045409137
34	0xbdcc0194	-0.099612385
35	0xbd93b757	-0.07212704
36	0x3d443eb9	0.04791138
37	0x3dc95f18	0.09832591
38	0xbca72a25	-0.020405838
39	0x3d6a7e6d	0.057249475
40	0x3bfde3d9	0.007748109
41	0xbdadf753	-0.08494439
42	0x3c45709d	0.012050775
43	0x3d37b6d1	0.04485208
44	0x3d81d50e	0.06339465
45	0x3c7e20ea	0.015510777
46	0xbe2a5f22	-0.16637853
47	0xbd8e524c	-0.06949291
48	0x3c423c81	0.011855246
49	0x3c3011a7	0.010746396
50	0x3d07077b	0.03296612
51	0x3e22e941	0.15909292
52	0xbd7df086	-0.06199696
53	0x3e1887a0	0.14895487
54	0xbccea623	-0.025225705
55	0x3daa7303	0.08322718
56	0xbce61fda	-0.02809136
57	0x3dc797b4	0.09745732
58	0x3db1fa6e	0.08690344
59	0xbbc413cd	-0.0059838057
60	0x3c473414	0.0121584125
61	0xbd9a2c28	-0.075279534
62	0xbaf68fca	-0.0018811163
63	0xbcf4dfc3	-0.029891854
64	0x3d14719d	0.036241163
65	0xbe2f8b12	-0.17142895
66	0x3c547e57	0.012969575
67	0x3e406727	0.1878935
68	0xbe0d927e	-0.13825414
69	0x3e618ea8	0.22027075
70	0xbd8738ac	-0.06602606
71	0xbdb6f4e1	-0.08933426
72	0xbea8c9cb	-0.32966456
73	0xbe1d600e	-0.15368673
74	0xbe6ea9e7	-0.23307
75	0x3e4f9194	0.20270377
76	0xbe2bc93e	-0.16775987
77	0x3d877763	0.06614568
78	0x3d2f68b8	0.042824477
79	0xbdfacce1	-0.12246109
80	0xbd7142c4	-0.058901563
81	0x3c972217	0.018448872
82	0xbe40eedf	-0.18841122
83	0x3e75acf5	0.23991759
84	0x3e12da3c	0.14341062
85	0x3d937f37	0.07201999
86	0x3d45cd34	0.0482914
87	0x3e587f1b	0.21142237
88	0xbe3c1769	-0.18368305
89	0xbd793c7b	-0.060848694
90	0x3e00cb2e	0.12577507
91	0xbdd8c549	-0.10584504
92	0x3e514d39	0.20439614
93	0xbdb2403d	-0.08703659
94	0xbe136258	-0.14392984
95	0x3e6e318b	0.23261087
96	0xbe5eb5c7	-0.2174903
97	0x3e0d27f9	0.1378478
98	0x3dd19b5b	0.1023471
99	0xbdda1969	-0.10649378
100	0xbe1d0114	-0.15332443
101	0xbe427938	-0.18991554
102	0xbe148b8f	-0.14506362
103	0x3ddce897	0.107865505
104	0x3db6e2a0	0.08929944
105	0xbeb0ab93	-0.345059
106	0xbe0cc17c	-0.13745683
107	0x3d7a5ca9	0.061123524
108	0x3e5009a7	0.20316182
109	0xbe902745	-0.2815496
110	0xbde9722f	-0.11398732
111	0x3c8eeed4	0.017447866
112	0x3b724e77	0.0036973038
113	0x3d2e466e	0.042547636
114	0x3d8fa8ba	0.07014604
115	0x3e4ae6f2	0.19814661
116	0x3e9f92cb	0.31166682
117	0xbcb91722	-0.022594038
118	0x3de82b99	0.113364406
119	0x3d81861f	0.0632441
120	0xbdde4607	-0.108532004
121	0xbde474d4	-0.11155096
122	0xbe007909	-0.12546171
123	0xbd9f5376	-0.07779591
124	0x3ca83bfd	0.020536417
125	0x3d1b59fe	0.03792762
126	0xbe3d4956	-0.18485007
127	0x3e7e9b83	0.2486401
128	0xbe47f1e0	-0.19525862
129	0x3eacca2f	0.33748004
130	0x3e8bac2f	0.27279803
131	0xbe982a73	-0.29719886
132	0x3e8dfbe6	0.27731246
133	0x3e4a17e8	0.19735682
134	0xbe9e820d	-0.30958596
135	0xbe8d4602	-0.27592474
136	0xbe87a2df	-0.26491448
137	0xbed9608c	-0.42456472
138	0xbe1ee0b5	-0.15515406
139	0xbd112260	-0.035433173
140	0x3e3f8e85	0.1870671
141	0x3e0f7588	0.14009678
142	0x3e1856a0	0.14876795
143	0xbe713918	-0.23556936
144	0xbeecc157	-0.46241257
145	0x3e8b5f60	0.27221203
146	0x3e0db19c	0.13837284
147	0xbd772008	-0.06033328
148	0xbe729542	-0.2368975
149	0xbee1029e	-0.4394731
150	0x3e2d1754	0.1690343
151	0x3db424c2	0.087960735
152	0x3e05bed5	0.13061078
153	0xbda62e0f	-0.08114254
154	0xbe39e76a	-0.18154684
155	0xbe0bbb41	-0.1364565
156	0xbe9fbd58	-0.31199145
157	0x3ea0c84a	0.31402808
158	0x3de6778a	0.11253269
159	0xbcb8378e	-0.022487428
160	0x3e616208	0.22010052
161	0x3ea050b9	0.31311586
162	0xbc4df347	-0.012570209
163	0x3eb6d19d	0.35706797
164	0x3d8963b0	0.06708467
165	0xbe6b2839	-0.22964562
166	0x3e954347	0.2915289
167	0xbe4fc9ab	-0.20291774
168	0xbe7c61f3	-0.2464674
169	0xbe3ce7e9	-0.18447842
170	0x3e2e35bb	0.17012684
171	0x3f016d7c	0.50557685
172	0xbe816fee	-0.25280708
173	0xbe3bea58	-0.18351114
174	0xbda1fe97	-0.07909887
175	0xbe970e03	-0.29502878
176	0x3e779636	0.24178395
177	0xbdb74032	-0.08947791
178	0x3ea5824c	0.3232597
179	0x3eb4abff	0.35287473
180	0x3dd1300b	0.102142416
181	0xbe3a5a09	-0.18198408
182	0x3e26eff8	0.16302478
183	0x3d8fd445	0.07022909
184	0x3dd83a1f	0.10557961
185	0xbeab7b36	-0.3349244
186	0xbe326aa4	-0.17423493
187	0x3e9f2e85	0.3109018
188	0xbe924c4c	-0.28573835
189	0xbe96edcc	-0.294783
190	0xbe560c35	-0.20903094
191	0xbdddbc4d	-0.10826931

head.bias f4 [3]
0	0x3c838718	0.016055629
1	0x3b976b7e	0.0046209684
2	0x3db1ec19	0.0868761
