KMM-3d/fedmd_res_outputs/residual_R.pt (torch, 206562 bytes, 10 tensors)

net.0.weight f4 [128, 3]
00000000: 4d92 59bd 6ae6 783e a240 eebe 92de d2be
00000010: 0c79 e8bd 41d1 1c3e d3d4 afbd 3293 db3e
00000020: 182b 8abd 24ae 203e a9be 9abd a8a8 dabd
00000030: c24c 1dbf a22d ccbe 0421 68be 51c9 fdbc
00000040: 80f6 553e 1e57 9a3e f5a5 b9be 65a2 4abe
00000050: 35a1 573e 9969 063f 1715 85bd 11d4 ea3e
00000060: 371f e2bd b376 0b3d 7e8c f63e 5954 10bf
00000070: 2ed3 adbe 76d6 1abe e30c 64be 2632 d23e
00000080: 6ae1 cdbe da85 8fbe da3b a6be fa74 09bf
00000090: 4422 b7be 2feb ec3e 3cb4 673e 1a37 823e
000000a0: 2d5d cdbc 597c 98be daa7 c63d 0142 ecbe
000000b0: e4fe cbbe c6d4 9dbe 71cf a83e e3ea 983e
000000c0: 0500 77be 6561 023c 2b0e c63e cab4 0f3f
000000d0: 4afb 183e 26c7 613d 7764 c43e 0259 a5be
000000e0: 7073 e83d 7a95 00bf 1627 96be 917b 96be
000000f0: 5b0f 763e da5d 303e 24b5 a9be 23fb 183e
00000100: 1ef6 6f3e a542 98bd b6d8 3abd bcc0 453e
00000110: 07d0 b43e 4dfb 193f 128d d7be 69d6 56be
00000120: c715 a03e 8df7 d73e 2068 003f 430b fb3e
00000130: 1ab8 dc3d a779 04bf d3b8 803d e702 a4be
00000140: 5903 07bf 859c 123f d0f0 c83e 46b7 10bf
00000150: 72a5 d93d 6b9a a5bd cee2 adbd 71c1 6dbe
00000160: c08f b63d c325 babe b0cf 303e 8016 4c3e
00000170: 9f42 ca3e 8d33 983e 5c23 0bbf 669e ccbe
00000180: 3e4f 803e c8a9 cd3d 5dd2 e8be b796 a6be
00000190: 2513 013f 7689 c03e e6b7 60be bab5 34bd
000001a0: 9848 05bf 8f70 873c e044 bcbe 3a18 efbe
000001b0: 376b 02bd 4a78 a43d cd8c 7cbe 8a4f b83e
000001c0: 5269 9fbe 698c 033f e5fe e93e 530d cfbe
000001d0: 24c0 abbd fdc6 203d c7e2 3a3d 518a f03d
000001e0: eb62 673e 9638 2cbd f2c5 9abe ce49 c63e
000001f0: 83c4 0dbf 64f8 b7be 105c 20be a386 75be
00000200: 7c5b 4cbe a0b8 03bf 62a6 bfbd 34cb 083e
00000210: bbc7 b6be fdef b0bd 01ea c43e f7a6 25bd
00000220: d884 5e3d 9f49 9bbc d8c3 893d 0b9a 8f3e
00000230: d851 003f 3cf0 b13e a0b3 073f 2962 6abd
00000240: 3506 09bf ec85 56be 9013 ca3e c5ea d53b
00000250: 1c6a 6bbe c436 d6be 8c86 13bf f878 ebbe
00000260: 7266 f9bd c279 7f3e 6cb1 8a3e 020d 09bf
00000270: cdcb c63e aead d6be 9177 ddbd b1cf 97be
00000280: 339c a6bd eafd bfbd c432 10bf ded4 efbe
00000290: cb69 e1bd 5a7e ee3c f449 78be e3c8 793e
000002a0: ef4b 05bf 82e0 263d 282f 063f e59c 83be
000002b0: 84e5 e13e a8fa 5c3e 7ed5 27bf 202e 853e
000002c0: 8fe3 b7bd 278a b2be 2a91 c83e 04ca f0be
000002d0: 2e32 4d3d edb7 adbd bd7f de3e 8823 db3d
000002e0: c4af 8d3e be69 3a3e 033b 09be 7a2c 79bd
000002f0: f9d9 eebe cfc3 ac3e 23dc de3e 03b8 d33e
00000300: ce5a babe ed0b e93c 1b6f c0be a198 b3be
00000310: 18c8 89be aabf 5b3e 140c 90be be11 a4bd
00000320: 7f43 763c 7f3d c63e cdb8 bebe e9bb c6be
00000330: a86b afbe bc4e c83e b391 2fbe 0ee6 043f
00000340: 1b13 f93d 48ba 1b3d 0341 dabc 918f 91bd
00000350: c7cf 963d 131f 0fbe a976 103d d45d d43d
00000360: 2779 b6be 2773 67be 54c9 e03e 34ed debe
00000370: 0af3 32bb 5a99 133f 9c6a 573e cfd0 2f3b
00000380: d48f 04bf 8303 9f3e 236e c3be 440e 11be
00000390: ed6a 7dbe f2a9 6cbd 03b3 e93b dd4d e43e
000003a0: ef29 fe3c c8a2 ed3e 72d1 e53e 085b 94be
000003b0: 91eb 853e aef0 d8be 3447 53be e6e0 3e3e
000003c0: efe5 233e f719 d53e 9b29 44be e83c fe3c
000003d0: 001a 7d3e 6750 0dbf d3ce 013f 2d4b d2be
000003e0: f1df 4bbb 57f5 c4bd 074f 8cbe dc3e 923d
000003f0: fbce 013f b321 e0bd 01e3 b0be edaa 46be
-0.05311804 0.24306646 -0.46533686 -0.41185433 -0.11351213 0.15314199 -0.08585515 0.4288574
-0.06746501 0.1569143 -0.07555897 -0.106767 -0.6144525 -0.39878565 -0.22668844 -0.030979784
0.20894814 0.3014459 -0.36259428 -0.19788511 0.2105759 0.5250488 -0.06498163 0.4586492
-0.1104111 0.034048747 0.48154062 -0.56378704 -0.3395018 -0.15120873 -0.22270541 0.41053885
-0.4021104 -0.28031808 -0.32467538 -0.5369412 -0.3576833 0.4627318 0.22627348 0.25432664
-0.025068844 -0.2978237 0.09699984 -0.46144107 -0.39842904 -0.30826396 0.32970765 0.29866704
-0.24121101 0.007957791 0.38682684 0.5613524 0.14939609 0.055121563 0.383579 -0.3229447
0.11350143 -0.50228083 -0.29326695 -0.2939115 0.24029295 0.17223302 -0.33146012 0.14939551
0.2343373 -0.074345864 -0.045616828 0.19311804 0.35314962 0.6014908 -0.42099816 -0.20980228
0.31266615 0.42181054 0.5015888 0.4903203 0.10777302 -0.51748127 0.062852524 -0.32033464
-0.52739483 0.5727008 0.39246225 -0.56529653 0.10627259 -0.080860935 -0.08490525 -0.23218323
0.08914137 -0.36356935 0.17266726 0.19930458 0.39503953 0.2972683 -0.5435083 -0.39964598
0.25060457 0.10042149 -0.45472994 -0.3253686 0.5041984 0.37604874 -0.21945152 -0.04411862
-0.52063894 0.016533164 -0.36771297 -0.4669817 -0.03184053 0.08030756 -0.24663086 0.35998183
-0.3113504 0.51386124 0.45702282 -0.40439853 -0.08386257 0.03925227 0.045626428 0.11745132
0.22596328 -0.042046152 -0.30229145 0.38728184 -0.5537798 -0.35931695 -0.15660119 -0.23977141
-0.19956774 -0.5145359 -0.09357907 0.13358766 -0.35699257 -0.08639524 0.3845978 -0.040442433
0.05432591 -0.018956004 0.06726807 0.28047213 0.50124884 0.34753597 0.5300846 -0.05722252
-0.53525096 -0.20949525 0.3946805 0.006528231 -0.22989696 -0.41838658 -0.5762718 -0.4599073
-0.12177743 0.2494879 0.27088487 -0.53535473 0.38827363 -0.41929382 -0.10813821 -0.29650643
-0.081352614 -0.09374602 -0.5632746 -0.46842092 -0.110065065 0.029112983 -0.24246961 0.24393038
-0.5206899 0.04074145 0.52415705 -0.2570564 0.4412042 0.21579993 -0.6556014 0.26011753
-0.0897895 -0.34871027 0.3917325 -0.47029126 0.050096683 -0.08482347 0.43456832 0.107001364
0.2767316 0.182044 -0.13401417 -0.06083343 -0.46650675 0.3374314 0.43527326 0.41351327
-0.36397403 0.02844807 -0.37584767 -0.35077384 -0.26910472 0.21459833 -0.28134215 -0.080111966
0.015030741 0.38718793 -0.37250367 -0.3881524 -0.34261823 0.3912257 -0.17145424 0.51913536
0.12161847 0.03801945 -0.026642328 -0.07107461 0.07363849 -0.13976698 0.035269413 0.10369459
-0.35639307 -0.22602521 0.439036 -0.43540347 -0.0027305507 0.5765587 0.21036762 0.002682734
-0.51781964 0.31057367 -0.38169965 -0.14165598 -0.2474782 -0.05777926 0.0071319356 0.44590655
0.031025855 0.46413255 0.44886357 -0.289757 0.26156285 -0.42371124 -0.2063263 0.1864048
0.16005681 0.41621372 -0.19156496 0.031034902 0.2471695 -0.5520081 0.50706214 -0.4107298
-0.0031108821 -0.09617107 -0.27404043 0.07140896 0.5070645 -0.109439276 -0.3454819 -0.1940114

net.0.bias f4 [128]
00000000: 3b84 2f3e 4f4d 1b3f 9296 833e 7a8d c93e
00000010: 3f38 2cbe a1ce 763e bf87 a03d 217b 09be
00000020: c5e7 b5be d52c 9fbe 6f3f 05bf a539 e13e
00000030: 8651 c43e 6b87 58bd 9a1e aabe 4c6a cf3e
00000040: 0885 b93e 415a 6a3d 796b 7dbe c758 133f
00000050: 77bd 643e 4bab efbe 2238 ff3e 1dd3 e83e
00000060: 17fa 79be 92e4 a33e 4e44 a3be e90a 15be
00000070: fe5b 033f 86dc 24ba fdb3 e3be dc75 2fbe
00000080: a648 20be 4205 f1bd 1de9 bf3d f243 153f
00000090: 98eb a33c 6cce bebe a6a6 4d3d 6374 763e
000000a0: 0341 913e 3a10 04bf 6874 bebd d6e6 c5be
000000b0: 05ad 7ebe c988 2e3e e75a f7be b689 373e
000000c0: d312 023f 2d94 3d3d 4b2e b8be cee7 73be
000000d0: 6e22 153e cc53 d3be 41a0 8b3e 8d88 fdbe
000000e0: 09c6 0fbf 73c5 14bf 86e4 13be 3063 ca3e
000000f0: 5f19 08bf 923c ee3e 7c89 58be 1937 343e
00000100: ba5f 453d 5bdc e8be 15e8 f33e d460 b13e
00000110: a897 123f 07d7 873e 4318 b5be f5bf ed3e
00000120: 4331 b43d 7e76 893e afdc ebbe bfd1 22be
00000130: 54bc 0abf a26a 82be 3a7f 283e 254e e0be
00000140: b70b 1e3e 6856 983e 8d08 ac3d 4e88 b3be
00000150: 5bfe dabe d188 0dbe 05df 803e 03f4 0e3f
00000160: 6fa1 bc3e 230f 91bd 6676 5b3e 68cf 0fbf
00000170: aac5 f4be b141 8b3e ad65 b0be 9e28 9c3e
00000180: 1199 c9be 4ca8 a2be 4fc4 ebbe c260 953e
00000190: 7bd2 71bd 8e9b de3e c9ef a73e 8001 a33e
000001a0: 5234 213d 2977 3dbe bf50 09be c9fd e23d
000001b0: 431c 833e 8af7 dabe 08d7 0f3f 8e09 53bd
000001c0: d91b 0dbf 5f40 8fbe bfec e63e c348 fc3e
000001d0: 1ea1 11bf ae54 da3e 2a32 923e 5755 b23e
000001e0: d8eb 0d3f a1f1 aebe 4645 6d3e fd36 953e
000001f0: c25e 19be 327c 4f3e 4560 20be 77da ab3e
0.17140286 0.6066484 0.25700814 0.3936575 -0.16818331 0.2410226 0.078383915 -0.13425876
-0.3552839 -0.31088892 -0.52049917 0.43989292 0.38343447 -0.05286352 -0.33226472 0.40510786
0.36234307 0.05721498 -0.24748029 0.5755734 0.223379 -0.46810374 0.49847513 0.45473567
-0.24411808 0.32010323 -0.3188805 -0.14554943 0.51312244 -0.0006288964 -0.44473258 -0.17134804
-0.15652713 -0.11768581 0.09370635 0.583068 0.0200098 -0.37266862 0.050207756 0.24067836
0.28369913 -0.5158726 -0.092995465 -0.38652676 -0.24870689 0.17044367 -0.4831154 0.17923626
0.50809973 0.04628389 -0.3597282 -0.23818895 0.14563915 -0.4127487 0.27270702 -0.49518242
-0.5616155 -0.58113784 -0.14442644 0.395288 -0.53163713 0.46530586 -0.21146196 0.17599143
0.048186995 -0.45480618 0.47638002 0.34644186 0.5726266 0.2653124 -0.35370073 0.46435514
0.087984584 0.26848215 -0.46066806 -0.15900324 -0.54193616 -0.2547198 0.16454783 -0.4380962
0.15434156 0.29753423 0.084000684 -0.3506493 -0.42772183 -0.13821723 0.2517015 0.5584108
0.36841914 -0.07082965 0.21431884 -0.5617585 -0.47807056 0.27198556 -0.34452572 0.30499738
-0.39374593 -0.31769025 -0.4604821 0.29175383 -0.05903862 0.43478054 0.3280013 0.31837082
0.039356537 -0.18502487 -0.13409708 0.11083562 0.256075 -0.42766982 0.56187487 -0.051522784
-0.5512062 -0.279788 0.45102498 0.49274263 -0.5688647 0.4264273 0.28553897 0.34830734
0.55437994 -0.34168723 0.23170957 0.29143515 -0.14977553 0.2026222 -0.15661724 0.33565113

net.2.weight f4 [128, 128]
00000000: 7408 9fbc 8c4d 85bd 9074 923c 70fe 9fbc
00000010: 3f96 2dbd 5fa9 5c3c 5a5f 0d3d 141e e2bb
00000020: fb08 a43d 9fb6 94bc 018c fa3c f8dd 7ebd
00000030: cf1a 65bd e47a a4bd 2b8d ae3d ffd5 e0bc
00000040: dee1 e13c 86c9 b9bc e65e b73d 2d79 ab3d
00000050: a7b4 59bd b501 60bd 3ff3 73bd 8b67 6b3b
00000060: ce47 d9bc af17 26bd 30ab e0bc e6bb 883c
00000070: 1a00 c4bd c838 ac3c 39dc 65bb c01e 14bd
00000080: 58be a43c 31b4 7c3d e7df c4bd 5bf1 c53b
00000090: 4fec 80bc 0189 ad3d 164c a1bd 6f46 57bd
000000a0: 7ac4 763d 8d77 58bd 3437 403c 4018 edbc
000000b0: b730 b2bc 8f40 9f3b 830b 733d c1c3 263b
000000c0: 080b c8bd 039b 72bd 3b70 eebc 5bb4 433d
000000d0: 820c 55bd 2734 8a3d afb2 26bc ae3e a5bc
000000e0: a1bf ba3d 5e97 193d 5362 a23d 5bb8 4b3d
000000f0: 3cc3 13bd 8cac 72bd c9d4 f9bc cf7f 8b3d
00000100: 210c 8bbd 6fbf b2bd 9b17 483c afe8 ba3d
00000110: f259 eebc 2685 6fbd 47cf c6bd ae3a 103d
00000120: ee84 80bc 3ec4 6cbc a919 2dbc 6e2c 1e3d
00000130: 15be 673d e24b fb3d 1e8f 80bc 2275 b2bd
00000140: 8c06 a5bd 1437 b83d 684e 343d 0fc1 1d3d
00000150: bcde b0bd 0797 aa3d 9e11 b03d 5b0c a03d
00000160: 527d fbbd 0bef 16bd b05b 8dbd a303 ae3d
00000170: 2785 07bd 6db1 96bd 995f 2b3d 6d9e 6cbd
00000180: da90 93bd 68df 303d 8812 85bc f3fa 83bd
00000190: 45c0 a63d 46fb e9bc 746a 043d c428 aa3d
000001a0: 60ec 053d f748 1e3c c32c 283e dccb 5c3c
000001b0: a688 31bd d5e6 c53d 9edb e43c de98 acbd
000001c0: 6fa3 13bd fa30 a1bd bb31 b33d 1638 42bc
000001d0: 420f 64bd fa23 e0bc cf27 843d a451 b23c
000001e0: 09e2 1b3d 54fe 463c ab24 333d b6f7 c2bc
000001f0: c66a 13bd 7b37 b5bd d571 94bd 7bfa 273d
00000200: 6a2b 16bd adae 153d 47f2 443d 3575 813d
00000210: a826 85bd ae76 8e3d b0fc 77bd 649a a03d
00000220: 34f3 10be 05a7 eebc e17b 9d3d 77cc 31bd
00000230: a57c a63d e442 2c3b e8f8 9dbd 4f27 26bd
00000240: fc9f 23bd 8efe 8b3d 1ce8 75bd c284 9e3c
00000250: 3291 bfbc 3783 56bc 78dd 2c3d 7324 bebd
00000260: 2737 bc3c ba77 913d 5ca5 0dbc 87e3 cf3d
00000270: ca47 e23c ab89 963d f2b2 cabd de73 b9bc
00000280: 2885 8ebc e295 4d3d 11e9 a73d 9915 5c3d
00000290: c694 1fbd fdeb a7bc 2a42 063d 713d a3bd
000002a0: 19ad f03d 42e0 7abd 6ae9 febb 33c8 dd3c
000002b0: 5778 1c3d 596e 103c 3f3e 57bc 72cf 51bd
000002c0: 9569 033d 7d59 0a3d b287 d43c 6134 f7bc
000002d0: e2e3 eb3c 93c8 eb3d aaf9 debc 507b a5bd
000002e0: 800c df3c 8188 10bd 90ec 373d b5f4 0f3d
000002f0: d9bb d6bc 4f90 d03c e749 1ebd fe3a da3c
00000300: 032a 7cbc c094 2dbc 7504 e53c 8e72 6e3d
00000310: 711a f3bc 7b15 143d 9280 a93c 1516 a4bd
00000320: b020 c4bd 0122 0cbe 10a2 0d3e c109 1fbd
00000330: 3d7e 163d a83c 27bd 37dd 073d 01ce a93d
00000340: f412 c13d 0575 61bd 8d16 3fbd bfc8 72bd
00000350: db32 b6bc 523f bbbb 7c61 8e3d 7176 a5bd
00000360: e4ec d93d afea b6bc 2557 02bc a619 a43d
00000370: 9586 edbc 6187 673d f2d7 07bd 1682 bf3d
00000380: 1252 253d 3598 e4bd 274a a93c b956 63bd
00000390: 9cdc aebd 71d9 09bc bd5c 7a3d 7fb1 69bd
000003a0: c5e8 233d 9f37 803d 12d6 36bd 2631 a0bd
000003b0: ceb9 78bb e0ff a7bc ac25 e0bd 6a93 dcbc
000003c0: e066 bd3d bfe0 e83d b29e 0b3c fe61 e03b
000003d0: d0ed 89bd e0f3 bb3d a804 0ebd c182 b4bd
000003e0: 78e0 4fbc ec86 473d 3541 d2bd 5aa9 5b3d
000003f0: 2cbc 1d3d 5134 6dbd 5a05 cebb 1db8 823d
-0.01941321 -0.065089315 0.017877847 -0.019530505 -0.042379614 0.013468116 0.034514762 -0.0069005582
0.080095254 -0.018153487 0.030584337 -0.062223405 -0.05593377 -0.08031252 0.085230194 -0.027445791
0.027573522 -0.022679102 0.08953647 0.08372722 -0.0531508 -0.054689128 -0.05955815 0.003591987
-0.026523497 -0.04054993 -0.027425379 0.01669116 -0.09570332 0.02102317 -0.003507389 -0.036162138
0.020110294 0.06169528 -0.096130185 0.0060407347 -0.01573768 0.08473397 -0.0787584 -0.052557405
0.06024597 -0.052848388 0.011731911 -0.028942227 -0.021751745 0.004859991 0.05933715 0.0025446268
-0.09767729 -0.059229862 -0.02910625 0.047779422 -0.05201388 0.067482285 -0.010174437 -0.02017149
0.091185816 0.03749787 0.0792891 0.049736362 -0.036074862 -0.059246585 -0.030496972 0.06811487
-0.06789423 -0.08727919 0.012212659 0.09126412 -0.029095624 -0.05847659 -0.09707504 0.03521221
-0.015688386 -0.014451085 -0.0105652 0.03861659 0.05657776 0.12270333 -0.015693244 -0.087137476
-0.08057889 0.0899488 0.044020087 0.038514193 -0.08636233 0.083295874 0.0859711 0.078148566
-0.12279762 -0.036849063 -0.06902254 0.084967874 -0.03308597 -0.0735806 0.041839216 -0.057768274
-0.072053626 0.043181807 -0.016244188 -0.06444349 0.08142141 -0.0285622 0.032328084 0.08308557
0.032696128 0.009660951 0.16423325 0.013476338 -0.04334321 0.09663168 0.027936753 -0.084275946
-0.036044534 -0.0787067 0.0874972 -0.011854192 -0.055678613 -0.027360905 0.064529054 0.021767445
0.03805736 0.0121455975 0.04373614 -0.023799758 -0.0359905 -0.08848473 -0.07248274 0.04101036
-0.036662497 0.036543537 0.048082616 0.063211836 -0.06501514 0.0695623 -0.060543716 0.07841948
-0.14155275 -0.029132375 0.07689644 -0.043407883 0.08129243 0.0026284987 -0.07713491 -0.04056483
-0.039947495 0.06835662 -0.06003581 0.019350413 -0.023384664 -0.0130928075 0.042203397 -0.09284296
0.022975517 0.07102914 -0.008645382 0.10150819 0.027622122 0.07350477 -0.09897412 -0.022638258
-0.017397478 0.050191768 0.08198751 0.053731535 -0.03896024 -0.02049827 0.032777943 -0.079707034
0.11751766 -0.061249025 -0.00777929 0.027073001 0.038200703 0.008815371 -0.013137399 -0.051223226
0.032083113 0.03377675 0.02594361 -0.030176343 0.028795186 0.11512866 -0.027218658 -0.080801606
0.02722764 -0.03528643 0.044903338 0.03514548 -0.02621262 0.025459437 -0.038644698 0.026639458
-0.015390876 -0.010594547 0.027956227 0.058214717 -0.029675694 0.036153298 0.02069119 -0.08012024
-0.09576547 -0.13684846 0.13831353 -0.03882766 0.036741484 -0.04082933 0.03316995 0.08291245
0.09427443 -0.05504324 -0.046652365 -0.059273478 -0.022241047 -0.0057143355 0.069521874 -0.080792315
0.106408864 -0.022328703 -0.007955347 0.080127046 -0.028994838 0.05652559 -0.033164926 0.09350984
0.04036147 -0.11161844 0.020665241 -0.055502627 -0.08538172 -0.0084136585 0.0611236 -0.05705404
0.04001691 0.06260609 -0.044637747 -0.07821874 -0.0037952545 -0.020507753 -0.10944685 -0.026925761
0.092481375 0.11370992 0.008521723 0.006847619 -0.06734812 0.09177375 -0.03467241 -0.08814002
-0.012687795 0.048712656 -0.102663435 0.053628303 0.038509533 -0.05791122 -0.006287259 0.06382773

net.2.bias f4 [128]
00000000: bff9 17bd e355 bbbd c91b 10bd c63a c9bb
00000010: 775c 70bd ee0f a4bd b348 c03d df61 abbd
00000020: 27f7 49bd b5ee 583d ad07 89bd b95c 583d
00000030: f824 8bbd 7ba7 32bc 7e7e 253d d41d aebc
00000040: 8463 87bd 1e95 243c 30cd 7fbc 6b77 b53d
00000050: 1904 343b 8121 913d 4bcb ddbc da17 07bd
00000060: 4fed d0bb f775 5d3d 642f af3d 4045 0a3d
00000070: 497d debc c470 393c b625 513d f06d 893d
00000080: 6d9a 833d 4842 013d de09 6cbc 17e4 933d
00000090: 52d1 b63c 75b4 99bd b494 d53d d059 86bc
000000a0: 38d4 b93d 5dfc 6a3d 5d07 3f3b 8053 93bd
000000b0: af5e a5bd 253f 34bd 5d99 1b3d d0f3 213c
000000c0: df12 283b 6659 94bd 1f58 763d d601 c6bc
000000d0: a39b 363d 69c8 bfbd b776 913c eaed 2d3d
000000e0: 8033 083d a625 a0bd 0eee 993d ed2b 8cbd
000000f0: edb4 b6bd 9f47 85bd 4675 bebd 1871 cf3c
00000100: a589 853d 0b11 213d d5f8 683d e15c 11bd
00000110: eae3 573c 52f3 083d d98c babd c0e6 e03a
00000120: b612 153d 8df3 9e3d de82 4d3d 8b6e 17bd
00000130: 661f 12ba fecb 423d 6b01 c23d 82cd 24bd
00000140: da0e a63d cc84 84bc 8a2d 51bd 5389 1cbc
00000150: 602f 923d e6a7 7abd c7ce 73bc 0427 0bbd
00000160: 8a26 003c 01ba 6c3d 1b97 29bd b742 7dbc
00000170: c3b8 a03c 6819 343d 19fe b73a 061e e7bc
00000180: 0825 94bc faaa f03c b6c7 9d3d 8a95 463d
00000190: a437 b93c 2824 d73b 6d26 0c3d 5747 063b
000001a0: bfcb a3bd 6416 34bd 2e6c 0b3d 3b6a f63c
000001b0: 5a4d 23bd d923 43bd 5c29 4c3d bff8 90bc
000001c0: c167 9c3d 3c8c 153d a23a cd3b da60 f6bc
000001d0: 4815 4cbd f60b f239 ca38 3fbd 8cbc 33bd
000001e0: 16ee 81bd edbe cebb 61ab a7bc 10da 06bc
000001f0: 824f 22bd c24f 2b3d 74e2 2a3d 0310 513d
-0.03710341 -0.09147241 -0.035182748 -0.0061410395 -0.05868193 -0.08010851 0.09388866 -0.08368277
-0.04930797 0.052962024 -0.06690917 0.052822802 -0.067941606 -0.010904188 0.040403835 -0.021254458
-0.06610778 0.010045318 -0.015612885 0.08860668 0.0027468263 0.070864685 -0.027074477 -0.03298173
-0.0063759456 0.05406758 0.08553961 0.03375745 -0.02715935 0.011318389 0.051061355 0.06710422
0.06425939 0.03155735 -0.014406649 0.07221239 0.022316609 -0.075051226 0.104287535 -0.016400248
0.09073681 0.05736958 0.0029148676 -0.07193661 -0.080747 -0.04400553 0.037988055 0.00988479
0.0025646014 -0.07243614 0.060142633 -0.024170797 0.04458202 -0.09364397 0.017756803 0.04246322
0.03325224 -0.07819681 0.075161085 -0.06844316 -0.089212276 -0.06507801 -0.09299712 0.025322482
0.06520394 0.039322894 0.05687793 -0.035488967 0.013176898 0.033435173 -0.09108896 0.0017158613
0.036394797 0.077612974 0.050173633 -0.036970656 -0.0005574137 0.047557823 0.09472927 -0.04023505
0.081083015 -0.016176604 -0.05106882 -0.009554225 0.07137942 -0.061195277 -0.0148808425 -0.033972755
0.007821688 0.057794575 -0.04140387 -0.015457801 0.019619351 0.04396954 0.0014037519 -0.028212558
-0.018084064 0.029378403 0.077041075 0.048482455 0.02260954 0.0065655895 0.034216333 0.00204893
-0.07997846 -0.043966666 0.034038715 0.030079952 -0.03986869 -0.04764161 0.04984413 -0.017696736
0.07636977 0.03651069 0.006263093 -0.03007548 -0.049824983 0.00046166749 -0.046685018 -0.043880984
-0.063442394 -0.006309381 -0.020467462 -0.008230701 -0.039626606 0.04182411 0.04171987 0.05104066

net.4.weight f4 [128, 128]
00000000: 232c 443b bc8e 8e3d f56e 5abd 0cb0 b7bc
00000010: 390d b13c 33fb abbd dc03 943d 3348 373d
00000020: e87a 9e3d dfcc 2e3d 2935 733d aa9a 80bd
00000030: 97db 373d bce4 0fbd 2cb9 093d 7775 b6bd
00000040: 8a95 38bc 6441 adbc 03ac 56bd 5809 a5bd
00000050: c1e8 6a3c 063d 19bd 6125 aabd b32d bdbd
00000060: c636 7c3d 2b47 8f3d 6e1e d3bc 8e12 f23c
00000070: 0dc3 77bb eacc 0bbd 425c 663c 3c7e f83c
00000080: 63b6 603c 9b6e 3cbc 9c6e cfbc 8e71 7f3d
00000090: 5ec6 4dbd e95d d43b 679f 57bd e714 0e3d
000000a0: 35b5 7bbc 1af3 69bd eeec 8fbd 24a5 3fbc
000000b0: 443b 9b3c 77d6 693d e55d a8bc 2f0e 5bbd
000000c0: 4531 b5bd 26a8 afba 5e69 a73d 6a3b c0bd
000000d0: 8aed 4dbc 950a 493d 4a5c 9d3d 8969 81bd
000000e0: f608 8fbd e5d6 bb3d a57a 39bd 1560 e83c
000000f0: 33f0 a5bd feb6 683d 0e7f 87bc 8c71 1cbd
00000100: 5fd8 4bbd 0b73 253d 9fee ebbc 3431 92bc
00000110: e05f 91bd 530c a63d 10ce 793c 1fbe 533a
00000120: aa77 cd3c 7448 a33d 2144 91bd 2fd1 903d
00000130: 4c4a 593d 9c34 3b3d 7aef 27bc 3c2e 8dbd
00000140: 43db 7cbb 62c9 023e 482a 64bd 7e2f 81bd
00000150: 65c3 1f3a e881 553d bf3d 9ebd 8de3 4fbc
00000160: 8b78 2a3d 8e13 c1bc d7fc 7ebd 8105 86bc
00000170: 80b0 2bbc af39 a63c 054c abbd 2a0c fb3c
00000180: c704 06bc 0399 813d 85fd 32bd e004 1f3d
00000190: b799 70bc 9cb9 403d 8a70 afbd 56ca 42bc
000001a0: 4c3a 81bd 5001 213d 9584 98bd e7b0 653d
000001b0: 262c b3bd 3ce0 533d cd1c 1abd 2de7 8fbd
000001c0: cc4c 5a3c 05a8 6abd 3934 283d 9fd6 e83d
000001d0: 5015 513c 4274 8dbd 7ba4 5b3d 3791 a9bb
000001e0: a875 b43c 22ea 3f3d 72dc f5bd 1e05 16bd
000001f0: 9c64 f63c 348d bc3c 8c36 62bb 69b8 3ebd
00000200: 139e 883d b6e7 8bbc 6087 91bc 418e 653d
00000210: 58f7 46bc 799a 6bbd aef0 a7bd 23de d33c
00000220: faed 353c bcf3 443d 3bfa 263d 5bce ba3d
00000230: 1286 483d 0d5c 083d 669a bb3d 49de 24bd
00000240: 1a22 423d 465c 14bd db0a 433c 6f97 113d
00000250: 1135 9abd 7528 683d 4aa3 893a 24d0 17bd
00000260: 91c1 32bd 2d7c 1abd fb2f 8e3c 0bd7 d8bc
00000270: 875e a83c 2c24 11bd 8c90 c0b7 94e6 8b3d
00000280: 1240 d4bd 0644 beba b8e1 433d 0b3e 003d
00000290: 26ba 8b3c 8f43 833d 6de4 c6bd dd48 a0bd
000002a0: 9053 d0bd 3341 9d3d 3c81 673d 5c13 5f3d
000002b0: 9f99 af3d 5725 1dbd db94 b03d 7122 743c
000002c0: f74e 9e3c 6733 c9bc d664 c5bc db09 3ebd
000002d0: a352 cd3c 52f0 373d e5a1 8cbd 6a2f 18bd
000002e0: 7011 5bbc 65b6 a8bd b210 aebc c543 d43c
000002f0: f4a9 e83a 9f5c c237 da63 643d c248 6cbd
00000300: 8501 11bd 70b0 58bc 604a 0c3d bd68 2d3d
00000310: 51d6 81bd 440e 893b a316 9fbd 0d02 9bbd
00000320: 519d ea3c babb 7cbd 65ca 8f3d 955c 5dbd
00000330: 129e acbc f6b3 263d 36ac a13c c9b0 bd3c
00000340: a404 25bc 0db4 86bc d4df 23bd 28b9 a93d
00000350: 08c9 753d d2ab 44bd e36e 933d 74dc a13c
00000360: 1f7a 8ebd e51b 32bd 5649 febb 8449 9abd
00000370: 9907 7ebd a109 5cbc 14f1 8abd f13b 7bbd
00000380: 1f4f 973b 2829 32bc 1f57 4f3d 8f28 9c3d
00000390: f15d 2b3d 894a 33bd 49a8 8f3c 604a b0bc
000003a0: 0489 273d 197a a2bd e5a4 973d 55ac 6f3d
000003b0: 1735 febb 327b 08bd 0e56 593d 742b 533d
000003c0: 75cc d63d 766a 12bd 1526 8cbd 0e90 8ebd
000003d0: 0014 45bc aaa7 863c 6a9c a83d 0556 22bd
000003e0: 687c 98bd 76bf e3bb a604 373c ce2e df39
000003f0: d356 efbc 83e2 66bd 8db4 76bd 9574 cc3d
0.0029933534 0.06960818 -0.053328473 -0.022422813 0.02161275 -0.08397522 0.072272986 0.04474659
0.07738286 0.04267585 0.05937687 -0.062795 0.04488715 -0.035130247 0.03362386 -0.089091234
-0.011266122 -0.021149345 -0.052410137 -0.08058423 0.014337719 -0.037411712 -0.08307911 -0.09237232
0.061575674 0.06995996 -0.025771346 0.029549863 -0.0037805468 -0.03413097 0.014060082 0.03033363
0.013715359 -0.01150098 -0.025321297 0.062364154 -0.050238006 0.0064809215 -0.052642252 0.034687903
-0.015363027 -0.057116605 -0.070276126 -0.011697087 0.018949158 0.057089295 -0.020552585 -0.053480323
-0.08847288 -0.0013401553 0.08174394 -0.09386332 -0.012568841 0.049082357 0.07683618 -0.06318957
-0.06984131 0.09171847 -0.04528298 0.028366128 -0.08102455 0.05681514 -0.016540077 -0.038194224
-0.049766894 0.040392917 -0.028800307 -0.017845728 -0.07098365 0.081078194 0.015246883 0.00080773415
0.025081474 0.07972804 -0.07093073 0.070711486 0.05304937 0.04570447 -0.010249967 -0.06893584
-0.0038582839 0.12772134 -0.055704385 -0.063078865 0.00060944847 0.05212584 -0.07726621 -0.01268853
0.041618865 -0.023568895 -0.062252846 -0.016360046 -0.010479093 0.020291178 -0.08364109 0.030645449
-0.00817985 0.06328013 -0.043698806 0.03882301 -0.014685086 0.04705201 -0.08566387 -0.011889061
-0.06309947 0.039307892 -0.07447163 0.05607691 -0.08748655 0.05172752 -0.037625123 -0.07026515
0.013323974 -0.057289142 0.04106543 0.11369061 0.012761429 -0.0690694 0.053623658 -0.0051747817
0.02202876 0.046854146 -0.12004937 -0.036625974 0.030077271 0.02301655 -0.0034517376 -0.046562586
0.06670775 -0.017078262 -0.017764747 0.056043867 -0.012143932 -0.057520363 -0.08200203 0.025862759
0.011104101 0.048084006 0.040765982 0.091213904 0.048955984 0.03329091 0.091603085 -0.04025105
0.047395803 -0.03622081 0.011904444 0.03554481 -0.07529653 0.056679208 0.0010500934 -0.037063733
-0.04364163 -0.03771608 0.017356863 -0.026469728 0.020552887 -0.035434887 -2.2955493e-05 0.06831089
-0.10363783 -0.0014516122 0.047822684 0.03130917 0.017056536 0.0640937 -0.097115375 -0.078263976
-0.10172188 0.076784514 0.056519732 0.054461822 0.08574223 -0.03836569 0.08622142 0.01490079
0.019324763 -0.024560643 -0.024095934 -0.046396118 0.025063818 0.04490692 -0.068668164 -0.037154593
-0.013370857 -0.08237914 -0.021248195 0.025911221 0.0017750845 2.3169732e-05 0.05575929 -0.057686575
-0.03540184 -0.01322566 0.034250617 0.042336214 -0.06339706 0.004182609 -0.077679895 -0.075687505
0.028639467 -0.061702468 0.070210256 -0.05404337 -0.021071468 0.040698968 0.019735437 0.023155587
-0.010071907 -0.016443277 -0.04000838 0.08287269 0.06000617 -0.048015423 0.07198884 0.01975844
-0.069568865 -0.043483634 -0.007760207 -0.07533553 -0.062018964 -0.01343003 -0.06784263 -0.06133646
0.0046175863 -0.01087407 0.050620195 0.076249234 0.041837636 -0.043772254 0.0175363 -0.02151984
0.040902153 -0.079334445 0.07404498 0.058513958 -0.0077577936 -0.033320613 0.053060584 0.051555112
0.10488216 -0.03574606 -0.06843201 -0.0696107 -0.012028694 0.01643737 0.082329586 -0.039632816
-0.074456036 -0.006950314 0.011170542 0.00042568747 -0.029216206 -0.056368362 -0.06023078 0.09983174

net.4.bias f4 [128]
00000000: 48f9 b2bb a307 e2bd 826d 10bd 2b93 903d
00000010: a70e c93d 4d53 4a3c 7d68 a83b 2a8b 023d
00000020: 7479 17bd e1a6 23bd d9ae 463d 4ffa bdbd
00000030: e887 03bd e945 75ba c4ca 0dbd 0223 9fbd
00000040: 0a56 343d 840c 513d e4f0 e23d 0a1f d3bc
00000050: 7bf2 733d 1696 883d 3199 08bc 8825 283d
00000060: 9bfe 333d 7199 c8bd e6f7 323b 10fd bdbc
00000070: 5152 923d c034 823d 6dde 67bc 4b4a efbc
00000080: 448c 6d3d dd1d 1f3d a4a8 9cbd b897 94bc
00000090: 4187 14bd 076e b43c 989f a93b 1b62 14bc
000000a0: 6bf0 6dbb 8ad1 b8bd 623d b13d ddc1 993d
000000b0: 8e6e 2cbd 1ac6 803c 557e 983c 0c23 22bd
000000c0: 5623 523c e783 303d 1440 bdbd 5024 853d
000000d0: 75d9 a63d ae4b 3e3a 1f2f 6abd a42e 2d3d
000000e0: a8f5 b23d e97e 8d3d 0cb7 623d e75c 7a3a
000000f0: adf1 4b3d e7e1 cd3d d688 bb3d 6f47 133d
00000100: f85a 1cbd 2834 c73d be22 15bd 2e17 7fbd
00000110: 61c5 aa3c 4741 bdbb 56d5 e4bd 7fa1 c3bc
00000120: aa7a 1bbd 51c1 d33d 6dd9 753d 7a05 a5bd
00000130: 4acb a63d dbc9 9ebc 2d87 a93d cc9b 4bbd
00000140: 18c7 0ebd a51b 67bc 4af2 f53c 36a7 fe3c
00000150: 4277 a1bd cfa6 893d 9bb5 9dbd 1eb7 40bc
00000160: 01c8 b7bd d7c7 493d b7b6 633c bd3e 07bd
00000170: 38e9 973d 982b d0bd 80e0 853d 9cfc 083d
00000180: 11c2 9dbd 2d02 253d 1a8a 26bd cb8f c8bc
00000190: f255 1e3d 6370 1a3d ca59 98bd d225 50bd
000001a0: 6233 ce3d b16f 033d 46f4 afbd 6f92 0abd
000001b0: e2cb a4bd 4075 d0bb 63e3 f23c 980f 5537
000001c0: 800b dbbc 2aca 40bd 72eb b03d ec44 943d
000001d0: 362a d8bd 2f41 01bd a6ca a0bc 379e fcbc
000001e0: d18d fb39 ee4e 7fbd 4d3e 153c 9b55 2b3d
000001f0: f80c 3e3d cd9f 1fbb 5745 233d 6b19 b7bb
-0.0054618455 -0.11036613 -0.035260685 0.0705932 0.09817248 0.012348962 0.005139409 0.031871
-0.03698106 -0.03995407 0.04850659 -0.09276258 -0.032112032 -0.0009356426 -0.0346172 -0.07770349
0.044027366 0.051037326 0.110811025 -0.025771637 0.05955742 0.066692516 -0.008337305 0.041051418
0.043943983 -0.097948916 0.0027308404 -0.023191959 0.07144607 0.063577175 -0.0141521515 -0.02921023
0.057995096 0.03884684 -0.07649353 -0.018138751 -0.0362618 0.022025121 0.0051764958 -0.009056593
-0.003630663 -0.090243414 0.08654286 0.075076796 -0.04209762 0.015719462 0.018614927 -0.039584205
0.012825808 0.043094542 -0.092407376 0.06501067 0.081469454 0.0007259202 -0.057173844 0.042280808
0.087382615 0.06908972 0.05535035 0.00095505867 0.049791027 0.10052853 0.09156959 0.035956796
-0.038172692 0.09726745 -0.036410086 -0.062277965 0.02084607 -0.005775604 -0.11173503 -0.023880718
-0.03795878 0.103396066 0.060021807 -0.08057685 0.08144243 -0.019383362 0.08277736 -0.049709126
-0.03485784 -0.014105712 0.030022759 0.031085592 -0.07884075 0.06721269 -0.07700654 -0.011762409
-0.089736946 0.049262848 0.013898543 -0.033018816 0.0741753 -0.10164565 0.065369606 0.033444032
-0.07703031 0.040285278 -0.040659048 -0.024482628 0.038656183 0.037704837 -0.07439001 -0.05081732
0.10068394 0.03208894 -0.08591513 -0.033831056 -0.080467 -0.0063616335 0.029649442 1.269942e-05
-0.026738882 -0.0470678 0.08638658 0.07239708 -0.10554926 -0.031556305 -0.01962788 -0.030837161
0.00047980112 -0.062331133 0.009109092 0.041829687 0.046399087 -0.0024356723 0.03986105 -0.005587747

net.6.weight f4 [128, 128]
00000000: 6953 2e3d 85a3 9cbd 1c38 dfbd f00c 7a3d
00000010: 4d20 72bd 7296 1fbd 9343 4dbd 6f36 e73c
00000020: b45c ac3b 326f 7abd 8417 b8bc 1e9a 103c
00000030: 234e 51bd 20d9 343d 2621 c5bd 7a8d bfbd
00000040: ccda 503c 3214 9cbc bbe1 0cbd bb7c a3bd
00000050: c90e 003c 9040 873d b4a3 8fbd 78b0 623d
00000060: 6552 48bd 590d 72bd 5da6 2e3d b86d 2b3d
00000070: 7955 a63d bbd5 ae3d b465 923d 6814 403d
00000080: 1cc2 983d 8428 9abd afb6 183d 719a 123d
00000090: 46da 02bd c2fb 1fbd e39b 9b3b 9a6e 5ebb
000000a0: 3c81 34bd 6a54 a3bd 7a32 9e3d dc3e eb3d
000000b0: d225 27bc 69cb 8e3d 093a d8bd 8478 7ebd
000000c0: 4706 d13d ac16 d13c f18c b23c 6b91 f43c
000000d0: 967e acbd a2f7 8b3d f0ff 65bd cc61 a03d
000000e0: 5b52 443d 1604 113c c188 8d3d 6cda e1bc
000000f0: 76cb 59bd 78c7 94bd 7be2 b1bc 4e42 e93c
00000100: 2d15 54bd 77d2 61bc 4cd6 453d 8203 fbbd
00000110: eda8 fd3c e929 443d 6980 c4bd 84bc 95bd
00000120: ca90 d53c 9661 b3ba 3b8b c53d b62d eabc
00000130: 889f 3bbd 28fa 11bd 962e 503d 7ef4 533d
00000140: cb2f 5c3d 31b9 1c3d f80e dc3c 5470 a63d
00000150: 6c6e f3bc 1a3e a73d 4569 093d d3ad db39
00000160: 2bb3 a73b c709 06bd 0cd2 823d eac6 8a3d
00000170: a317 513d 6b1f 90bd c689 da3c 4feb 80bd
00000180: 483a a03c 332c fd3c 2637 253c 78b7 b2bd
00000190: 2699 993b 05f4 0ebc b673 a9bd 3532 1b3d
000001a0: d695 163d ff34 c2bd f50a dabc 9e97 a6bd
000001b0: f104 a0bd 97d5 d4bd 8a59 1c3d 14d6 f3bc
000001c0: eb92 64bd d266 363c 8116 cebc 5e05 58bd
000001d0: 0f48 d43b bb75 58bd a51d ba3c 94e6 83bd
000001e0: ca4b 70bd 0632 5f3b baed 813d 7aec dcbd
000001f0: 5690 bcbd 4072 d2b8 cb7c fa3c e955 2f3d
00000200: 75cd d83b 1412 95bc ff17 abbd c546 be3c
00000210: f52d 173c 5444 c9bc 4eb2 cb3c ef34 31be
00000220: 9a8b 64bd ea56 ca3c a13a 19bd e4b0 b23b
00000230: a7de 843c 1243 18bd f728 8e3c 9067 a33d
00000240: 842f ce3d 7dc1 babd e45f 4c3d cf8e 1d3e
00000250: 44ae bb3d b13b 50bc 5720 04bd 6cf3 a3bd
00000260: 2977 a0bc 604d b93d 983f c2bd bc3a 4e3c
00000270: 87c8 363d d06e 933b 283c 1e3e a86f 8ebc
00000280: 7f9a 95bd 53f9 a9bd b7a4 ab3d 29bb 9e3d
00000290: 9502 933d a845 b5bc 1c6e 4d3c ec97 4f3d
000002a0: de66 c6bd 5d58 9cbd c31e 2cbd 5fbe 58bd
000002b0: a6c8 ac3d a984 833d 6272 5cbc 050c 40be
000002c0: 30fb 17be 98cc 24bc ff1e b2bd fbb9 8dbc
000002d0: 1bbf 1bbd 20f4 d9bb a572 13be 2214 8b3c
000002e0: 70e8 933d 866f a93d e1a0 6c3d b75a 033e
000002f0: 3cec b3bb 5ea1 9fbc 7437 14bd 659f 013c
00000300: 09bc 41bc 5e56 b93c 3efa 513d 17bf c13d
00000310: 0a5d 3bbe 6655 35be 4387 a8bc 23d0 133d
00000320: 5721 3f3d 0002 aa3d 54e6 e3bd 4183 0ebe
00000330: b914 9c3d 159c a0bc 7f4b 9bbd dbdf ecbd
00000340: 3f9a b13d 0daa 33bc b4c7 8d3d 0656 b4bd
00000350: 5d29 56bd c1b2 7a3d a147 5fbd c115 cd3d
00000360: bd5f 79bd 0c76 5bbd 479a 213d a293 f33d
00000370: 98b9 c63d bac4 8eba 106b 743d 56cc 123e
00000380: 2575 0bbd 8d42 8e3d b246 e3bd cabc 02be
00000390: 8ee0 573d 6333 9bbd 9cc0 2d3d fb16 f23a
000003a0: 73fa 433c 696e 16bd 1919 04bc bc60 333b
000003b0: e03e a43d 6c27 54bd ef0a 8b3c 405c acbd
000003c0: 56bc ef3a 4515 0c3d 08bf e03b f8c3 3b3d
000003d0: b9fe 8bbc 7ce8 0c3e 01bc e3bd f35a e03b
000003e0: 307d 833d 7f95 61bd 24d6 aebc 836f 553d
000003f0: 1d56 bb3c 206e 09bd fd9e 523c e1f6 ca3d
0.042560015 -0.076483764 -0.10899374 0.061047494 -0.059112836 -0.038961835 -0.050113272 0.028224198
0.0052600745 -0.0611412 -0.02247215 0.008825807 -0.051099908 0.04415238 -0.09625463 -0.093531564
0.012747478 -0.019052599 -0.03439496 -0.07982775 0.007816025 0.06604111 -0.07013646 0.055344075
-0.048906703 -0.05909476 0.042639125 0.041852683 0.08121771 0.085368596 0.071483046 0.04689446
0.074588984 -0.07527259 0.037283596 0.035791818 -0.031946443 -0.039058454 0.0047488078 -0.0033940435
-0.04406856 -0.07975085 0.077244714 0.11486599 -0.010201888 0.06972391 -0.10557944 -0.06212665
0.102062754 0.025523506 0.021795722 0.029854497 -0.08422582 0.068343416 -0.056152284 0.07831153
0.047930103 0.008851072 0.06910849 -0.027569972 -0.05317255 -0.07264608 -0.02171444 0.028474
-0.051778007 -0.013783089 0.048300073 -0.122565284 0.03096434 0.04789153 -0.09594805 -0.07311347
0.026070017 -0.0013685699 0.09645697 -0.02858625 -0.045806438 -0.03563896 0.050825678 0.051746838
0.053756516 0.03826255 0.026862606 0.08126894 -0.02971574 0.08166142 0.03354766 0.00041900444
0.005117794 -0.03272417 0.063877195 0.06776221 0.051047932 -0.070372425 0.026677024 -0.062948816
0.01955904 0.030904865 0.010083949 -0.087264 0.004687446 -0.008725171 -0.08274023 0.037889678
0.03676399 -0.094827645 -0.026616553 -0.081343874 -0.078134425 -0.103923015 0.03817133 -0.029765166
-0.055804174 0.011132913 -0.025157215 -0.052739494 0.0064783166 -0.05284665 0.022719214 -0.06440464
-0.058666028 0.0034056916 0.06344171 -0.10787292 -0.092072174 -0.00010034861 0.030577084 0.04280654
0.0066162893 -0.018197097 -0.08354186 0.023227105 0.009227266 -0.024568714 0.024865296 -0.17305349
-0.055797197 0.024699647 -0.03740943 0.005453216 0.01621945 -0.03717334 0.017353518 0.07978737
0.10067657 -0.09118936 0.049896136 0.15386508 0.09164098 -0.012709544 -0.032257404 -0.080054134
-0.01958807 0.09047961 -0.09484786 0.012587246 0.04462483 0.004499294 0.15452635 -0.017387226
-0.073048584 -0.08299508 0.08381026 0.07750542 0.07178227 -0.022127941 0.012538459 0.050681993
-0.09687589 -0.076340415 -0.042021524 -0.052915927 0.08436708 0.06421787 -0.013455005 -0.18754585
-0.14841914 -0.010058545 -0.08697318 -0.017300596 -0.03802405 -0.0066514164 -0.14399202 0.016977374
0.07222068 0.082732245 0.057770614 0.12827574 -0.005490808 -0.019486126 -0.036185697 0.007911538
-0.011824616 0.02262419 0.05126404 0.094602756 -0.1829721 -0.17708358 -0.02057231 0.036087167
0.046662655 0.08301163 -0.11127916 -0.13917257 0.0762114 -0.019605676 -0.07582759 -0.115661345
0.08671998 -0.010965836 0.06922856 -0.0880547 -0.05228554 0.06120563 -0.05451167 0.10013915
-0.06088232 -0.053579375 0.03945377 0.11893393 0.09703368 -0.0010892369 0.059672415 0.1433576
-0.034047265 0.06946287 -0.110974684 -0.1276733 0.052704386 -0.075781606 0.042420015 0.0018469983
0.011961567 -0.03672639 -0.008062624 0.002737089 0.08019805 -0.051795408 0.016972987 -0.08416033
0.0018290381 0.03419997 0.00685871 0.045841187 -0.017089235 0.13760561 -0.11119843 0.0068467795
0.06420362 -0.05507421 -0.021342345 0.0521083 0.02286821 -0.03355229 0.012855289 0.0991037

net.6.bias f4 [128]
00000000: 72d0 6d3d a499 833b f9ed e63c 3354 203c
00000010: 2c34 de3d 75d2 b73d a345 6cbd 2277 a63b
00000020: 104f 68bb a8c2 523c 17da 48bd 6f5d b43d
00000030: 0a46 fb3c 9b58 9b3d 6356 013e 6ff7 ec3c
00000040: 2f10 0f3e 3349 a2bb fee4 aa3d 3a74 fabc
00000050: 22e4 19bd a67a 5ebc ccf7 ccbd 98a3 37bd
00000060: f846 b8bd 0b90 a1ba 285c 2bbd cf1c 73bd
00000070: 5ce5 00bc a4bd 773d 328b cbbc e89f b6bd
00000080: e5de 03be 0835 5dba d7df 7ebc 2a54 053e
00000090: ef8a 8ebb ddf0 aaba 1a1a 1cbd 237b 773d
000000a0: d570 bebd 8f6b c8bc dd4b c93d 6d0a a43d
000000b0: 1888 d93c 97c4 d7bc 915e 393d 5b77 a2bc
000000c0: 6cd6 20bd 98b4 cb3d e618 f4bd 714b b53d
000000d0: 1c1c c63b 26fd f2bd ddb0 2fbb c23b bebd
000000e0: 8948 d7bd e48b 87bd 7f40 8c3d 8205 d7bd
000000f0: cdc4 d93d 5202 dcbd e02a 843d 6a54 9d3d
00000100: adbd b93b 64ab 02bd 6d3f 773c d55a 993d
00000110: 1a96 cf3c 8cf9 7b3d 390f 01be cf7b 163d
00000120: 1414 4a3d 7acb 9cbc 7b88 473d 6233 50bd
00000130: 1c23 8dbd df2a c8bd 8698 693c 8faa 743b
00000140: 33c1 213d b57b ee3d e46a 093e 0457 e6bc
00000150: eb06 bebd d65b 0cbe 2b22 5bbd a09d 1dbd
00000160: b738 b0bd e4a4 d93c a091 aa3d 778d 663d
00000170: 3c1e bbbc 2357 89ba 3f3a a13c c826 cb3c
00000180: c477 46bc 02c0 8bbc a88c ccbd 1e0b 8ebd
00000190: e8bf f8ba de86 013e e2df 023d 2f4a 033c
000001a0: b5fe 2f3d d3ef 49bd f636 e83d 7c20 0ebe
000001b0: ff1d fdbc 0757 e0bb d04f a83d 68d2 05bd
000001c0: bd3d 01bd 68bd eb3c d641 81bd 183e bfbb
000001d0: 4378 763c 73e6 493d 2370 c3bd 9039 ecbd
000001e0: 3f85 003d 7505 c13d 6bae e93c 7b4a 973d
000001f0: 2ee2 a43c 6881 1c3c 6a02 c23c 5e10 30bd
0.058060117 0.004016118 0.028189646 0.0097857 0.10849795 0.08975688 -0.0576836 0.0050801197
-0.0035447516 0.0128637925 -0.04903611 0.088068835 0.030673046 0.075852595 0.1263061 0.02892658
0.13971017 -0.0049525737 0.08344458 -0.030573 -0.03757108 -0.013579046 -0.10008201 -0.04483375
-0.08997911 -0.0012326253 -0.041835934 -0.059353646 -0.007867184 0.06048359 -0.024846647 -0.089172184
-0.12877996 -0.0008438383 -0.015556297 0.13020387 -0.0043500583 -0.0013041754 -0.03811083 0.060420167
-0.09298865 -0.02446535 0.09828923 0.08009801 0.026554152 -0.026338859 0.0452562 -0.019832304
-0.03926699 0.09946555 -0.119188115 0.0885228 0.0060458314 -0.118646905 -0.00268083 -0.09288742
-0.10511882 -0.06618479 0.06848239 -0.104990974 0.1063324 -0.1074263 0.0645349 0.07682116
0.005668363 -0.031901732 0.0150908055 0.07488028 0.025340129 0.061517283 -0.12603463 0.036739167
0.049335554 -0.019139994 0.048714142 -0.050830252 -0.06891462 -0.09773802 0.014257556 0.0037333106
0.03949089 0.11644689 0.13419682 -0.028117664 -0.09278663 -0.13706908 -0.053499382 -0.0384804
-0.086045675 0.026567884 0.08328557 0.056287255 -0.022841565 -0.0010478239 0.019681094 0.024798766
-0.012113515 -0.01705933 -0.099877656 -0.06935714 -0.0018978091 0.12649104 0.031951793 0.008013292
0.042967517 -0.04930098 0.11338608 -0.1387958 -0.030898092 -0.006846312 0.08218348 -0.032671362
-0.03155302 0.02877684 -0.06311385 -0.0058362596 0.015043321 0.04929204 -0.09542873 -0.11534417
0.031377073 0.09424869 0.028525552 0.07387253 0.020127382 0.009552337 0.023682792 -0.04298436

net.8.weight f4 [3, 128]
00000000: b61e 84bd 6ab9 15bd d6a7 67bd 076e 673d
00000010: c89d 9bbc 67c6 0b3c 049f 003c ce8d dfbb
00000020: 53c7 9bbd 57f1 ea3c 9e8b 243b 51ec 58bc
00000030: ad5c 603c 3fc5 813d 9eac 333d dca4 24ba
00000040: 740e c8bb a130 023d 6059 903d b8bd 4bbd
00000050: 3f24 02bb 5d3c 82bc 80e3 c1bb 5b2f 0ebb
00000060: 0051 60bb 2067 06bc 02ef 47bb 03c9 633d
00000070: d09a 753c f850 84bd 80f2 b33b 32f8 193c
00000080: 5ab0 083d 802f cf3c 55f5 0fbd 96a4 44ba
00000090: 2cb9 b2ba 5119 843d db69 5d3d 4ba0 8dbc
000000a0: cc5b 873d 65f5 cf3c ec09 26bd 0c15 c7b9
000000b0: cfad b0bb b2f0 913d 93b1 24bd b199 513c
000000c0: ecc3 8b3b 242b 683d 4f02 5b3c 8665 37bc
000000d0: 1d33 293d 6443 55bd ae5c 533d d918 f33c
000000e0: 848d 4dbc 2dae 37bd 6bac 933d e7b7 063d
000000f0: b2ec 78bd 4945 4bbd 99c9 8abd d851 16bc
00000100: 482e e2bb c553 f23c 47fd 623c df83 d43c
00000110: b801 88bd 53aa 60bd aa27 c2bc d11c 43ba
00000120: 80e7 303d 9439 a23c b44a e43a 1509 1d3d
00000130: 38a5 9b3c a294 64bd 00ed 16bb d220 92bd
00000140: 7b9f 75bd 7717 c53c 5976 d9ba faec fabc
00000150: 73f7 80bd 4bcd 183d 97bc 80bc 04fa e53c
00000160: cb96 8f3c 222d 2e3c 5fc4 963d 019a 6b3d
00000170: fa54 cbbc 6de2 a33c 791e 23bd d633 5f3c
00000180: 07ad f1bc 3928 373c 8521 dd3c eafb 72bd
00000190: 3b50 61bb a0b5 d2bc c900 4a3d e184 1c3d
000001a0: 71a3 3b3d aec4 0abd 3e7b 643d 6cd6 94bc
000001b0: f6b2 793c 7556 2abd f065 5abd 9157 69bd
000001c0: 74d1 febc dd5d 193d 6ca3 52bd 7306 d53b
000001d0: ef91 213c 9a7a 3c3d 96dd cebc 3fb5 89bc
000001e0: f794 f7bc 40d2 4d3d ff24 813d a73f ec3c
000001f0: a018 af3c 681b cfbc 9fca 643c 70d4 4fbd
00000200: 2680 503e 5b76 3a3e a960 0bbe ff62 413e
00000210: 9014 1b3e 6d72 223e f767 17be 2b11 3abe
00000220: d179 243e f1f3 61be c436 b33d b646 193e
00000230: 10a2 3c3e 8a5c 153e c388 f43d abe8 06be
00000240: 4585 343e a070 24be e13c 35be c935 62be
00000250: 6589 47be ed68 14be 2996 2abe 4b2a 0a3e
00000260: db3c 45be b5c4 1bbe 83e2 293e 20e7 e53d
00000270: 386c 00be cc29 38be c7fc 28be b1e0 32be
00000280: 1a4b 13be 0549 203e 3ed5 1b3e 9519 2d3e
00000290: 9f4f e63d 3b36 27be 61d7 2fbe 1a71 1a3e
000002a0: fc7d 47be dbd5 fabd 091e 403e 0937 0e3e
000002b0: 1f3f 1c3e b44f 393e b114 22be 44d8 093e
000002c0: 96a0 25be 03d8 a23b c8f9 34be 5dfa 3e3e
000002d0: 9931 123e abb0 45be 9d4f 173e 2bd7 3fbe
000002e0: 28fc 50be d358 bcbd 8967 3e3e 38db 0dbe
000002f0: 11e3 0a3e af67 1ebe ada7 fe3d cd96 233e
00000300: 79d4 27be 6c2f fdbd baba 11be 2e02 1c3e
00000310: c0cd a33d 0515 0bbe 1f27 16be d143 df3d
00000320: 2eda 05be 32e3 0f3e 1404 043e 9e3f fa3d
00000330: e2bb 2bbe 23ef 2abe 9330 0c3e a42a 2e3e
00000340: 4e3e 633e 5a01 113e 6ade 233e b364 0fbe
00000350: dc9e 2ebe ed2a 3cbe 000a 3b3e ebfb 1cbe
00000360: a2c6 09be a8c8 463e 71db 09be 53b2 283e
00000370: 1b4f 023e 8978 e13d a4b5 2a3e 5acd 24be
00000380: 1a5b 023e 1c69 17be 80ee 16be ab17 213e
00000390: 8f4e b8bd c0c5 333e 5a8e ad3d 1389 083e
000003a0: e7bf c33d 632d 0c3e f893 4f3e 0151 32be
000003b0: 1fe6 183e 806a 38be 90e6 103e 90fa 48be
000003c0: 9c1c fc3d 5880 1dbe 0c64 0fbe b030 42be
000003d0: d4bc 0a3e 9ae3 33be d47e f6bd cd0a 38be
000003e0: 20d5 cb3d 5f94 143e 4ec8 2cbe 1df0 3a3e
000003f0: 925d 1c3e d216 1abe d97a 1d3e b1d2 17be
-0.0645117 -0.036553778 -0.056556545 0.056501415 -0.018996134 0.0085311895 0.007850412 -0.0068223244
-0.076063775 0.028679533 0.0025107632 -0.013239936 0.013693971 0.0633645 0.043865792 -0.00062806695
-0.0061052386 0.031784657 0.07048297 -0.049741477 -0.001985803 -0.015897924 -0.0059170127 -0.0021695707
-0.0034227967 -0.008203298 -0.003050745 0.05561162 0.014990523 -0.06460756 0.0054915547 0.009397553
0.033371307 0.025291204 -0.035146076 -0.0007501332 -0.0013635508 0.06450141 0.05405603 -0.017288348
0.06609306 0.025385568 -0.040536806 -0.0003797192 -0.0053918133 0.07125987 -0.04020841 0.012792991
0.004265299 0.056681767 0.01336725 -0.011193639 0.04130851 -0.05206622 0.051602058 0.029674934
-0.012545947 -0.04484384 0.072106205 0.032890227 -0.060772605 -0.049626622 -0.06776733 -0.0091747865
-0.00690249 0.02958096 0.013854331 0.025941787 -0.06640953 -0.054849934 -0.023700554 -0.00074429536
0.043189526 0.019802846 0.0017417283 0.03833874 0.01899968 -0.05580581 -0.0023029447 -0.07135166
-0.059966546 0.02405904 -0.0016591056 -0.030630577 -0.06297197 0.037305158 -0.015714927 0.028073318
0.017527958 0.010630878 0.073616736 0.057519916 -0.024820793 0.02000543 -0.039823983 0.0136231985
-0.029501451 0.011179023 0.026993522 -0.059322275 -0.0034380096 -0.025721371 0.049317155 0.03821266
0.045810167 -0.033878975 0.055781595 -0.01816865 0.0152404215 -0.041586358 -0.05331987 -0.056968275
-0.031105734 0.03744303 -0.051425382 0.006501013 0.009861453 0.04601536 -0.025252145 -0.016810058
-0.0302224 0.05024934 0.063058846 0.028838946 0.021374047 -0.025281623 0.013964324 -0.050739706
0.20361385 0.18209212 -0.13611092 0.1888542 0.15144563 0.15863962 -0.14785753 -0.18170612
0.16062094 -0.22065713 0.0875068 0.1496838 0.18421197 0.14586082 0.11940148 -0.13174693
0.17628963 -0.16058588 -0.17699005 -0.2209083 -0.19486006 -0.14493151 -0.16658844 0.13492696
-0.19261496 -0.15211757 0.16590314 0.11225724 -0.12541282 -0.17984694 -0.16502677 -0.17468525
-0.14384118 0.15652855 0.15218064 0.1690429 0.11245655 -0.16329281 -0.17172004 0.15082207
-0.19481653 -0.12247821 0.18761458 0.13888182 0.15258454 0.1809681 -0.15828206 0.13461405
-0.1617454 0.0049695983 -0.17673409 0.18650194 0.14276733 -0.19305675 0.14776464 -0.18734424
-0.2040869 -0.091966294 0.18594183 -0.13853157 0.13563181 -0.1546924 0.12434325 0.15975495
-0.16389646 -0.12362561 -0.14231387 0.15235206 0.07998228 -0.13582237 -0.14663361 0.10901607
-0.1307151 0.14051512 0.1289218 0.12219165 -0.1677089 -0.16692786 0.13690405 0.17008454
0.22191736 0.14160672 0.16002813 -0.14003257 -0.17052788 -0.1837575 0.18265533 -0.15330474
-0.13454679 0.19412482 -0.13462617 0.16474275 0.12725489 0.110093184 0.16670853 -0.1609396
0.12730065 -0.1478619 -0.14739418 0.15731685 -0.08999359 0.17555904 0.08474417 0.1333354
0.09558087 0.13689189 0.2027129 -0.17413713 0.14931534 -0.18009377 0.14150453 -0.19626832
0.12310144 -0.1538099 -0.14003009 -0.18963885 0.13548595 -0.17567292 -0.12035909 -0.1797287
0.0995276 0.14509724 -0.16873285 0.18255658 0.15270069 -0.15047768 0.15378894 -0.14826466

net.8.bias f4 [3]
00000000: e852 ecbc 1add de3d d5ea ca3c
-0.028848127 0.108820155 0.02477018
