KMM-3d/residual_model_out/residual_F.pt (torch, 434662 bytes, 6 tensors)

net.0.weight f4 [256, 60]
0	0x3c5362aa	0.012901941
1	0x3d9ce7fa	0.076614335
2	0xbdea81f0	-0.11450565
3	0xbda62d2c	-0.081140846
4	0xbd2d70ab	-0.042343777
5	0x3cde5cf7	0.027143938
6	0x3c395024	0.011310611
7	0x3de0c967	0.109759144
8	0xbc94c9f2	-0.018162701
9	0x3d44badb	0.04802976
10	0xbd017092	-0.031601496
11	0xbd00499c	-0.0313202
12	0xbde02ff6	-0.10946648
13	0xbd9fe3fe	-0.07807158
14	0xbd6f3b71	-0.058406297
15	0x3c98c96e	0.018650737
16	0x3d6f88d8	0.058480114
17	0x3d958c78	0.07302183
18	0xbd96d790	-0.07365334
19	0xbd47bc2a	-0.04876343
20	0x3d30e900	0.043190956
21	0x3df7f420	0.1210711
22	0xbc9c7f61	-0.019103708
23	0x3dbfc60d	0.09363947
24	0xbbe36a5d	-0.0069401697
25	0x3cad2236	0.021134477
26	0x3deacfd3	0.114654206
27	0xbdd8de90	-0.105893254
28	0xbd97202d	-0.07379184
29	0xbd0c1dfc	-0.034208283
30	0xbd155159	-0.036454532
31	0x3df3c5c5	0.11902956
32	0xbdad0bba	-0.08449502
33	0xbd3a9d6d	-0.04556029
34	0xbda95fb9	-0.08270211
35	0xbdf7db4c	-0.121023744
36	0xbd7bdf83	-0.061492454
37	0x3df29fb9	0.11846871
38	0x3d6e53a3	0.05818523
39	0x3d9c8c48	0.07643944
40	0x3c6a1176	0.01428639
41	0xbd84f6e4	-0.06492403
42	0x3d1244ad	0.035710026
43	0xbde782c1	-0.11304236
44	0xbdbb1266	-0.091343686
45	0xbd57cd7d	-0.052686203
46	0x3db62b61	0.088949926
47	0x3da05bb6	0.078299925
48	0xbd31b615	-0.043386538
49	0x3b39d560	0.0028355941
50	0x3dafc8b5	0.08583204
51	0x3e119f9b	0.14221041
52	0x3d708bd5	0.058727104
53	0x3caef128	0.021355227
54	0x3dcdad24	0.100427896
55	0xbd8c590e	-0.06852923
56	0x3cea6442	0.02861226
57	0xbdb095b4	-0.086223036
58	0xbda7eebd	-0.081998326
59	0xbd7beb41	-0.061503652
60	0x3cfff019	0.031242417
61	0x3d59ec6c	0.053203985
62	0xbd575a84	-0.052576557
63	0x3c41d408	0.011830337
64	0x3d93b12e	0.07211529
65	0x3bf33a28	0.0074227042
66	0xbcb635ba	-0.022242416
67	0x3cfee2b6	0.031113964
68	0x3dd429dd	0.10359547
69	0x3dc63930	0.096788764
70	0xbdc9604f	-0.098328225
71	0xbcc505f1	-0.024050685
72	0x3cc10cf6	0.02356575
73	0x3ddd5a3a	0.10808225
74	0x3e0a92b6	0.13532528
75	0x3db1a4c0	0.08674002
76	0x3cdb4860	0.02676791
77	0xbdb77bcf	-0.089591615
78	0xbc7a993d	-0.015295324
79	0xbda34a63	-0.079731725
80	0xbdc8add5	-0.09798781
81	0x3db3440c	0.08753213
82	0x3dcb11e0	0.09915519
83	0xbddac9cb	-0.1068302
84	0xbb451dc6	-0.003007756
85	0xbcaa5b86	-0.020795595
86	0x399b3bec	0.0002960855
87	0xbdb0ad3c	-0.08626792
88	0x3d4f16de	0.050558917
89	0xbd62c839	-0.05536673
90	0x3ca51c6a	0.02015515
91	0x3d877f1d	0.06616042
92	0x3de78379	0.11304373
93	0x3cacda36	0.021100145
94	0xbe01fc1c	-0.12693828
95	0xbd824f2e	-0.063627586
96	0x3d18bd11	0.037289683
97	0x3ce3e522	0.02781922
98	0xbda62600	-0.08112717
99	0xbdcfe454	-0.10150972
100	0x3dfa4a98	0.12221259
101	0x3dd9171b	0.1060011
102	0xbdaaee50	-0.08346236
103	0xbd021bf3	-0.031764936
104	0xbdd62892	-0.10456957
105	0xbcf1994c	-0.029492043
106	0xbdc5af65	-0.096525945
107	0xbda788cb	-0.08180388
108	0xbd0c6e59	-0.034284923
109	0x3ca43534	0.0200449
110	0xbd1274a0	-0.035755754
111	0x3d4a7a63	0.049433123
112	0xbd9f9ac9	-0.07793195
113	0x3e08c444	0.1335612
114	0x3d7b1608	0.061300308
115	0xbdddbad3	-0.108266495
116	0xbc86a454	-0.01643578
117	0xbcaede78	-0.021346316
118	0x3c9eff27	0.019408775
119	0x3d3a9bb5	0.04555865
120	0x3d957498	0.07297629
121	0x3c8679ff	0.016415594
122	0xbd80821f	-0.06274819
123	0x3daacedb	0.08340236
124	0xbdebda4f	-0.115162484
125	0xbd9b4f66	-0.075835034
126	0xbc23e677	-0.010003678
127	0xbd5e1391	-0.05421788
128	0xbd34701f	-0.04405224
129	0xbdab016a	-0.08349879
130	0xbc9a079c	-0.018802457
131	0x3cee9165	0.029122064
132	0xbd7d17a6	-0.06179013
133	0x3b049aaa	0.0020233789
134	0x3dc137f4	0.094345
135	0x3c142637	0.009042314
136	0x3c484bb7	0.012225083
137	0xbc1078f6	-0.008817902
138	0x3d466a40	0.04844117
139	0x3db9c688	0.0907107
140	0x3dfff928	0.12498695
141	0x3dd59adc	0.10429928
142	0x3e0653ab	0.13117854
143	0xbbcd8a12	-0.006272563
144	0xbdbfd03c	-0.093658894
145	0xbd577acc	-0.052607343
146	0x3dbb077c	0.09132287
147	0x3caff032	0.021476839
148	0xbd63b10c	-0.055588767
149	0xbdc2e7ed	-0.095168926
150	0xbdc9bc80	-0.09850407
151	0xbdcd9dac	-0.10039839
152	0xbcb4fcf4	-0.022093274
153	0x3dbeb1f0	0.09311283
154	0x3da07124	0.0783408
155	0xbdf5f44b	-0.12009486
156	0x3dd29fc9	0.10284383
157	0xbdbd6e9d	-0.092496134
158	0xbcb8e7e4	-0.022571512
159	0xbcf6068b	-0.030032417
160	0xbc860760	-0.016360939
161	0xbca6882d	-0.020328606
162	0xbdbf8e79	-0.093533464
163	0xbdd2e9bc	-0.102984875
164	0xbc740c99	-0.014895582
165	0x3cc47888	0.023983255
166	0xbd4d8cfb	-0.050183278
167	0x3d5e0ecf	0.05421334
168	0xbdc045cb	-0.09388312
169	0xb98e6f55	-0.000271673
170	0x3df47d42	0.119379535
171	0xbcf895a1	-0.030344786
172	0x3dfffd51	0.12499488
173	0x3d587f07	0.052855518
174	0xbdc0e869	-0.09419329
175	0x3db8792d	0.090074874
176	0xbc0c1a52	-0.008551197
177	0xbd10a894	-0.03531702
178	0x3de49093	0.11160388
179	0xbdc82dff	-0.09774398
180	0x3c9901bc	0.018677585
181	0xbc8d88c5	-0.01727713
182	0x3da407f5	0.0800933
183	0x3d275ef0	0.040862024
184	0x3d932ac5	0.07185892
185	0x3d09dcbd	0.033657778
186	0xbcd6cc88	-0.026220575
187	0xbc8d509b	-0.01725035
188	0xbdf20902	-0.11818124
189	0x3d992459	0.07477636
190	0x3de659b6	0.1124758
191	0x3d9d00ce	0.07666169
192	0xbdb09e43	-0.08623936
193	0x3c817a5d	0.015805418
194	0xbdd213e8	-0.10257703
195	0xbd87aa35	-0.06624261
196	0xbd8555e7	-0.06510525
197	0x3d05a69e	0.0326296
198	0xbd93ad15	-0.07210747
199	0x3bf1cfea	0.0073795216
200	0xbbc486ea	-0.0059975283
201	0x3db450f8	0.08804506
202	0xbdb2d419	-0.08731861
203	0xbdccd4aa	-0.100015
204	0xbd8fa4c5	-0.07013849
205	0x3dce3f5f	0.10070681
206	0xbd6ca0f6	-0.05777069
207	0x3de8e540	0.11371851
208	0x3d69e680	0.057104588
209	0x3ba36cbc	0.0049873274
210	0x3b7d3473	0.0038635998
211	0xbc7624f1	-0.015023456
212	0x3b9e0d06	0.00482333
213	0xbcc9f870	-0.024654597
214	0x3c1e6008	0.00966645
215	0x3ba5fdab	0.00506564
216	0xbdc4ee4e	-0.096157655
217	0xbd698813	-0.057014536
218	0x3dbe08d2	0.09279026
219	0xbdccb04d	-0.09994564
220	0x3abf21d9	0.0014582231
221	0x3dedf318	0.11618632
222	0x3d52c7da	0.051460125
223	0x3c6cf24a	0.014462063
224	0xbdfce68c	-0.12348661
225	0x3d8cdb45	0.0687776
226	0xbda6076f	-0.081068866
227	0xbd460fdd	-0.048354972
228	0xbd1da80e	-0.038490348
229	0xbc058f16	-0.00815179
230	0xbc2a9ae0	-0.010412902
231	0x3de3f4cf	0.11130678
232	0x3cde86e6	0.027163934
233	0x3dd4540c	0.10367593
234	0x3dab9d68	0.08379632
235	0xbd905c93	-0.07048907
236	0x3d3b945f	0.045795795
237	0xbdb104fe	-0.0864353
238	0xbd323082	-0.043503292
239	0x3cd28d41	0.02570212
240	0x3d08b9ad	0.0333802
241	0x3dde1daf	0.108455054
242	0xbc8dcde8	-0.017310098
243	0xbc141f4f	-0.009040668
244	0x3d9fd54d	0.07804356
245	0xbdce5621	-0.100750215
246	0x3dac36da	0.084088996
247	0xbdc2f67f	-0.09519672
248	0x3cd2ac35	0.02571688
249	0xbcff8fa1	-0.031196417
250	0xbd673ea6	-0.05645623
251	0x3d2734a9	0.040821705
252	0x3dc7b1ee	0.09750734
253	0xbcd6d0a3	-0.026222533
254	0xbd596be4	-0.05308141
255	0xbd6971eb	-0.056993406

net.0.bias f4 [256]
0	0x3d430fa9	0.047622357
1	0xbd2435d9	-0.040090416
2	0x3d1ef977	0.038812127
3	0xbdd9e88f	-0.1064006
4	0xbdd1e730	-0.10249174
5	0xbd9f034c	-0.07764301
6	0x3db097be	0.086226925
7	0xbc4ebf96	-0.01261892
8	0x3d15b036	0.036545
9	0x3d656d13	0.056012224
10	0xbd918172	-0.07104768
11	0xbb3034c7	-0.0026886926
12	0x3db46e06	0.08810048
13	0x3cf8afc7	0.030357255
14	0x3dbdd8a7	0.09269839
15	0x3d7f9a05	0.062402744
16	0xbdc42d9f	-0.09579014
17	0xbd8385c3	-0.064219974
18	0xbc0db592	-0.008649247
19	0xbdc7b6a7	-0.09751635
20	0x3d4243ba	0.04742787
21	0x3da8ae1b	0.08236333
22	0x3d5ee8b8	0.054421157
23	0x3e052fa8	0.1300646
24	0xbd3adc29	-0.045620117
25	0x3d92b151	0.07162727
26	0xbdf21aae	-0.11821495
27	0xbd3687e8	-0.044563204
28	0x3bc4eaf0	0.006009452
29	0x3d95444d	0.07288418
30	0xbdbd33a0	-0.09238362
31	0xbd9ecbb2	-0.077536955
32	0xbdc6a537	-0.09699481
33	0x3c5cf2fc	0.013485666
34	0x3d752b85	0.059855957
35	0x3dc8664b	0.09785136
36	0x3d995a93	0.07487979
37	0x3de589b1	0.11207903
38	0x3dcacb0a	0.09902008
39	0xbdeae496	-0.114693806
40	0xbded845a	-0.1159751
41	0x3cf175d1	0.029475125
42	0xbdc699eb	-0.09697326
43	0x3cd588e6	0.026066255
44	0x3dcdd6e7	0.10050755
45	0x3cc1e732	0.023669813
46	0xbd05b62d	-0.03264444
47	0xbd641266	-0.05568161
48	0xbcf66955	-0.030079523
49	0x3d2aca06	0.04169657
50	0xbd42e1b4	-0.04757853
51	0x3db047f4	0.08607474
52	0x3d1ceab4	0.038309768
53	0x3ac9e48b	0.0015403194
54	0x3d812ad9	0.06307001
55	0xbd14bd81	-0.036313538
56	0x3d2e863c	0.042608485
57	0xbc68f5fb	-0.014218803
58	0xbdc46cef	-0.0959109
59	0xbd9b5e1f	-0.075863115
60	0x3df1a26a	0.11798556
61	0xbb6e7f14	-0.0036391662
62	0xbd6456b9	-0.055746768
63	0xbda50d43	-0.0805917
64	0x3bcdf64b	0.006285464
65	0xbd9c9524	-0.07645634
66	0xbca8e0b5	-0.020614961
67	0x3daccf26	0.08437948
68	0x3dae4a90	0.085103154
69	0x3dd73aa6	0.10509233
70	0xbd03fb51	-0.032222096
71	0xbda0268b	-0.078198515
72	0x3d8250d6	0.063630745
73	0xbd3a43bb	-0.04547475
74	0xbd8c852c	-0.06861338
75	0x3cdb85a8	0.02679713
76	0xbc9ffec8	-0.019530669
77	0x3dcefb24	0.10106495
78	0xbc088f53	-0.008334952
79	0x3c975cf8	0.018476948
80	0x3c80149e	0.015634831
81	0x3cb7ee65	0.022452543
82	0xbde1631d	-0.110052325
83	0x3ca72795	0.020404616
84	0x3d1c4ceb	0.038159292
85	0xbd595b91	-0.05306584
86	0x3dea3154	0.1143519
87	0x3b624831	0.0034527893
88	0x3ce48a53	0.02789799
89	0x3c2c15fd	0.010503289
90	0xbd3efd05	-0.046628017
91	0x3dae533a	0.08511968
92	0x3d416b84	0.047221676
93	0x3d2eb4c9	0.04265288
94	0xbd87c28b	-0.06628903
95	0xbc1eeb2d	-0.009699625
96	0x3cfcfce4	0.030882306
97	0xbc241763	-0.010015341
98	0xbd07b735	-0.033133704
99	0xbc4f6325	-0.012657915
100	0x3d2def8d	0.04246478
101	0xbd355b88	-0.044276744
102	0x3db51d9a	0.08843537
103	0x3d10a7b7	0.035316195
104	0x3da9cf65	0.082915105
105	0x3cc849bf	0.024449227
106	0x3d5098e1	0.050927047
107	0xbcd8c3a2	-0.026460472
108	0xbcaecb34	-0.02133713
109	0xbc6da5c1	-0.014504851
110	0xbd73f942	-0.059563883
111	0xbde12253	-0.10992875
112	0xbc7addd9	-0.015311682
113	0x3d81e901	0.0634327
114	0x3d2769de	0.040872447
115	0x3db536c5	0.08848337
116	0xbd3199e8	-0.043359667
117	0x3c1bea5d	0.009516326
118	0x3c1ba277	0.009499184
119	0x3d4c8dd7	0.049939957
120	0x3dc686f3	0.09693708
121	0xbdb114e5	-0.086465634
122	0xbcf83329	-0.030297833
123	0xbc383d9c	-0.011245158
124	0xbcb29e04	-0.021803863
125	0x3d3461af	0.04403847
126	0xbdd97401	-0.10617829
127	0xbd9079f3	-0.0705451
128	0xbda34c57	-0.07973545
129	0x3d5bccb1	0.053662006
130	0xbda443d4	-0.0802075
131	0x3b827262	0.0039809207
132	0x398f07c2	0.00027280865
133	0x3c581e9a	0.01319089
134	0x3b939a0c	0.004504448
135	0x3b9b41b6	0.004738058
136	0x3d8ed68c	0.06974515
137	0x3c91030e	0.017701652
138	0x3d233516	0.03984555
139	0xbdb42add	-0.08797238
140	0xbbfa9c67	-0.007648039
141	0xbd7991f8	-0.060930222
142	0xbd30689c	-0.043068513
143	0xbd986a23	-0.07442119
144	0xbc97c84e	-0.01852813
145	0x3cb70022	0.02233893
146	0xbced332f	-0.02895507
147	0xbdb02d39	-0.086023755
148	0xbdc0be81	-0.09411336
149	0x3cfd0869	0.0308878
150	0x3c13cf94	0.009021658
151	0xbdd306a7	-0.10304003
152	0x3c9cb3c3	0.019128686
153	0x3d17b21f	0.037035104
154	0x3dd6cac7	0.104878955
155	0xbcb2230c	-0.021745227
156	0x3dbbe603	0.09174731
157	0xbd0b3a74	-0.033991292
158	0x3dc12dc8	0.0943256
159	0xbdc26845	-0.09492544
160	0xbcd0c8f1	-0.025486441
161	0xbde7dc35	-0.11321298
162	0xbd43b45c	-0.047779426
163	0x3b9b8e8e	0.0047472185
164	0x3d334957	0.043771114
165	0x3d7dbd6d	0.06194823
166	0x3db1da36	0.086841986
167	0xbd230bba	-0.039806105
168	0xbd173f0a	-0.036925353
169	0x3c292acf	0.010325148
170	0xbdb799db	-0.089648925
171	0xbd402b2b	-0.04691617
172	0xbd19225a	-0.037386276
173	0xbdb04205	-0.08606342
174	0xbce4974d	-0.027904177
175	0x3c380689	0.011232027
176	0xbd089527	-0.033345368
177	0xbd66ad92	-0.056317873
178	0x3c30c853	0.0107899485
179	0xbd936130	-0.071962714
180	0xbd6059df	-0.054773208
181	0xbd60b193	-0.054856848
182	0xbcffbbcb	-0.031217476
183	0xbb4c5343	-0.0031177558
184	0xbd81657c	-0.06318185
185	0xbd361a1a	-0.044458486
186	0xbda82bfb	-0.082115136
187	0xbdbf668c	-0.09345731
188	0x3cbf55bd	0.023356313
189	0xbc1719b6	-0.009222439
190	0x3c6dfcb3	0.01452558
191	0xbc4739ae	-0.012159748
192	0x3cb64bcd	0.022252942
193	0x3d2da658	0.042394966
194	0x3c8a856a	0.01690932
195	0x3dc2873d	0.09498451
196	0x3da0c027	0.0784915
197	0x3ba4920f	0.0050222944
198	0x3d4e1576	0.050313435
199	0x3a923d0d	0.001115711
200	0xbdd0dd64	-0.10198477
201	0xbc5b5cec	-0.0133888535
202	0x3d4e74db	0.05040441
203	0x3d8aacb4	0.06771222
204	0x3d4a2c90	0.049358904
205	0x3b4944ef	0.0030711254
206	0xbd316cde	-0.043316714
207	0x3c83e0b7	0.016098363
208	0x3ca42d7b	0.020041218
209	0x3b3ce00c	0.0028820066
210	0x3d899ae6	0.06718998
211	0xbc8ca40a	-0.017168064
212	0x3d09ac31	0.03361148
213	0xbdd4798d	-0.103747465
214	0xbd9714ed	-0.07377038
215	0xbd200be3	-0.039073836
216	0x3dc75e03	0.09734728
217	0xbca5d07c	-0.020241015
218	0xbd909999	-0.070605464
219	0x3d9f6654	0.077831894
220	0xbcec9b4b	-0.028882643
221	0x3d56808e	0.052368693
222	0x3d49cf91	0.049270216
223	0x3df0804a	0.11743219
224	0x3d0ea80c	0.03482823
225	0xbb94ffd5	-0.004547099
226	0x3d7e6c29	0.06211487
227	0xbc54272a	-0.012948791
228	0x3dba9e09	0.09112174
229	0x3df7a809	0.12092597
230	0xbbc96fe9	-0.006147374
231	0xbd73af79	-0.059493516
232	0xbd599f64	-0.053130522
233	0x3dcd649a	0.10028954
234	0xbdbf4709	-0.09339721
235	0x3d0cfe2e	0.034422092
236	0x3d0eb016	0.034835897
237	0x3d390b8f	0.04517704
238	0xbddb613c	-0.10711905
239	0x3dae6479	0.085152574
240	0x3cc60440	0.024171948
241	0xbd2bab52	-0.04191143
242	0xbdc1a1c7	-0.09454685
243	0x3c0001b1	0.007812903
244	0x3d5de053	0.05416901
245	0x3d97ba7d	0.07408617
246	0x3cee3b12	0.029080901
247	0x3dc0c1b6	0.094119474
248	0x3d8a7f39	0.06762547
249	0x3d060974	0.03272386
250	0xbc963319	-0.018334912
251	0x3d252284	0.04031612
252	0x3dbe297f	0.092852585
253	0xbd0b4eae	-0.03401058
254	0xbd0de965	-0.03464641
255	0xbc7ef73e	-0.015561877

net.2.weight f4 [256, 256]
0	0xbd2d6774	-0.04233499
1	0x3d1c7228	0.038194805
2	0x3ced78d6	0.028988283
3	0x3b7ea3a3	0.003885486
4	0xbd0867fe	-0.0333023
5	0x3d4784eb	0.048710745
6	0xbcfe21b2	-0.031021927
7	0xbd72732c	-0.059191868
8	0xbd991659	-0.074749656
9	0xbd2003bf	-0.039066073
10	0xbd4505e8	-0.048101336
11	0x3d5ffac1	0.054682497
12	0x3d075d5e	0.033048026
13	0xbd4ffb3c	-0.050776705
14	0x3d411b8d	0.047145415
15	0xbd878809	-0.066177435
16	0x3c283c24	0.010268245
17	0xbd0008bd	-0.031258333
18	0x3d0fb2cc	0.035082623
19	0xbcf7e8b5	-0.03026233
20	0xbbd256fb	-0.0064190603
21	0x3cc4ed0f	0.02403882
22	0xbca683f5	-0.020326594
23	0xbcb0c415	-0.021577874
24	0x3cbfd8c9	0.0234188
25	0xb94dc910	-0.00019625225
26	0xbd396713	-0.045264315
27	0xbd5c1160	-0.053727508
28	0xbcb31e12	-0.021864925
29	0x3d018566	0.03162136
30	0x3ca315c9	0.019907849
31	0x3d824d90	0.0636245
32	0xbcb40e74	-0.021979548
33	0xbd0da751	-0.034583393
34	0xbd2d86ac	-0.04236476
35	0xbc6b3539	-0.014355951
36	0xbbae9195	-0.0053274133
37	0xbd478f28	-0.04872051
38	0x3cdc724c	0.02690997
39	0xbcf885b2	-0.030337188
40	0x3d013f64	0.031554595
41	0x3cf0802e	0.029357996
42	0x3cb04665	0.021517942
43	0xbc15007e	-0.009094356
44	0xbd1467e0	-0.036231875
45	0x3d4fd113	0.050736498
46	0xbcf4e7da	-0.029895712
47	0x3d4d9e32	0.050199695
48	0xbbbf5ad6	-0.005839686
49	0x3d1e41b6	0.038636886
50	0xbbef80c8	-0.007309053
51	0xbd646e6b	-0.055769365
52	0x3d5fa5d5	0.05460151
53	0xbc58d208	-0.013233669
54	0x3cbde477	0.02318023
55	0xbd230002	-0.03979493
56	0x3d6ed0cb	0.05830459
57	0x3cbde6ef	0.023181407
58	0x3c8e46d8	0.017367765
59	0xbd786c51	-0.060650174
60	0xbd0f196c	-0.034936354
61	0x3bad7dab	0.005294522
62	0xbd3cc462	-0.046085723
63	0xbcc41adb	-0.023938587
64	0xbb219cbb	-0.002466007
65	0xba990728	-0.0011675106
66	0x3d031ca4	0.032009736
67	0xbcf61bc2	-0.030042533
68	0xbd790ffc	-0.06080626
69	0x3d80fd96	0.06298368
70	0x3cdf0956	0.027226131
71	0x3c71a9c0	0.014749944
72	0xbc70d199	-0.0146984095
73	0xbcf0d836	-0.029399972
74	0x39ff0e30	0.0004864796
75	0x3d4401a7	0.04785314
76	0xbd5ae7c2	-0.053443678
77	0x3d220bc7	0.039562013
78	0xbd340de8	-0.043958575
79	0x3c839105	0.016060362
80	0x3d14ade4	0.036298648
81	0x3b2a0454	0.0025942521
82	0xba521637	-0.00080141745
83	0x3cc077e9	0.023494678
84	0xbc79e7bc	-0.015253004
85	0x3c54ceab	0.012988727
86	0x3d45d48b	0.0482984
87	0x3c98d0e3	0.018654292
88	0xbd3d247a	-0.046177365
89	0xbd69f677	-0.057119813
90	0x3d240808	0.04004672
91	0xbd724799	-0.059150312
92	0x3d4f6178	0.050630063
93	0xbd37beb3	-0.0448596
94	0xbd4bd1a0	-0.04976046
95	0x3d4c33da	0.049854137
96	0xbca74263	-0.020417398
97	0xbd236b3f	-0.0398972
98	0x3d32db23	0.043666016
99	0xbd26ae3a	-0.0406935
100	0x3caa9ec8	0.020827666
101	0xbc92109d	-0.017830187
102	0x3af0a694	0.0018360191
103	0x3d185c36	0.037197314
104	0x3d445c6b	0.0479397
105	0xbd23f437	-0.040027823
106	0x3c1b395e	0.009474127
107	0x3d0478ab	0.03234164
108	0x3c861645	0.01636804
109	0xbd712cfc	-0.05888079
110	0x3d5cb715	0.053885538
111	0x3c7c00e6	0.015381074
112	0xbd2ed869	-0.042686854
113	0x3d14b18a	0.036302127
114	0xb8338fb8	-4.2810774e-05
115	0xbd56967f	-0.052389618
116	0x3c5dfcc5	0.0135490345
117	0xbd5fabb9	-0.054607127
118	0xbd1b1df3	-0.03787036
119	0xbd102fe0	-0.035201907
120	0xbc6c1ddc	-0.014411416
121	0xba7dfc15	-0.0009688747
122	0xbbbe95e6	-0.005816209
123	0x3c259e80	0.01010859
124	0x3ca60c55	0.020269552
125	0x3d0b14cb	0.033955377
126	0xbcc9c115	-0.024628201
127	0x3d6d3053	0.057907414
128	0xbc995c1c	-0.018720679
129	0xbd5b94e0	-0.053608775
130	0xbd337e02	-0.043821342
131	0xbc2c4257	-0.0105138635
132	0x3b89b9ed	0.0042030723
133	0x3d5a78e7	0.053337958
134	0x3d0ae37c	0.033908352
135	0x3d1c0689	0.03809217
136	0x3bf9120d	0.007601029
137	0x3c7a866f	0.0152908405
138	0xbc0efc06	-0.008727079
139	0xbd560d2d	-0.05225866
140	0x3ce58951	0.02801958
141	0xbd725229	-0.059160385
142	0xbb230a51	-0.0024877975
143	0x3b304ed5	0.0026902456
144	0x3d552a2c	0.05204217
145	0xbd4f0517	-0.050541963
146	0xbc9cd718	-0.019145533
147	0x3d4c4bc7	0.049876954
148	0xbd48e681	-0.04904795
149	0x3c60659b	0.0136961
150	0xbd5edd4f	-0.054410275
151	0xbc229679	-0.009923571
152	0xbc4532e0	-0.012036055
153	0xbb41ef54	-0.0029592114
154	0xbcf1c6fb	-0.029513827
155	0x3d826526	0.06366949
156	0x3cac5f10	0.021041423
157	0xbc761523	-0.015019688
158	0xbd20ac7f	-0.039227005
159	0xbba7156f	-0.0050989906
160	0x3d0ac631	0.033880416
161	0xbd2fe599	-0.04294357
162	0xbcc0e521	-0.023546757
163	0xbd4b3ade	-0.049616687
164	0xbd4c8c56	-0.049938522
165	0x3d38bb38	0.04510042
166	0xbc985717	-0.018596215
167	0x3d2126f9	0.039343808
168	0x3cba66a2	0.022754017
169	0x3cd92493	0.026506698
170	0xbd51c2c1	-0.051211122
171	0xbb9c55d8	-0.0047709756
172	0x3d7553c8	0.059894353
173	0x3c76a650	0.0150543
174	0xbcb887c5	-0.022525677
175	0x3d5059f1	0.050867025
176	0x3c5251fe	0.012836931
177	0xbd298a09	-0.041391406
178	0x3920b08f	0.00015324562
179	0xbca4c4a4	-0.020113297
180	0x3c428065	0.011871432
181	0x3cce2f18	0.02516894
182	0x3d436442	0.047703035
183	0x3c4c41f1	0.0124668935
184	0x3b9b9a64	0.0047486294
185	0x3cb2dba9	0.021833258
186	0xbd586f7d	-0.0528407
187	0x3d709108	0.058732063
188	0x3d07f368	0.033191115
189	0xbceb746b	-0.028742036
190	0xbcb59cdd	-0.022169525
191	0x3c3fa8d8	0.01169797
192	0x3c7a4c8b	0.015277038
193	0xbc467292	-0.012112277
194	0xbccb7963	-0.024838155
195	0x3d0029e9	0.03128997
196	0x3d17f0cb	0.037094872
197	0x3d3d6047	0.046234395
198	0xbd209dc7	-0.03921297
199	0xbc778d8a	-0.015109429
200	0xbce18151	-0.027527483
201	0xbd4d7434	-0.050159648
202	0x3d5d0cb0	0.053967178
203	0x3d494097	0.049133863
204	0xbd2e16d2	-0.042502232
205	0xbccd2a81	-0.025044682
206	0x3d103f39	0.035216544
207	0x3d60daa5	0.054896016
208	0x3ced41c3	0.028962022
209	0xbc8b63ef	-0.017015425
210	0xba7f710a	-0.0009744322
211	0xbc50b347	-0.012738056
212	0xbd4aa5bf	-0.049474474
213	0x3d3a5193	0.04548795
214	0x3c175e04	0.009238724
215	0xbcaecb8c	-0.021337293
216	0x3c9a3e67	0.018828584
217	0x3d18015d	0.037110675
218	0x3c40c582	0.0117658395
219	0x3b36772b	0.0027842026
220	0xbac814cf	-0.001526499
221	0x3cc415de	0.023936208
222	0xbb4b1f47	-0.0030993985
223	0xbd3a7f41	-0.045531515
224	0x3d3a3b3d	0.04546665
225	0x3baaaa1b	0.0052082664
226	0xbb527ff9	-0.0032119735
227	0x3cd9bf00	0.026580334
228	0x3d33de09	0.04391292
229	0x3c4323e5	0.011910413
230	0xbd0ed8bb	-0.03487466
231	0x3d3f871d	0.046759713
232	0x3caefa68	0.021359637
233	0x3d4e59b9	0.050378535
234	0x3c6da17c	0.014503833
235	0x3d410250	0.047121346
236	0x3c7bfb38	0.015379719
237	0xbcb12bcf	-0.021627335
238	0x3d348f5d	0.044082034
239	0xbb463e3b	-0.0030249495
240	0x3bf18cc8	0.0073715188
241	0x3d584f2d	0.052809883
242	0xbccf98bd	-0.025341386
243	0xbd0a764f	-0.033804234
244	0x3d728732	0.059210964
245	0x3ab60d70	0.0013889503
246	0x3d643667	0.055715945
247	0x3cbb459c	0.02286034
248	0xbcb672f4	-0.02227161
249	0xbbe3c17a	-0.0069505544
250	0xbc8acf63	-0.016944593
251	0x3d40b3c3	0.047046434
252	0x3c14c05f	0.009079068
253	0xbb8c194b	-0.004275476
254	0xbcbe6348	-0.0232407
255	0x3d21d7b9	0.03951237

net.2.bias f4 [256]
0	0xbd142ad1	-0.036173645
1	0x3da29626	0.07938795
2	0xbd2acc90	-0.041698992
3	0x3cb3bf09	0.021941679
4	0xbd2f6521	-0.042821053
5	0x3d34a48b	0.044102233
6	0x3d31a3bc	0.04336904
7	0x3d2afbe3	0.041744124
8	0xbcc1802c	-0.023620687
9	0xbb89513e	-0.004190593
10	0x3b041963	0.0020156733
11	0xbd119a07	-0.035547283
12	0xbd13402c	-0.03594987
13	0xbc2d1576	-0.010564199
14	0xbd3d9b24	-0.04629053
15	0x3d4435ca	0.04790286
16	0x3bbe7a1e	0.0058128973
17	0xbb1b80ad	-0.002372782
18	0xbd839c9e	-0.06426357
19	0x3d260341	0.040530447
20	0x3cff9dfe	0.031203266
21	0xbd38b0db	-0.045090538
22	0xbb7eb6e1	-0.0038866329
23	0xbc64a052	-0.013954239
24	0x3cb2239a	0.021745492
25	0xbd1132d9	-0.035448883
26	0xba1cbf5d	-0.0005979443
27	0xbbfb62e7	-0.007671702
28	0x3d855414	0.06510177
29	0x3b4d0891	0.0031285624
30	0xbd284878	-0.041084737
31	0x3d18d7d4	0.037315205
32	0xbc1ebcba	-0.009688551
33	0xbd30def5	-0.04318138
34	0xbcf87ad1	-0.030332
35	0xbbfddc94	-0.007747242
36	0xbd871465	-0.06595687
37	0x3c43bb62	0.011946531
38	0xbd51091a	-0.05103407
39	0x3d369408	0.044574767
40	0x3c7f7f7f	0.015594362
41	0xbd1bb53a	-0.038014628
42	0xbd23ab41	-0.039958242
43	0xbd38be3c	-0.045103297
44	0xbc0e0756	-0.008668741
45	0xbc873e83	-0.0165093
46	0xbd249851	-0.040184323
47	0x3cafac05	0.02144433
48	0x3cba75e7	0.022761298
49	0xbca47649	-0.020075934
50	0xbd11b22f	-0.03557032
51	0xbb5fee18	-0.0034169015
52	0xbb95d041	-0.004571945
53	0xbadb7298	-0.0016742526
54	0xbc5240af	-0.012832805
55	0x3cf3147e	0.029672857
56	0xbac3cf6a	-0.0014939134
57	0x3d7b86d0	0.061407864
58	0xbccf2ddb	-0.02529042
59	0xbcf2c46c	-0.029634677
60	0x3d6b204d	0.05740385
61	0xbcff1436	-0.031137567
62	0x3d450e0d	0.048109103
63	0x3ccb6fb3	0.024833536
64	0x3bef1ed7	0.0072973776
65	0x3d805be0	0.06267524
66	0x3d8a7419	0.06760425
67	0xbd48f03a	-0.049057223
68	0xbaa86906	-0.0012848682
69	0xbcbef1a5	-0.023308584
70	0xbd667c48	-0.056270868
71	0x3d1cf614	0.038320616
72	0x3d826104	0.063661605
73	0x3d1d15e3	0.03835095
74	0xbd805334	-0.0626587
75	0x3c5c4816	0.013444921
76	0x3a9acb61	0.0011809879
77	0x3cbce1f2	0.023056958
78	0x3d2a082f	0.04151171
79	0x3ca9930a	0.020699997
80	0xbd2cc092	-0.042175837
81	0xbbae54b2	-0.005320155
82	0xbcdd0da7	-0.026984049
83	0xbc64b06c	-0.013958078
84	0xbc78f855	-0.015195926
85	0xbd41ef7a	-0.047347523
86	0x3d5ddbe4	0.054164782
87	0xbc3d00c5	-0.011535828
88	0xbd4e9459	-0.050434444
89	0xbd6373e0	-0.05553043
90	0x3c08d029	0.0083504105
91	0x3d071781	0.0329814
92	0x3cde45f4	0.027132966
93	0xbd336a98	-0.043802828
94	0x3bc60287	0.0060427818
95	0x3ce08b50	0.02741018
96	0xbd670b12	-0.05640704
97	0x3d3ecf98	0.046584696
98	0xbd0dbdf7	-0.034604993
99	0x3c6bf95c	0.014402714
100	0x3aa19f6c	0.0012330837
101	0x3cc6a427	0.024248196
102	0x3d0c71cb	0.03428821
103	0x3bef4c2d	0.007302782
104	0x3d00b15a	0.031419136
105	0x3d61304f	0.05497771
106	0xbcf0b7bf	-0.029384492
107	0x3cf34812	0.029697452
108	0x3d25702b	0.040390175
109	0x3d231cfc	0.039822564
110	0x3bad6413	0.005291471
111	0xbb3f0e97	-0.0029152983
112	0x3c89fe7c	0.01684498
113	0x3d4fbfaf	0.050719913
114	0xbd27c1a4	-0.040956154
115	0x3c34277c	0.010995742
116	0xbc2bb93d	-0.010481176
117	0x3cacf0e7	0.021110965
118	0x3cc40cd1	0.023931893
119	0xbb61869a	-0.0034412504
120	0xbc4c51d5	-0.012470682
121	0xbd430f6f	-0.04762214
122	0x3d836166	0.06415062
123	0x3d512615	0.05106171
124	0xbcdb5be2	-0.026777212
125	0x3cb0c7bf	0.021579621
126	0xbd80f99e	-0.06297611
127	0xbcaff1b4	-0.021477558
128	0x3d11da0a	0.03560833
129	0x3d1178a4	0.035515442
130	0x3d2d747c	0.042347416
131	0x3d2b6fee	0.04185479
132	0xbc92aa48	-0.017903462
133	0x3c8ac2f0	0.016938657
134	0x3c02738d	0.00796212
135	0xbcd92331	-0.026506038
136	0xbd2e4445	-0.042545576
137	0xbc3ffaed	-0.01171754
138	0xbbc9f70c	-0.0061634835
139	0xbd0347d5	-0.032050926
140	0xbb26ca28	-0.0025450084
141	0x3cf037c5	0.029323468
142	0xbd6b793f	-0.057488676
143	0x3c052c72	0.008128272
144	0x3b371e65	0.00279417
145	0x3b09b1d6	0.002101054
146	0x3d03c9f6	0.032175027
147	0x3d0ab7aa	0.033866562
148	0xbd167e15	-0.036741335
149	0xbc3fc1a5	-0.011703883
150	0xbd54fd29	-0.051999245
151	0x3d094e8a	0.033522166
152	0x3d5ccab2	0.053904243
153	0xbd56bf17	-0.05242833
154	0xbd20b310	-0.039233267
155	0x3ba0da40	0.00490883
156	0xbb9a076f	-0.004700593
157	0x3d4065dc	0.04697214
158	0xbd8950f1	-0.067048915
159	0x3ceb64a0	0.028734505
160	0xbd48e6a4	-0.04904808
161	0x3c6c5f68	0.0144270435
162	0x3d29ffed	0.041503835
163	0xbd05753c	-0.032582507
164	0xb9926ba5	-0.00027927491
165	0x3ce1c0dd	0.027557785
166	0xbcb69ccb	-0.022291562
167	0x3cb4a368	0.022050574
168	0xbd2e9ac6	-0.042628072
169	0xbd33e62b	-0.043920677
170	0x3d65d565	0.056111712
171	0xbd498629	-0.04920021
172	0xbce12fd9	-0.027488636
173	0x3cbfad17	0.023397965
174	0x3c9e9dfb	0.01936244
175	0x3d0f6347	0.035006788
176	0x3d017ab3	0.031611156
177	0xbd42973d	-0.047507513
178	0xbd2dc852	-0.04242737
179	0x3d15edcd	0.036603738
180	0xbcb1160a	-0.021616954
181	0x3bc276e8	0.005934585
182	0xbd4427f3	-0.04788966
183	0xbd69d006	-0.057083152
184	0x3d863e83	0.06554892
185	0xbd1c33fc	-0.038135514
186	0xbceb2fe9	-0.028709369
187	0x3ca4b51a	0.020105887
188	0x3d002ed5	0.031294663
189	0xbcb3e93a	-0.021961797
190	0xbc1edbf5	-0.0096959965
191	0xbd471950	-0.048608124
192	0x3b91393c	0.0044318717
193	0xbbca47bb	-0.0061731017
194	0xbd457375	-0.04820581
195	0x3d638ec4	0.055556074
196	0xbb8a9d70	-0.004230194
197	0xbd43ec30	-0.047832668
198	0xbb4c60cf	-0.0031185632
199	0xbc58e70a	-0.013238678
200	0xbd3764b8	-0.044773787
201	0xbc08035e	-0.008301584
202	0x3d4fb260	0.05070722
203	0x3d2bbfd0	0.041930974
204	0x3c7bbbe6	0.015364623
205	0xbcfceb8b	-0.030874034
206	0xbb8c831a	-0.0042880895
207	0xbcf1f676	-0.029536467
208	0xbd180eee	-0.037123613
209	0xbd69e0e0	-0.057099223
210	0x3bac5312	0.005258926
211	0x3d24f5e7	0.040273573
212	0x3c901433	0.017587757
213	0xbcab6583	-0.020922428
214	0x3d49f346	0.04930427
215	0xbd2eed86	-0.04270699
216	0xbd261997	-0.040551748
217	0xbcfe0b6b	-0.031011304
218	0x3b7a6c3c	0.0038211485
219	0xbd609e15	-0.05483826
220	0xbc6a1121	-0.01428631
221	0xbd120eda	-0.035658695
222	0xbd57da75	-0.05269857
223	0x3d17cda2	0.03706134
224	0x3c6afe40	0.0143428445
225	0x3d040639	0.032232497
226	0x3cf36adc	0.02971404
227	0x3ceff4fb	0.02929162
228	0x3c8ea797	0.017413897
229	0xbd43a404	-0.04776384
230	0x3c9c55d9	0.019083904
231	0xbd4d8686	-0.05017712
232	0xbbaf62e2	-0.005352364
233	0x3baa2c8a	0.0051932978
234	0xbd52fc8f	-0.05151039
235	0x3d53e28f	0.051729735
236	0x3d2ff51b	0.04295836
237	0xbc156a8e	-0.009119643
238	0xbcace4bc	-0.021105163
239	0xbd8353ff	-0.06412505
240	0x3c0dd60a	0.008656988
241	0xbb43b6fa	-0.0029863701
242	0x3b583973	0.0032993227
243	0xba57bc0f	-0.0008229622
244	0x3d369821	0.044578675
245	0x3d6b2ac7	0.057413843
246	0xbc725da0	-0.01479283
247	0x3cd29029	0.025703507
248	0xbcc7de44	-0.024397977
249	0x3cb7b3c2	0.022424582
250	0x3d075e9f	0.033049222
251	0xbd0e10c9	-0.034683976
252	0xbd0d5ce7	-0.034512427
253	0x3d1e5036	0.038650714
254	0xbd7aa580	-0.06119299
255	0xbd446c2b	-0.04795472

net.4.weight f4 [60, 256]
0	0xbbff1471	-0.007784419
1	0x3ce35fbf	0.027755616
2	0xbd281cdb	-0.041043144
3	0xbd229488	-0.03969243
4	0xbbfe7812	-0.0077657783
5	0x3d2ec3af	0.042667087
6	0xbcc91628	-0.024546698
7	0xbc1b259b	-0.009469415
8	0x3c9ff4fd	0.019526
9	0x3d0afd1d	0.033932794
10	0xbc509985	-0.012731914
11	0x3d51dc7d	0.051235665
12	0x3d3c4835	0.0459673
13	0x3cf3be29	0.029753761
14	0x3caebecb	0.021331212
15	0x3d6063b0	0.05478257
16	0x3cd47887	0.025936378
17	0x3d456d00	0.048199654
18	0x3d25d652	0.040487595
19	0xbcb5c1c8	-0.022187129
20	0x3be37286	0.0069411425
21	0x3d44e547	0.04807022
22	0x3d6bcdaa	0.057569183
23	0xbc0ae287	-0.00847686
24	0x3c7f3f16	0.015579006
25	0x3d545c3d	0.051845778
26	0xbd40f97c	-0.047112927
27	0x3d4f6062	0.050629027
28	0xbb5e1a3f	-0.0033890156
29	0x3bdb9d4c	0.006702101
30	0x3cd7a8e5	0.026325652
31	0x3d272561	0.04080713
32	0xbcfd058d	-0.030886436
33	0x3d1accdf	0.037793037
34	0x3d508383	0.05090667
35	0x3d28b81d	0.04119121
36	0x3d145228	0.036211163
37	0x3d24c78b	0.04022936
38	0x3d1f3922	0.038872845
39	0xbd184b94	-0.037181452
40	0x3cf902e9	0.030396895
41	0xbd156151	-0.03646976
42	0x3d0173cb	0.03160457
43	0xbd484dfb	-0.048902493
44	0x3bf59eff	0.0074957605
45	0x3c9495ff	0.01813793
46	0x3c18145d	0.009282199
47	0xbd1ea7ff	-0.038734432
48	0xbc90916b	-0.017647466
49	0x3bb1b9aa	0.005423744
50	0xbc29ead1	-0.010370926
51	0x3d71bd83	0.059018623
52	0x3ca9fcc6	0.020750415
53	0xbc8103ad	-0.015748823
54	0x3c193fcc	0.009353589
55	0xbc7a7fed	-0.015289289
56	0x3d1cbe87	0.03826764
57	0x3978a10b	0.00023711116
58	0x3d254642	0.040350206
59	0xbc3cfc2d	-0.011534733
60	0x3d40c180	0.047059536
61	0x3d6fc889	0.058540855
62	0x3cad50aa	0.021156628
63	0xbd029862	-0.031883605
64	0xbd67a0fa	-0.056550004
65	0xbd1b6791	-0.037940565
66	0xbc9fb495	-0.019495288
67	0x3ca55981	0.02018428
68	0x3d61228b	0.054964583
69	0xbc146fdd	-0.009059873
70	0x3d69398f	0.056939658
71	0xbd1c9b7b	-0.038234215
72	0xbd00f357	-0.031482067
73	0x3cb806bd	0.02246415
74	0x3c2ab6c8	0.010419555
75	0x3d19dee5	0.037566084
76	0xbd1cc301	-0.038271908
77	0x3d2b965a	0.041891433
78	0xbd60c255	-0.05487283
79	0x3d0cf224	0.03441061
80	0xbd5a5351	-0.053302113
81	0x3c580897	0.013185642
82	0xbc13fd99	-0.00903263
83	0xbc57f214	-0.0131802745
84	0x3c1b2638	0.009469561
85	0xbd481aaf	-0.048853572
86	0x3c95ce4c	0.018286847
87	0x3d3b85f3	0.04578204
88	0x3d3838cb	0.044976037
89	0x3d6633c2	0.056201704
90	0x3cdd8387	0.027040256
91	0xbd4fe7c4	-0.05075814
92	0x3b9940a1	0.004676894
93	0xbcfad9f7	-0.030621512
94	0x3d268f70	0.040664136
95	0xbc1fcbf3	-0.009753215
96	0xbd15d580	-0.036580563
97	0xbcc73ebc	-0.024321906
98	0x3d61de82	0.05514384
99	0xbd37ceb8	-0.044874877
100	0xbd06fdfe	-0.03295707
101	0xbc8b594e	-0.017010357
102	0x3cd5f9ae	0.026120033
103	0x3d41fc2b	0.047359627
104	0xbce97b9d	-0.028501326
105	0x3ce25b82	0.027631525
106	0x3ca94b2a	0.020665724
107	0xbcb133be	-0.021631118
108	0x3cd02c54	0.025411762
109	0x3d83ed3c	0.06441733
110	0x3cb871ec	0.02251526
111	0x3c53e6d5	0.012933453
112	0xbd2137ef	-0.039359983
113	0xbc77fb14	-0.015135545
114	0xbd0c175d	-0.03420197
115	0xbabb75cb	-0.0014302073
116	0x3c4f086f	0.012636288
117	0x3be561c9	0.0070001823
118	0xbd626dc5	-0.055280466
119	0xbcff02fc	-0.031129353
120	0x3cf87fd5	0.030334393
121	0x3cf1c9ed	0.029515231
122	0x3c4daa24	0.012552772
123	0x3d2f4308	0.042788535
124	0xbc6e9b9b	-0.014563466
125	0x3c3b27b5	0.011423041
126	0xbc6b91e1	-0.014378042
127	0xbd1d730e	-0.038439803
128	0x3d298f3e	0.041396372
129	0xbd223c15	-0.03960808
130	0x3cedc218	0.029023215
131	0xbd36dc32	-0.04464359
132	0xbbf00e66	-0.007325935
133	0x3cc83039	0.024437057
134	0x3d203a20	0.039117932
135	0xbd26887b	-0.0406575
136	0xbd039bb8	-0.032130927
137	0x3d517b0c	0.051142737
138	0x3d573e7d	0.052549828
139	0xbb08a858	-0.0020852294
140	0x3c79889f	0.015230327
141	0x3d0c69ec	0.034280702
142	0x3d1b46f5	0.037909467
143	0xbbff00d3	-0.0077820807
144	0x3d2ac846	0.041694902
145	0xbd3fee30	-0.046858013
146	0xbce567c9	-0.02800359
147	0x3cbd4941	0.02310622
148	0x3cca79a8	0.024716213
149	0x3d0b8af3	0.03406806
150	0x3cbe16f4	0.023204304
151	0x3c2aec57	0.010432324
152	0xbb3de863	-0.0028977625
153	0xbd14ee72	-0.03636021
154	0xbc127a18	-0.008940242
155	0x3c14c51f	0.0090802
156	0x3cf67b0a	0.030087966
157	0x3d4c1f5e	0.0498346
158	0x3d6576b5	0.05602141
159	0x3c776701	0.015100242
160	0x3d512b62	0.051066764
161	0x3d517123	0.051133286
162	0xbbca8962	-0.006180928
163	0xbc62a0e7	-0.013832307
164	0xbd0019c0	-0.031274557
165	0xbd063751	-0.032767598
166	0x3c7ddc08	0.015494354
167	0x3d5205c7	0.05127504
168	0xbc87ab47	-0.016561164
169	0x3ae78577	0.0017663677
170	0xbd3cc730	-0.046088398
171	0x3b08923b	0.0020839113
172	0xbd670742	-0.056403406
173	0x3d680c3d	0.056652296
174	0xbd2b3ad1	-0.04180414
175	0xbcbb18b5	-0.02283893
176	0xbd32c832	-0.043647952
177	0xbd3e3dec	-0.046445772
178	0x3ce1acc4	0.027548201
179	0x3d0c757e	0.034291737
180	0x3c4d0237	0.012512735
181	0x3bb81088	0.005617205
182	0xbd45e6b2	-0.04831571
183	0x3d6d77c2	0.057975538
184	0x3d05ca2d	0.032663513
185	0x3ce5e081	0.028061153
186	0xbd101a75	-0.03518148
187	0x3ca614bf	0.020273564
188	0x3c81d606	0.015849125
189	0x3cef0364	0.029176421
190	0xbc86be9c	-0.016448312
191	0x3c32cb88	0.010912783
192	0x3d3dd2bc	0.04634355
193	0x3d3ffcf5	0.046872098
194	0xbcc84255	-0.024445692
195	0xb9e44a72	-0.00043543015
196	0xbcd8a65f	-0.02644652
197	0xbc5e9a90	-0.013586655
198	0xbbe84798	-0.0070886128
199	0xbbb62e05	-0.005559685
200	0x3c3c989f	0.011510997
201	0x3d30174c	0.042990968
202	0x3b6503f4	0.0034944983
203	0xbb4afc61	-0.0030973183
204	0xbcd045b1	-0.025423856
205	0x3d3f12df	0.046648856
206	0x3d0613cd	0.032733727
207	0x3bef3473	0.0072999536
208	0x3d74b793	0.059745383
209	0xbb17aa12	-0.0023142141
210	0xbd3c58bf	-0.045983072
211	0x3d2be7b9	0.041969035
212	0x3cc1e638	0.023669347
213	0xbd1c3852	-0.03813965
214	0xbc9f8ecf	-0.019477276
215	0xbd3d5be0	-0.046230197
216	0x3bcdccdc	0.0062805247
217	0xbc0d2dc8	-0.008616872
218	0xbcb7161f	-0.022349415
219	0xbcf063db	-0.02934449
220	0x3ca90810	0.020633727
221	0xbca55c3e	-0.020185586
222	0xbc9a2f21	-0.018821301
223	0x3d5de47b	0.054172974
224	0x3cb976d2	0.022639666
225	0xbcebf12e	-0.028801527
226	0xbcb780e6	-0.02240033
227	0x3c84e826	0.016223978
228	0xbce430e1	-0.027855339
229	0x3d360f54	0.04444821
230	0x3b01a1ee	0.0019780356
231	0x3d1f85a7	0.03894582
232	0xbc0085e7	-0.007844425
233	0x3d1ab91a	0.037774183
234	0x3c3c4bc5	0.011492674
235	0x3d7f4e60	0.062330604
236	0x3ba52cc9	0.005040739
237	0xbac631cc	-0.0015121042
238	0xbcfb8b2b	-0.030706009
239	0xbcc3611d	-0.023850018
240	0x3d10f474	0.03538938
241	0x3c3588e7	0.011080003
242	0x3d249eb4	0.040190414
243	0xbd4f6d56	-0.05064138
244	0x3b99133b	0.004671482
245	0x3b00444a	0.0019571953
246	0xbcedc5ec	-0.02902504
247	0xbce8faa4	-0.028439827
248	0x3c817a8c	0.015805505
249	0x3c9504a9	0.018190699
250	0xbd46d995	-0.048547346
251	0xbce34e74	-0.02774737
252	0x3d55da09	0.052209888
253	0xbd2fe12a	-0.042939343
254	0xbc9041d8	-0.017609522
255	0xbb971a9f	-0.004611328

net.4.bias f4 [60]
0	0x3c468f65	0.012119149
1	0xbc422e3b	-0.0118518425
2	0xb7dab6a5	-2.6072676e-05
3	0xbcd55c38	-0.02604495
4	0xbc4e645c	-0.01259717
5	0xbbe7396d	-0.0070564062
6	0x3c71f8aa	0.014768759
7	0x3c98439b	0.018586924
8	0x3c81d076	0.015846472
9	0x3c9c4318	0.019074962
10	0x3bd3c260	0.0064623803
11	0xbd08bd83	-0.033383857
12	0xbb8c4f9f	-0.0042819525
13	0x3d18b80a	0.03728489
14	0xbd0aa1c4	-0.033845678
15	0x3bbe4836	0.005806948
16	0x3c33e942	0.010980906
17	0xbb5670c1	-0.0032721015
18	0x3c3cf12e	0.011532111
19	0xbd45a3f4	-0.04825206
20	0xbd011b2d	-0.031520057
21	0x3c5562cb	0.013024042
22	0xbca68ff3	-0.020332312
23	0xbcf7b237	-0.030236347
24	0xbc00c675	-0.007859816
25	0xbca84305	-0.02053977
26	0xbd155eaf	-0.03646725
27	0xbcf724b5	-0.03016887
28	0x3c8c7371	0.01714489
29	0xbc97762f	-0.018488972
30	0x3ca9459c	0.020663075
31	0x3d1343c6	0.035953306
32	0x3bec9f25	0.00722112
33	0x3c17a0d8	0.009254657
34	0xbc2dcfc9	-0.010608622
35	0xbc4556d6	-0.012044629
36	0x3aaad462	0.0013033266
37	0x3d157bbe	0.036494963
38	0x3d21a3ca	0.039462842
39	0xbd10f6fd	-0.035391796
40	0x3addc700	0.0016920269
41	0xbc0c866c	-0.008576971
42	0x3d43f4aa	0.04784075
43	0xbbf08244	-0.0073397476
44	0x3cacad0d	0.02107861
45	0x3b9a675b	0.004712028
46	0xbc5e4ec7	-0.013568587
47	0x3d3e3c82	0.046444423
48	0x3d36ce4a	0.044630326
49	0xbca0ee01	-0.01964474
50	0xbc224a2e	-0.009905381
51	0x3ba9d454	0.005182782
52	0x3cb34fe1	0.021888675
53	0x3d0f0c6b	0.034923952
54	0x3d1a925b	0.03773723
55	0x3cf570c5	0.029961
56	0xbd393740	-0.045218706
57	0x3d3cd525	0.046101708
58	0xbd140cb1	-0.036144916
59	0xbd1cada8	-0.03825155
