KMM-3d/KMM_hyper/kmm_hyper.pt (torch, 51663 bytes, 15 tensors)

A_param f4 [16, 16]
0.12779416 -0.04312533 -0.10811569 0.08082276 -0.036583334 0.0172574 0.08614916 0.00060890976
-0.030236477 -0.039163794 -0.006929922 0.031909935 -0.02360606 0.052856077 0.024822949 -0.039369874
-0.047917135 0.05241408 -0.018086696 0.03379814 -0.025767216 0.105490565 -0.135578 -0.009364782
0.042574927 0.080880955 0.004551079 0.004870269 -0.012059669 -0.06542542 -0.017481482 -0.024426425
-0.0767505 0.0044335295 0.107025884 -0.06848369 0.025795426 -0.104692325 0.025325304 -0.00441283
0.026584556 -0.026715342 -0.005920703 -0.03852917 0.019014394 0.0034533788 -0.023822263 0.0644938
0.09061649 -0.00043975638 -0.054171246 0.12530248 -0.091436945 0.028424386 -0.016086295 -0.05481389
0.094789006 -0.0026686713 -0.003625732 0.01813152 -0.051554617 0.009017466 -0.043439616 -0.015019351
-0.013785304 -0.03150756 0.03361854 -0.08051231 0.059596114 -0.07612435 0.0951214 0.030841148
-0.06429429 -0.051170986 -0.003432689 -0.016450426 0.035340767 0.033271447 0.027724447 0.026457217
-0.059054077 0.04985555 -0.056363415 -0.02126246 0.0580682 0.1779549 -0.14683202 0.043562327
-0.06676822 0.11968379 0.020495 0.033661943 0.020740654 -0.08299365 0.04956303 -0.09539759
0.1321557 -0.061235346 -0.060760714 0.04098138 -0.025791166 -0.06722945 0.13686763 -0.0066372086
-0.03192683 -0.071114786 -0.010069267 0.018158529 -0.023292437 0.08817095 0.02087366 -0.007100067
-0.072579026 -0.0034951225 0.024735728 -0.11324854 0.09440973 -0.010486727 0.026178557 0.05272762
-0.09580545 0.0019923786 0.00027447764 -0.0079103075 0.047905426 0.0010234705 0.047367934 -0.0023747094
0.06968566 -0.009121065 0.0072025126 0.11651809 -0.10561912 -0.031763595 0.0030133796 -0.06939449
0.10793584 -0.02116418 0.0056599 0.0035838843 -0.0578707 0.008489131 -0.056134075 0.02332117
-0.07750669 0.08018376 -0.028675405 -0.0022833 0.027078321 0.15900043 -0.17432733 0.032629848
0.0020440351 0.114840746 0.00021531027 0.003968242 0.01318114 -0.09239201 0.005409546 -0.04035883
-0.09805151 0.022852274 0.10858806 -0.055258356 0.013037769 -0.07391424 -0.026700597 -0.013172443
0.04823208 0.0023482277 -0.0006088877 -0.034680523 0.008684875 -0.016947353 -0.03775606 0.05678529
0.0740757 -0.008967848 -0.0021312549 0.115424566 -0.1049979 -0.025693659 -7.997556e-05 -0.057140496
0.106535405 -0.025658926 -0.0007467118 -0.0018929297 -0.045404334 0.00806765 -0.0568897 0.024016798
-0.12573929 0.02620505 0.07109448 -0.1551615 0.10636189 0.007414864 -0.057263255 0.054526623
-0.11152339 0.05997213 0.0185638 -0.0040795254 0.05445633 -0.053959653 0.0569564 -0.015454169
-0.018647168 -0.023930563 0.09462431 -0.022047177 -0.0063226074 -0.15153775 0.0941236 -0.026225148
0.053503036 -0.06669174 -0.010248031 -0.033798017 -0.00027191214 0.04208529 -0.034822624 0.07666648
0.07853349 -0.024028916 -0.075484276 -0.01995995 0.041685425 0.052566484 0.048245765 0.050994605
-0.080369644 -0.023822973 -0.013002083 0.014143486 0.028667554 0.03944563 0.050975412 -0.039354607
0.028767103 -0.045602404 0.021866683 -0.048173044 0.03924063 -0.09430512 0.12491162 0.01134741
-0.04941012 -0.06545899 -0.002548677 -0.0043999827 0.014133657 0.05651542 0.02186274 0.020249771
00000000: 79dc 023e 30a4 30bd c26b ddbd 6786 a53d
00000010: 68d8 15bd 645f 8d3c f96e b03d 3e9f 1f3a
00000020: 7db2 f7bc 376a 20bd 6614 e3bb feb3 023d
00000030: 7f61 c1bc 9d7f 583d 7f59 cb3c 4e42 21bd
00000040: c244 44bd 25b0 563d 8d2a 94bc eb6f 0a3d
00000050: c515 d3bc 700b d83d f6d4 0abe be6e 19bc
00000060: 0c63 2e3d eaa4 a53d 3821 953b c796 9f3b
00000070: eb95 45bc c3fd 85bd 5335 8fbc ed19 c8bc
00000080: 5e2f 9dbd 2447 913b 6330 db3d 2d41 8cbd
00000090: ee50 d33c ee68 d6bd 0377 cf3c 8099 90bb
000000a0: dbc7 d93c 22da dabc 7502 c2bb c3d0 1dbd
000000b0: 13c4 9b3c 1552 623b e826 c3bc 5315 843d
000000c0: 2395 b93d 1a8f e6b9 abe2 5dbd 4b4f 003e
000000d0: 4b43 bbbd 42da e83c 68c7 83bc 8884 60bd
000000e0: bd20 c23d e0e4 2ebb b09d 6dbb 8e88 943c
000000f0: ef2a 53bd febd 133c bded 31bd b913 76bc
00000100: c1db 61bc 120e 01bd 98b3 093d a3e3 a4bd
00000110: 0e1b 743d 15e7 9bbd 02cf c23d 93a6 fc3c
00000120: baac 83bd ab98 51bd f7f6 60bb 0bc3 86bc
00000130: 7bc1 103d a447 083d 611e e33c cebc d83c
00000140: b0e2 71bd 5535 4c3d 53dd 66bd 9c2e aebc
00000150: ecd8 6d3d cf39 363e 225b 16be 696e 323d
00000160: c7bd 88bd c61c f53d 21e5 a73c 1be1 093d
00000170: 4ee8 a93c 93f8 a9bd 9b02 4b3d d05f c3bd
00000180: d353 073e ead1 7abd 3ae0 78bd 17dc 273d
00000190: ff47 d3bc 98af 89bd 0727 0c3e f17c d9bb
000001a0: b5c5 02bd a1a4 91bd 91f9 24bc 32c1 943c
000001b0: c8cf bebc f992 b43d 3dff aa3c aea7 e8bb
000001c0: 50a4 94bd 6d0e 65bb 95a2 ca3c daee e7bd
000001d0: e359 c13d 85d0 2bbc 6a74 d63c ebf8 573d
000001e0: a635 c4bd 9192 023b c4e7 8f39 3c9a 01bc
000001f0: 7b38 443d f925 863a e104 423d 03a1 1bbb
00000200: 5bb7 8e3d 8570 15bc 0e03 ec3b 09a1 ee3d
00000210: d64e d8bd 8b1a 02bd 1f7c 453b b31e 8ebd
00000220: 770d dd3d 8160 adbc af76 b93b 9adf 6a3b
00000230: d409 6dbd ff15 0b3c d8ec 65bd 0a0c bf3c
00000240: d4bb 9ebd 6237 a43d afe8 eabc 6ba3 15bb
00000250: 5bd3 dd3c 02d1 223e dd82 32be e0a6 053d
00000260: 38f5 053b a031 eb3d e9c4 6139 0708 823b
00000270: b5f5 573c 0638 bdbd 9042 b13b 4d4f 25bd
00000280: 3bcf c8bd b134 bb3c 6b63 de3d 9656 62bd
00000290: 5e9c 553c 5960 97bd 36bb dabc 3bd1 57bc
000002a0: 008f 453d b9e4 193b c39d 1fba 2a0d 0ebd
000002b0: 024b 0e3c 2dd5 8abc 19a6 1abd b197 683d
000002c0: 00b5 973d e1ed 12bc 86ac 0bbb b763 ec3d
000002d0: 2409 d7bd 827b d2bc 8db8 a7b8 270c 6abd
000002e0: 3c2f da3d ab32 d2bc fbbe 43ba 2e1c f8ba
000002f0: e5f9 39bd 2d2e 043c 2d05 69bd e0be c43c
00000300: cdc1 00be f9ab d63c fc99 913d a8e2 1ebe
00000310: 43d4 d93d 63f8 f23b e08c 6abd 4f57 5f3d
00000320: 6066 e4bd 56a5 753d 1c13 983c 8aad 85bb
00000330: 9a0d 5f3d cc04 5dbd 1d4b 693d 7c33 7dbc
00000340: f2c1 98bc 070a c4bc 64ca c13d 489c b4bc
00000350: e02d cfbb b62c 1bbe e0c3 c03d 1fd6 d6bc
00000360: 0026 5b3d ae95 88bd 5be7 27bc ca6f 0abd
00000370: 6e8f 8eb9 a061 2c3d 2ba2 0ebd 5103 9d3d
00000380: 2bd6 a03d 4ad8 c4bc 8097 9abd 0d83 a3bc
00000390: 56be 2a3d f44f 573d 5a9d 453d b8df 503d
000003a0: d798 a4bd 6528 c3bc b006 55bc 14ba 673c
000003b0: 38d8 ea3c be91 213d 98cb 503d 4c32 21bd
000003c0: fda8 eb3c 96c9 3abd c221 b33c 1951 45bd
000003d0: c8ba 203d 0b23 c1bd aad1 ff3d 7dea 393c
000003e0: 4462 4abd 5d0f 86bd b407 27bb bb2d 90bb
000003f0: db90 673c b77c 673d 7d19 b33c d9e2 a53c

g.W0 f4 [16, 3]
-0.2318024 -0.08916692 -0.19445325 0.1305165 -0.08964945 0.10680641 0.23144196 0.09623091
0.014352347 0.0066650715 -0.10072994 -0.10116362 -0.17793578 0.084235966 0.029231602 -0.09304396
-0.13567813 0.16261463 -0.1355213 0.11932957 -0.22830588 -0.21466565 0.07066265 0.16280141
0.2696284 -0.073282085 -0.1898168 -0.06345344 -0.12374229 0.1490264 0.26224035 0.08566532
0.08810276 0.025278898 -0.11030035 -0.14634442 -0.028948331 0.105933905 0.15189534 0.13017187
0.09207679 -0.080354534 -0.26003498 0.079343416 0.046415977 -0.18448447 0.08273155 -0.12252961
00000000: 9c5d 6dbe 259d b6bd c11e 47be 1ea6 053e
00000010: 219a b7bd 52bd da3d 1fff 6c3e b614 c53d
00000020: 1b26 6b3c ac66 da3b 804b cebd df2e cfbd
00000030: cc34 36be e883 ac3d 1d77 ef3c d58d bebd
00000040: 35ef 0abe 7384 263e 18c6 0abe 1063 f43d
00000050: 04c9 69be 50d1 5bbe 94b7 903d 6ab5 263e
00000060: bc0c 8a3e eb14 96bd 565f 42be e1f3 81bd
00000070: 996c fdbd 609a 183e 5e44 863e 4d71 af3d
00000080: 386f b43d b115 cf3c 26e5 e1bd 50db 15be
00000090: 0d25 edbc e0f3 d83d 748a 1b3e c64b 053e
000000a0: c292 bc3d eb90 a4bd 4e23 85be cd7e a23d
000000b0: ae1e 3e3d 7fe9 3cbe 296f a93d cef0 fabd

g.a f4 [8, 16]
-0.27757454 -0.25246903 -0.065821186 -0.10413655 0.21422334 0.20942196 -0.11773977 -0.4852124
0.061557144 -0.24777438 0.059568413 0.07860127 0.052448478 0.29348144 0.2821898 -0.041374028
-0.32511008 -0.40559617 0.13370854 0.23777825 0.12039107 -0.37333396 -0.13474585 0.4367584
0.21408893 -0.10181514 -0.05476039 0.091700196 0.3089105 0.3934657 0.2126015 -0.22425532
-0.12326839 -0.013830937 -0.14363042 0.053057034 0.11961516 0.030814316 0.20020702 0.123204395
-0.042177584 0.16454355 -0.10072786 -0.013095136 0.14514801 0.5547234 -0.34027767 -0.381891
-0.14862077 0.21437463 0.23741123 0.038387533 -0.054978885 -0.078380115 0.15108459 -0.08572173
-0.12395081 0.17077202 0.35120845 0.8245068 -0.3632463 -0.3334587 0.47666782 -0.14089862
-0.13620749 0.22880128 0.30640715 0.33135176 -0.3807347 0.6078778 -0.105389774 0.0598853
-0.3813882 -0.13904135 -0.10515419 -0.10559082 -0.2972254 0.29642293 -0.06465729 0.22222497
-0.09477746 0.1898783 -0.13851298 -0.006937382 0.19296029 -0.14661142 0.2563617 0.056266658
-0.015779799 0.57634723 -0.38876885 -0.00944949 -0.2751988 -0.18738964 -0.05148473 0.16796811
0.4044133 -0.37271902 0.08790838 0.09694015 -0.61900467 -0.45444018 0.003596384 0.08822565
0.034929845 -0.047999125 0.086696416 0.08180378 0.14957769 -0.2143354 0.23738115 -0.21365061
-0.03487471 -0.5898392 -0.04254641 0.015458662 0.20515575 0.11214952 -0.23433414 -0.056150544
-0.11043887 -0.13560648 0.46303818 -0.10073408 0.017751543 0.26849604 0.2043275 0.32157156
00000000: 401e 8ebe 9f43 81be 42cd 86bd 8b45 d5bd
00000010: 5d5d 5b3e b672 563e 8c21 f1bd c26d f8be
00000020: 5823 7c3d 91b8 7dbe 02fe 733d b4f9 a03d
00000030: 37d4 563d 3343 963e 2e7b 903e d077 29bd
00000040: d474 a6be 4daa cfbe e4ea 083e 247c 733e
00000050: 988f f63d a125 bfbe d1fa 09be cc9e df3e
00000060: 213a 5b3e 7584 d0bd 6e4c 60bd 50cd bb3d
00000070: 8429 9e3e 5674 c93e 35b4 593e 30a3 65be
00000080: 2374 fcbd 289b 62bc da13 13be 5552 593d
00000090: cbf8 f43d 4e6e fc3c 1203 4d3e 9652 fc3d
000000a0: 67c2 2cbd 1b7e 283e 694a cebd fb8c 56bc
000000b0: aea1 143e 5a02 0e3f e038 aebe 3887 c3be
000000c0: 0b30 18be 0685 5b3e ee1b 733e 3f3c 1d3d
000000d0: 8a31 61bd c185 a0bd ebb5 1a3e e08e afbd
000000e0: ecd9 fdbd dcde 2e3e 98d1 b33e e112 533f
000000f0: 6bfb b9be 19bb aabe ce0d f43e ba47 10be
00000100: fa79 0bbe e24a 6a3e 66e1 9c3e f0a6 a93e
00000110: a9ef c2be e19d 1b3f 98d6 d7bd 4a4a 753d
00000120: 5045 c3be db60 0ebe 145b d7bd 0040 d8bd
00000130: ed2d 98be bfc4 973e 0b6b 84bd f18e 633e
00000140: af1a c2bd 756f 423e 59d6 0dbe fa52 e3bb
00000150: 6297 453e 4e21 16be d741 833e de77 663d
00000160: a344 81bc 7e8b 133f b60c c7be 09d2 1abc
00000170: dbe6 8cbe 12e3 3fbe a7e1 52bd d5ff 2b3e
00000180: 430f cf3e 07d5 bebe 4f09 b43d 8f88 c63d
00000190: 1777 1ebf 62ac e8be 50b1 6b3b a6af b43d
000001a0: 9912 0f3d bb9a 44bd e48d b13d bd88 a73d
000001b0: e52a 193e bd7a 5bbe 0b14 733e 3ac7 5abe
000001c0: c9d8 0ebd b4ff 16bf 2545 2ebd 5446 7d3c
000001d0: 5914 523e a6ae e53d 4af5 6fbe 1dfe 65bd
000001e0: c62d e2bd 6ddc 0abe 5713 ed3e ab4d cebd
000001f0: af6b 913c 5078 893e 3a3b 513e 07a5 a43e

g.b f4 [8, 3]
-0.3376012 -0.2603852 -0.40064672 0.23510548 0.35117394 0.23217104 0.98797834 -0.588238
-0.4961784 -0.76160496 0.90064204 0.060163833 -0.8277245 -0.27277786 -0.22948588 -0.020172577
0.30027604 0.45366833 0.18662718 0.02521466 0.5273132 0.019203935 0.5548199 -0.38107088
00000000: 11da acbe 3551 85be 9121 cdbe 7ebf 703e
00000010: 12cd b33e 3fbe 6d3e 26ec 7c3f c496 16bf
00000020: 180b febe 8bf8 42bf 7a90 663f 5a6e 763d
00000030: c1e5 53bf 8aa9 8bbe 59fe 6abe f640 a5bc
00000040: c8bd 993e 3747 e83e 321b 3f3e fa8e ce3c
00000050: fffd 063f 9251 9d3c ad08 0e3f b91b c3be

g.u f4 [8, 3]
-0.33864263 -0.049317162 1.0172262 0.31242254 -1.0699114 -0.40163538 -0.094967656 -0.57801956
-0.29390374 0.2558557 0.24556413 0.09814665 -0.04745474 0.4867471 0.05167221 0.33376613
-0.0033149794 -0.5955683 0.059000064 0.12368355 0.2884334 -0.36218545 0.33544308 -0.16277348
00000000: 9162 adbe cb00 4abd 7834 823f d9f5 9f3e
00000010: dbf2 88bf 27a3 cdbe 677e c2bd 17f9 13bf
00000020: 8d7a 96be 85ff 823e 2a75 7b3e 1c01 c93d
00000030: e75f 42bd ea36 f93e 3da6 533d 65e3 aa3e
00000040: 2040 59bb 2a77 18bf 0daa 713d cd4d fd3d
00000050: 8bad 933e 5f70 b9be 32bf ab3e 17ae 26be

g.c f4 [8]
-0.14870209 0.23217393 -0.07201352 -0.17432441 0.005282402 -0.06196405 -0.2607379 0.15172824
00000000: 5c45 18be 01bf 6d3e d37b 93bd 1982 32be
00000010: 0018 ad3b 04ce 7dbd 707f 85be a65e 1b3e

Gnl.0.weight f4 [64, 16]
0.075821646 0.031090155 0.062760994 -0.16303957 0.092171736 -0.17357676 0.09881675 0.04820017
-0.25519818 -0.13488178 0.2370436 -0.18043065 0.0052611968 0.21359691 0.13768953 -0.005116445
-0.25933412 0.09252899 -0.13295673 -0.18166569 -0.058452748 -0.074208386 0.06536942 0.16697277
-0.033601843 0.2637794 0.19521669 -0.13208285 0.108161576 -0.17420225 -0.056083623 0.0462062
0.05294387 0.1617849 -0.0045621144 -0.070764765 0.15922962 -0.28333074 0.22830303 -0.19919936
-0.04999993 -0.10622486 -0.12236945 0.00034951972 0.2413883 -0.041420043 -0.14898118 -0.026416594
-0.22956511 0.07632728 -0.22484513 -0.2386649 -0.027423527 0.10712414 0.24826276 0.045671612
0.10907052 -0.18233097 -0.08450115 0.056182746 0.22520839 0.080267966 -0.10921714 -0.10570525
-0.18271494 0.043112285 -0.015926179 -0.29499525 0.21217643 -0.2844011 0.08995046 0.052418984
-0.07848182 -0.13251492 -0.13967463 0.2475592 -0.0006454871 0.14469117 -0.016981877 0.062287536
-0.035363376 -0.07047876 -0.22796638 0.128848 0.07986581 0.021510389 -0.12128661 -0.18847932
0.20439845 -0.1338018 0.1363435 -0.051945593 -0.15887561 0.02795197 -0.1159301 0.026825398
0.06569643 -0.21232235 0.034678057 0.09045418 0.13105978 -0.056323443 -0.19422624 -0.047044925
0.08173479 -0.072938606 0.11115579 0.18342403 -0.14144686 0.003547574 0.110121675 0.0014723339
0.07135347 0.047791168 -0.20502976 0.018801156 0.22055972 0.24265742 0.28852797 0.019475829
0.08999205 -0.31491685 -0.3220089 -0.12600248 0.22902547 0.10098963 0.063301496 0.17200296
0.19224183 0.22004472 0.24737462 0.15598126 -0.034733377 -0.15386154 0.24560061 0.18985161
-0.17165013 0.1635183 0.12511908 0.12721819 -0.1112103 0.10223017 -0.07906507 0.20886602
-0.009199495 0.0594172 0.05436156 0.02555633 -0.02319544 0.035263445 -0.123916976 0.06828142
-0.20279102 -0.2671834 -0.17797291 0.21964034 0.1623748 0.23294774 0.25136468 -0.24008353
-0.14676544 -0.0977165 -0.19529483 0.1645016 -0.15429129 -0.12931585 -0.24030116 -0.17241506
0.2058274 0.23847209 0.19663723 0.21927491 0.19459416 -0.07517544 0.12806803 0.19382107
0.07576664 0.18296327 -0.12479061 0.3089893 -0.001592889 0.33165267 -0.012501735 -0.019394953
-0.23856169 -0.046004828 -0.17108639 0.22293714 0.16445595 0.13573666 -0.16987829 0.10729183
0.15428524 0.014675376 -0.090254255 0.1420814 0.13305154 -0.23083448 0.31534243 0.18022013
-0.14215656 0.13659063 -0.08923311 -0.008663151 0.2069024 -0.049853124 -0.13114503 -0.113411814
-0.051303096 -0.07222767 -0.034549512 0.45851022 0.022721047 -0.047144625 -0.23532881 0.19107805
0.21464263 -0.31807125 -0.20717007 -0.19950323 -0.14370196 -0.04834956 0.06369713 0.23446581
0.22817051 0.046933413 -0.1557201 -0.096447565 0.07124245 -0.19236992 0.118865155 -0.21448134
-0.22427607 -0.25971913 -0.0669211 0.15219568 -0.2267372 0.18881273 -0.11349959 0.10094973
0.041492872 -0.2994919 0.055699106 0.22411364 0.30127323 0.26404023 -0.35070825 0.33628017
-0.0032189353 0.058066912 -0.2384554 -0.05089178 -0.0755377 -0.17970152 0.19487269 -0.31414264
00000000: 6148 9b3d c8b0 fe3c d688 803d d8f3 26be
00000010: 89c4 bc3d 1bbe 31be 7060 ca3d 8b6d 453d
00000020: 56a9 82be 731e 0abe 8fbb 723e d0c2 38be
00000030: 1e66 ac3b 26b9 5a3e 7cfe 0c3e daa7 a7bb
00000040: 71c7 84be d77f bd3d cf25 08be 9206 3abe
00000050: 266c 6fbd 91fa 97bd 67e0 853d e9fa 2a3e
00000060: 16a2 09bd 180e 873e e2e6 473e ba40 07be
00000070: d183 dd3d 1362 32be f1b7 65bd b642 3d3d
00000080: acdb 583d f1aa 253e ca7d 95bb 1eed 90bd
00000090: 170d 233e ba10 91be 45c8 693e ebfa 4bbe
000000a0: bacc 4cbd 6b8c d9bd d69c fabd be3f b739
000000b0: 7f2e 773e 10a8 29bd 868e 18be 9d67 d8bc
000000c0: 1e13 6bbe 7a51 9c3d cd3d 66be 9264 74be
000000d0: 4ea7 e0bc e763 db3d 9838 7e3e 2812 3b3d
000000e0: 5d60 df3d f8b4 3abe f00e adbd e11f 663d
000000f0: 079d 663e 8863 a43d 3cad dfbd fe7b d8bd
00000100: a019 3bbe 8296 303d 9e77 82bc 9e09 97be
00000110: c744 593e 059d 91be f237 b83d 4ab5 563d
00000120: 14bb a0bd feb1 07be de06 0fbe 2980 7d3e
00000130: e835 29ba ec29 143e 941d 8bbc 3721 7f3d
00000140: 30d9 10bd 2b57 90bd 0570 69be bbf0 033e
00000150: b090 a33d 8e36 b03c 1d65 f8bd b900 41be
00000160: d44d 513e 5703 09be a19d 0b3e e7c4 54bd
00000170: 4ab0 22be 88fb e43c c36c edbd f0c0 db3c
00000180: da8b 863d 086b 59be 940a 0e3d 0b40 b93d
00000190: 8934 063e 69b3 66bd 3ee3 46be 2eb2 40bd
000001a0: 9264 a73d d660 95bd a6a5 e33d 82d3 3b3e
000001b0: 72d7 10be 6a7e 683b 7987 e13d 54fb c03a
000001c0: c521 923d acc0 433d 52f3 51be e204 9a3c
000001d0: 68da 613e 307b 783e f0b9 933e c68b 9f3c
000001e0: c04d b83d c83c a1be 5ade a4be cb06 01be
000001f0: a785 6a3e a7d3 ce3d 37a4 813d 8b21 303e
00000200: 0bdb 443e 6753 613e c64f 7d3e 8db9 1f3e
00000210: 9644 0ebd e18d 1dbe ba7e 7b3e 7668 423e
00000220: 0dc5 2fbe 5771 273e 371f 003e 7c45 023e
00000230: 3ac2 e3bd 0d5e d13d deec a1bd f9e0 553e
00000240: 7bb9 16bc 735f 733d 3aaa 5e3d 825b d13c
00000250: 5d04 bebc 6770 103d 2fc8 fdbd 21d7 8b3d
00000260: 73a8 4fbe 43cc 88be 883e 36be 66e9 603e
00000270: 9445 263e da89 6e3e dfb2 803e 75d8 75be
00000280: ae49 16be 971f c8bd 5efb 47be 1c73 283e
00000290: 89fe 1dbe 606b 04be 8211 76be 938d 30be
000002a0: 6bc4 523e 0732 743e 455b 493e 9a89 603e
000002b0: b143 473e 95f5 99bd 4424 033e 0879 463e
000002c0: 8a2b 9b3d b95a 3b3e 3892 ffbd d833 9e3e
000002d0: 7cc8 d0ba 61ce a93e 14d4 4cbc 2ae2 9ebc
000002e0: 8449 74be 8f6f 3cbd 4531 2fbe a249 643e
000002f0: 2467 283e 8dfe 0a3e 93f4 2dbe d2bb db3d
00000300: f3fc 1d3e fd70 703c 39d7 b8bd c97d 113e
00000310: aa3e 083e e05f 6cbe 9074 a13e a08b 383e
00000320: 7d91 11be 6ade 0b3e d9bf b6bd e4ef 0dbc
00000330: 39de 533e ca32 4cbd e24a 06be 7444 e8bd
00000340: 3223 52bd 1aec 93bd ca83 0dbd dac1 ea3e
00000350: 7d21 ba3c b91a 41bd 09fa 70be f7a9 433e
00000360: 47cb 5b3e 3cda a2be 6424 54be 934a 4cbe
00000370: 9b26 13be 300a 46bd a473 823d ce17 703e
00000380: 88a5 693e 403d 403d 1775 1fbe 4d86 c5bd
00000390: 90e7 913d 9ffc 44be 936f f33d ffa0 5bbe
000003a0: a0a8 65be e8f9 84be ee0d 89bd 2fd9 1b3e
000003b0: cc2d 68be 2058 413e 7972 e8bd bbbe ce3d
000003c0: 6ef4 293d 0157 99be bf24 643d 0c7e 653e
000003d0: 7c40 9a3e 4830 873e 0890 b3be ea2c ac3e
000003e0: c6f4 52bb 92d7 6d3d a72d 74be e673 50bd
000003f0: 82b3 9abd ad03 38be b58c 473e 4ed7 a0be

Gnl.0.bias f4 [64]
-0.071574 -0.032290045 0.120739914 -0.12574098 0.13358025 0.10431772 0.19554089 -0.11082481
-0.183763 0.1582204 0.13971339 -0.21117929 -0.05841075 -0.18976566 -0.14738494 -0.083437346
0.2516089 -0.024818135 0.14553672 0.20975691 0.13665946 -0.18126836 0.15849273 0.078923166
0.22069485 -0.2216088 0.1610756 0.22914504 -0.17955455 0.045487415 0.1882055 -0.19857731
0.05400226 0.11360832 0.08063278 0.29456344 0.18280157 0.21378796 -0.0031571912 0.20195204
-0.17630708 -0.10972706 -0.039260544 0.020459576 0.23433176 0.18513761 0.18525575 0.18429892
-0.09975993 0.024910048 0.03734316 0.10878239 0.16410612 -0.039609805 -0.036904793 0.21420103
-0.04846496 -0.2016265 0.22245008 0.18398032 -0.07774269 0.0042335866 -0.18833542 -0.14089411
00000000: 6495 92bd 9142 04bd 7d46 f73d 3ec2 00be
00000010: 43c9 083e 87a4 d53d df3b 483e 1ef8 e2bd
00000020: 5e2c 3cbe 8704 223e 0711 0f3e 623f 58be
00000030: 1c40 6fbd ee51 42be 14ec 16be 33e1 aabd
00000040: e2d2 803e 674f cbbc 9407 153e 84ca 563e
00000050: 75f0 0b3e 6a9e 39be eb4b 223e 78a2 a13d
00000060: d5fd 613e 6bed 62be 01f1 243e ffa4 6a3e
00000070: 26dd 37be 0351 3a3d f1b8 403e da57 4bbe
00000080: 7931 5d3d 7bab e83d cd22 a53d 05d1 963e
00000090: 5630 3b3e 3beb 5a3e e1e8 4ebb 84cc 4e3e
000000a0: d889 34be 95b8 e0bd aacf 20bd d79a a73c
000000b0: aaf4 6f3e b794 3d3e afb3 3d3e dbb8 3c3e
000000c0: ef4e ccbd 2810 cc3c 24f5 183d 4dc9 de3d
000000d0: 6f0b 283e e43d 22bd 7b29 17bd 8457 5b3e
000000e0: 3283 46bd 2d77 4ebe f4c9 633e 5665 3c3e
000000f0: 8f37 9fbd e6b9 8a3b 00db 40be 8c46 10be

Gnl.2.weight f4 [64, 64]
0.0888868 0.03385603 0.17822069 -0.11286693 0.07105276 -0.047650184 0.062429026 0.074631296
0.10858904 0.023675743 -0.064431995 -0.14114776 -0.08017501 0.02074965 0.12757955 -0.11941535
0.08510245 -0.05502787 0.031316347 0.07590035 -0.16449034 -0.13068719 0.07293259 0.021406958
0.00081288494 0.04436568 0.07301239 -0.11084811 -0.14948116 0.09047835 -0.06769109 -0.04173918
-0.08142681 -0.053514987 -0.113648035 -0.072152555 0.13441223 0.16436635 0.030668505 -0.10370271
0.12966125 -0.06362099 -0.050086685 0.07411339 -0.07820326 0.17562613 0.030098652 0.15878323
-0.046992917 0.025658248 0.13120633 -0.1426355 0.073333316 0.1158875 -0.012714715 0.11751602
0.12044635 0.0912018 0.081702314 0.14814386 -0.11758161 -0.085199416 0.044175908 -0.008911918
0.12817588 0.18325265 0.004070854 0.09314852 0.07255016 -0.063837096 0.061569992 -0.042415746
-0.06883501 0.13561238 -0.084685385 0.044018667 -0.040387947 0.0018482965 0.015241375 0.0016648013
0.02665459 0.060373064 0.009552057 0.017559905 0.065800965 -0.1011512 -0.03453772 -0.009797348
0.13233466 0.1489957 0.059811972 -0.059558745 -0.10493832 0.10436874 -0.056055613 0.15001175
0.015159817 0.12147888 0.081438534 -0.036002528 0.069850884 0.05029869 0.111945756 -0.056650627
0.03758324 -0.050649807 -0.16858508 0.11832579 0.022739187 0.1030926 0.11771416 0.01368675
0.04492572 -0.0490984 0.04863508 -0.1032174 0.14843845 0.14791535 0.17248976 -0.023199119
0.08143787 -0.17021587 -0.021628203 0.08101196 -0.04113649 -0.16412985 -0.07870231 -0.12336906
-0.09827396 0.044595264 -0.0417069 -0.018985651 -0.12792513 0.050726365 -0.031129606 -0.19495752
0.055881944 -0.08892502 0.021844158 -0.05315327 -0.2724574 -0.14429715 -0.16613911 0.06677555
-0.011148571 -0.1582763 0.12428652 -0.07228785 0.113014385 0.07903228 0.045518108 0.10640955
-0.08489493 -0.13155358 0.19431728 0.19836703 0.09777308 0.06982093 0.13839182 0.014755008
-0.030043317 0.0125631085 -0.17613629 0.14175531 -0.053120494 -0.08404136 -0.10343996 -0.1567841
0.03384747 -0.22921208 0.14050639 -0.083236724 0.07871944 0.016550576 0.012023234 0.06928078
0.03470044 0.1840363 -0.024924785 -0.09851899 -0.24621624 -0.24842879 0.16795991 0.1441271
-0.017716376 0.20112287 0.06322077 -0.1874852 0.12841569 0.23961674 -0.032520026 -0.16748138
0.14890036 0.11022489 0.1257227 -0.08636539 0.15154059 -0.049995378 -0.047249664 0.09370847
-0.015754875 -0.20198902 0.12855479 -0.047845438 0.05094457 -0.09922821 0.06538055 -0.20881134
0.09416778 -0.0061745085 -0.040673234 0.10363778 -0.083876446 -0.008858185 0.027991336 -0.034814708
-0.10690953 -0.09071762 0.105167165 -0.23763178 -0.070765525 0.007861021 0.018803408 -0.07382397
0.08904906 0.113743864 -0.206652 0.048537523 0.13236581 0.22524665 -0.020969369 -0.117733195
0.049835887 -0.066076346 0.097703256 0.09182143 0.09021869 0.14775503 0.03988863 0.004269911
-0.076191664 0.10310734 0.14966732 -0.028600901 0.1215869 -0.19552569 0.09694591 0.15093708
-0.014137248 0.051561035 0.11250519 -0.08264703 -0.2231081 0.13120507 -0.08601805 -0.025030673
00000000: 480a b63d 9fac 0a3d 7c7f 363e c726 e7bd
00000010: 1c84 913d d72c 43bd 94b5 7f3d 4bd8 983d
00000020: ee63 de3d a2f3 c13c ecf4 83bd 0a89 10be
00000030: cc32 a4bd 2cfb a93c 37a4 023e 0990 f4bd
00000040: 314a ae3d e764 61bd 9245 003d a571 9b3d
00000050: 2870 28be ddd2 05be af5d 953d a55d af3c
00000060: c917 553a cab8 353d 8587 953d 5504 e3bd
00000070: 9711 19be b74c b93d a0a1 8abd b4f6 2abd
00000080: 19c3 a6bd 8832 5bbd 4dc0 e8bd b8c4 93bd
00000090: 5ca3 093e a74f 283e 843c fb3c 1662 d4bd
000000a0: ebc5 043e b94b 82bd b227 4dbd c3c8 973d
000000b0: 0829 a0bd 56d7 333e 7391 f63c 1298 223e
000000c0: a57b 40bd 3f31 d23c f45a 063e 0a0f 12be
000000d0: c72f 963d 6d56 ed3d 6151 50bc 3dac f03d
000000e0: 93ac f63d 02c8 ba3d 8b53 a73d 06b3 173e
000000f0: a1ce f0bd 087d aebd ccf1 343d 4b03 12bc
00000100: 8a40 033e 95a6 3b3e cc64 853b a7c4 be3d
00000110: 2e95 943d 06bd 82bd d130 7c3d 22bc 2dbd
00000120: 5ff9 8cbd f9dd 0a3e 886f adbd eb4c 343d
00000130: d56d 25bd 8a42 f23a f6b6 793c 7635 da3a
00000140: ba5a da3c bf49 773d 3b80 1c3c cad9 8f3c
00000150: a8c2 863d 5c28 cfbd 6d77 0dbd 0e85 20bc
00000160: bd82 073e 5492 183e 66fd 743d dff3 73bd
00000170: e7e9 d6bd 47bf d53d 929a 65bd ae9c 193e
00000180: e260 783c ebc9 f83d 3fc9 a63d 6377 13bd
00000190: fb0d 8f3d 0006 4e3d d143 e53d 7d0a 68bd
000001a0: e2f0 193d 2c76 4fbd 91a1 2cbe cb54 f23d
000001b0: 8847 ba3c 3722 d33d 1f14 f13d 643e 603c
000001c0: 0804 383d 671b 49bd 9435 473d a563 d3bd
000001d0: 4000 183e 1f77 173e 28a1 303e 140c bebc
000001e0: e6c8 a63d 124d 2ebe a12d b1bc 99e9 a53d
000001f0: bc7e 28bd a811 28be ad2e a1bd eba8 fcbd
00000200: dc43 c9bd 86a9 363d dbd4 2abd cc87 9bbc
00000210: cefe 02be 73c6 4f3d 8403 ffbc f2a2 47be
00000220: 77e4 643d 521e b6bd 85f2 b23c 3eb7 59bd
00000230: 897f 8bbe a2c2 13be 5f20 2abe 9fc1 883d
00000240: 7fa8 36bc 2f13 22be ee89 fe3d a70b 94bd
00000250: 1674 e73d addb a13d 3271 3a3d 40ed d93d
00000260: 65dd adbd fbb5 06be 1cfb 463e ba20 4b3e
00000270: 413d c83d 47fe 8e3d 96b6 0d3e fdbe 713c
00000280: 671d f6bc 7fd5 4d3c 125d 34be 4e28 113e
00000290: e094 59bd e01d acbd 54d8 d3bd 038c 20be
000002a0: a5a3 0a3d 92b6 6abe e8e0 0f3e 0478 aabd
000002b0: a837 a13d 1395 873c 19fd 443c 15e3 8d3d
000002c0: 0c22 0e3d 0374 3c3e 102f ccbc 53c4 c9bd
000002d0: 1c20 7cbe 1e64 7ebe affd 2b3e 0e96 133e
000002e0: ef21 91bc 27f3 4d3e e479 813d 1ffc 3fbe
000002f0: 677f 033e 175e 753e b833 05bd 3d80 2bbe
00000300: 5679 183e 96bd e13d 74bd 003e 56e0 b0bd
00000310: 752d 1b3e f4c7 4cbd dd88 41bd 3aea bf3d
00000320: 5e10 81bc 36d6 4ebe dea3 033e 94f9 43bd
00000330: 41ab 503d 2938 cbbd 3de6 853d a4d2 55be
00000340: 09db c03d 8853 cabb fa98 26bd 0b40 d43d
00000350: 6ac7 abbd ec21 11bc 164e e53c de99 0ebd
00000360: 62f3 dabd 29ca b9bd e261 d73d bf55 73be
00000370: 84ed 90bd 83cb 003c 9b09 9a3c 0631 97bd
00000380: 5b5f b63d 8bf2 e83d 959c 53be 48cf 463d
00000390: e78a 073e 0fa7 663e f4c7 abbc 1a1e f1bd
000003a0: b720 4c3d 0953 87bd a518 c83d e00c bc3d
000003b0: 94c4 b83d 184d 173e 4362 233d 9cea 8b3b
000003c0: 600a 9cbd f129 d33d 6442 193e 704c eabc
000003d0: 8d02 f93d e337 48be 948b c63d 408f 1a3e
000003e0: ea9f 67bc aa31 533d 1f69 e63d d942 a9bd
000003f0: 7376 64be 9f5a 063e 3b2a b0bd 200d cdbc

Gnl.2.bias f4 [64]
-0.020205533 -0.07393423 0.105479255 -0.0062950994 0.07378617 -0.0072054737 0.023395672 -0.056725677
0.009369495 -0.11265321 -0.019998487 0.092724 -0.08892328 0.014914514 0.071555495 -0.06607262
0.02327394 0.069855876 0.14105852 0.113944 0.13569503 0.018830646 0.09737809 0.043550346
-0.031648573 -0.030173587 -0.07423356 0.119063824 0.08335604 -0.04954713 0.036916666 0.08714858
-0.13074797 0.006568008 0.04913325 0.051594235 -0.017029105 0.07185343 0.066880316 -0.07629571
0.06808399 -0.050853632 0.103947595 0.12995847 0.038150035 -0.0066367313 -0.027484193 -0.052467313
-0.017867433 -0.02483876 0.0899749 -0.04937556 0.10647238 -0.059508886 0.10585208 0.1693397
-0.056406673 -0.040557627 0.03641749 -0.09676761 -0.0775455 0.019417005 0.11742823 -0.04486399
00000000: 1386 a5bc d46a 97bd 8205 d83d 1f47 cebb
00000010: 341d 973d e51b ecbb 48a8 bf3c 2f59 68bd
00000020: 8382 193c bab6 e6bd ded3 a3bc 15e6 bd3d
00000030: 691d b6bd 015c 743c b08b 923d 1551 87bd
00000040: fda8 be3c 9910 8f3d a571 103e 795b e93d
00000050: a3f3 0a3e ba42 9a3c 2a6e c73d d961 323d
00000060: efa1 01bd 992e f7bc c407 98bd bcd7 f33d
00000070: 92b6 aa3d eef1 4abd ee35 173d f47a b23d
00000080: cce2 05be 7238 d73b f23f 493d 7a54 533d
00000090: 9f80 8bbc e427 933d 8cf8 883d ed40 9cbd
000000a0: 9e6f 8b3d e64b 50bd 7ae2 d43d d513 053e
000000b0: 3643 1c3d f078 d9bb 8826 e1bc f7e7 56bd
000000c0: b95e 92bc a87a cbbc c344 b83d 073e 4abd
000000d0: 310e da3d 97bf 73bd fac8 d83d 6367 2d3e
000000e0: af0a 67bd c11f 26bd 822a 153d 192e c6bd
000000f0: 2dd0 9ebd 6910 9f3c 367e f03d 4ec3 37bd

Gnl.4.weight f4 [64, 64]
-0.10562884 -0.1983684 -0.16535567 0.047014855 0.10739776 -0.020270484 -0.15816742 -0.09187515
0.05026827 -0.22062133 -0.08389891 -0.117346294 -0.07380789 -0.004769562 0.13509132 0.056106273
-0.09196024 0.019246655 0.16283539 0.1039925 0.12134791 0.06641177 0.040549457 -0.13228974
-0.07301474 -0.10058612 -0.009763428 -0.04505824 -0.23327385 -0.14512311 0.020205868 0.15160744
0.048391633 -0.071329914 -0.047849797 -0.017199818 -0.03222037 -0.14364028 0.020074261 -0.0017542543
0.011330547 -0.005227941 0.15878177 0.06615981 -0.028962098 0.15665464 0.14164631 -0.07824596
-0.14950801 0.072172314 -0.06853079 -0.02683679 -0.003280971 -0.15688987 0.008119547 0.1666025
-0.11195671 0.018523742 0.03128822 -0.06579833 -0.09254545 -0.12597735 -0.11939145 -0.1026158
0.0494165 0.15785784 -0.13736682 0.031860434 -0.006517203 0.07227056 0.14341748 -0.052825067
0.006933966 0.059177145 -0.0986843 0.10822148 -0.1452192 0.11846478 0.014789963 -0.04245873
0.07657149 0.17277011 0.013691622 0.062712476 -0.12541933 0.06871724 0.16420798 0.035345685
0.11155708 -0.027242823 0.048544865 0.011240973 -0.07857975 -0.008004768 0.041610036 -0.078494385
0.04536132 -0.0063882554 -0.062687516 -0.01207496 0.10499489 0.03979168 0.018299377 -0.0065366696
-0.03598022 -0.112873636 0.0206963 -0.09542418 -0.027805602 0.029330201 -0.00025864472 0.012694549
0.14476575 0.14865743 0.09150162 0.109986424 -0.120240614 0.094941266 -0.079675764 0.06760047
-0.061619226 0.027678149 0.1396277 0.10901424 0.15947354 0.08726463 0.08089887 0.07876419
0.110373355 0.04174383 0.21529116 -0.025624713 0.120563656 -0.08847535 0.21702501 -0.09545519
-0.008858105 0.11696546 0.27978447 -0.13339502 -0.09269537 0.06341495 -0.14051719 0.117131196
-0.06624581 0.036719214 -0.039425433 0.121816546 -0.04538081 0.032753896 0.099431485 0.21679832
0.28498298 -0.08048934 -0.26205054 -0.16259217 0.0034630483 -0.07249843 0.042278897 -0.12015078
-0.12228484 0.106119506 -0.0832323 0.22674727 0.030216644 0.030078063 0.070676334 -0.13552457
0.06148282 -0.15740296 0.015700426 -0.001544566 0.041429292 0.02158721 0.17870614 0.3178196
0.14414184 0.038947597 0.029680645 0.20538093 -0.20896946 -0.14334708 -0.05837132 0.008067441
0.088893 -0.06831826 -0.056199312 0.0069045885 -0.14089206 0.22719862 0.092373244 0.08509963
-0.11067859 -0.10163176 -0.04746906 -0.10548883 -0.019882536 0.07383737 -0.030329853 0.0124624595
0.08121861 0.028856011 0.018392561 -0.08246365 -0.13479559 0.09919726 0.01960913 0.10784001
-0.037337214 -0.13532108 -0.0222472 -0.08131525 -0.07889563 0.07715622 -0.016177474 -0.035745345
0.103447594 0.117936246 -0.1555879 -0.112384796 -0.10490176 -0.11906073 -0.15025154 0.07431278
-0.13831429 0.13653067 0.024969384 -0.053392004 0.025812397 0.03136539 0.04061589 -0.09222576
0.0056890133 -0.0001822591 0.1386158 0.013901017 -0.20863593 0.13422686 -0.12632164 0.030547407
0.03321135 0.06793188 0.011806816 0.035386063 -0.06267707 -0.14149886 -0.064308695 0.09550544
-0.10700311 -0.09889059 0.040157758 -0.08680696 0.0029877026 -0.15437575 0.039477702 -0.009570591
00000000: ef53 d8bd 1621 4bbe ff52 29be a692 403d
00000010: 5bf3 db3d 490e a6bc a4f6 21be 0a29 bcbd
00000020: 1ae6 4d3d 8fea 61be 31d3 abbd 4153 f0bd
00000030: 9728 97bd fc49 9cbb 6155 0a3e b1cf 653d
00000040: a655 bcbd 29ab 9d3c 52be 263e 05fa d43d
00000050: 4185 f83d e502 883d 3017 263d f676 07be
00000060: c188 95bd 1800 cebd c9f6 1fbc fd8e 38bd
00000070: 57df 6ebe 279b 14be c786 a53c fb3e 1b3e
00000080: 4e36 463d 6b15 92bd 26fe 43bd a2e6 8cbc
00000090: 82f9 03bd 7016 13be c772 a43c 02ef e5ba
000000a0: c2a3 393c 264f abbb b097 223e cb7e 873d
000000b0: ec41 edbc 136a 203e bb0b 113e 6b3f a0bd
000000c0: a118 19be 14cf 933d df59 8cbd d4d8 dbbc
000000d0: 8f05 57bb bda7 20be d907 053c d999 2a3e
000000e0: 8f49 e5bd 1abf 973c 1428 003d 46c1 86bd
000000f0: 7888 bdbd 3500 01be 8183 f4bd 3c28 d2bd
00000100: f568 4a3d 7ca5 213e e3a9 0cbe 1680 023d
00000110: 438e d5bb 9602 943d 08dc 123e 195f 58bd
00000120: 5336 e33b bc63 723d ff1a cabd 39a3 dd3d
00000130: 58b4 14be aa9d f23d 9a51 723c 35e9 2dbd
00000140: 83d1 9c3d a6ea 303e d352 603c 666f 803d
00000150: ed6d 00be a0bb 8c3d 2326 283e a3c6 103d
00000160: 0a78 e43d 572c dfbc fbd6 463d 0f2c 383c
00000170: 6cee a0bd 6e26 03bc 496f 2a3d aac1 a0bd
00000180: cbcc 393d 9254 d1bb 5062 80bd 0ed6 45bc
00000190: 9007 d73d 9afc 223d 93e8 953c 8f31 d6bb
000001a0: ff5f 13bd 4b2a e7bd 498b a93c c16d c3bd
000001b0: 93c8 e3bc e445 f03c b59a 87b9 ccfc 4f3c
000001c0: 793d 143e a739 183e 3465 bb3d 9040 e13d
000001d0: b640 f6bd 9170 c23d 0c2d a3bd 1d72 8a3d
000001e0: 7164 7cbd 49bd e23c 90fa 0e3e dc42 df3d
000001f0: 084d 233e ccb7 b23d 4fae a53d 1f4f a13d
00000200: 6d0b e23d 94fb 2a3d 4975 5c3e ebea d1bc
00000210: 14ea f63d 9032 b5bd ce3b 5e3e 037e c3bd
00000220: 9621 11bc 968b ef3d e93f 8f3e b498 08be
00000230: 12d7 bdbd b3df 813d bde3 0fbe 7be2 ef3d
00000240: e2ab 87bd e366 163d 907c 21bd f47a f93d
00000250: 3ae1 39bd f328 063d bca2 cb3d 6100 5e3e
00000260: 4ae9 913e 98d7 a4bd 7d2b 86be 907e 26be
00000270: 4ff4 623b 0f7a 94bd a32c 2d3d 9d11 f6bd
00000280: 7970 fabd 2f55 d93d b275 aabd 7030 683e
00000290: e588 f73c 4566 f63c c1be 903d f4c6 0abe
000002a0: 69d5 7b3d 3e2e 21be 2e9e 803c 0973 caba
000002b0: c3b1 293d a9d7 b03c befe 363e 40b9 a23e
000002c0: eb99 133e 8487 1f3d d324 f33c 614f 523e
000002d0: 17fc 55be 94c9 12be c416 6fbd 4d2d 043c
000002e0: 880d b63d 72ea 8bbd 4031 66bd e33f e23b
000002f0: 0246 10be c1a6 683e 2f2e bd3d b748 ae3d
00000300: 75ab e2bd 5024 d0bd eb6e 42bd 870a d8bd
00000310: b3e0 a2bc 0c38 973d 5076 f8bc 582f 4c3c
00000320: f155 a63d 7163 ec3c ffab 963c b4e2 a8bd
00000330: db07 0abe ef27 cb3d 54a3 a03c 39db dc3d
00000340: e8ee 18bd 9c91 0abe c33f b6bc 9c88 a6bd
00000350: 0894 a1bd 1504 9e3d 9f86 84bc b669 12bd
00000360: 55dc d33d 8f88 f13d 6f52 1fbe 002a e6bd
00000370: bcd6 d6bd 1dd6 f3bd 8adb 19be 4c31 983d
00000380: 43a2 0dbe b2ce 0b3e 988c cc3c 93b1 5abd
00000390: 8574 d33c ff78 003d d95c 263d dce0 bcbd
000003a0: e76a ba3b ce1c 3fb9 4df1 0d3e 17c1 633c
000003b0: a8a4 55be c472 093e 765a 01be 8e3e fa3c
000003c0: a008 083d df1f 8b3d 6071 413c faf0 103d
000003d0: d65c 80bd 14e5 10be 47b4 83bd 5b98 c33d
000003e0: 7224 dbbd 2687 cabd 767c 243d d9c7 b1bd
000003f0: 55cd 433b ad14 1ebe 5fb3 213d f8cd 1cbc

Gnl.4.bias f4 [64]
-0.056345943 0.07966766 -0.008234495 0.039403148 0.05009124 -0.040607866 0.028090687 0.13468315
0.046938222 0.060353193 0.10387625 -0.04976928 -0.016643995 0.14453335 0.010380992 0.061206512
0.036428887 -0.0775641 0.044222124 0.12923999 0.015453978 -0.11288934 -0.11467478 -0.0136973215
-0.010349686 -0.051269997 0.14821027 -0.02655684 -0.05165859 0.037138384 0.12959622 0.057083428
0.1629887 -0.045294434 0.1539159 -0.07312895 -0.0649173 0.04435566 -0.06304066 0.03467696
-0.05106619 0.048860442 0.008378124 -0.0034818335 -0.06984233 0.0045707906 0.057111535 0.1514975
0.1535063 0.016067635 -0.009690338 0.1085694 0.018297628 0.042847734 -0.021033285 0.0056070774
0.023535151 -0.0999158 -0.0024132452 -0.1011733 0.04990819 -0.024856111 0.083324194 -0.10887608
00000000: 01cb 66bd cc28 a33d fae9 06bc 3265 213d
00000010: 792c 4d3d 6f54 26bd 711e e63c 61ea 093e
00000020: 4b42 403d e934 773d 12bd d43d dfda 4bbd
00000030: fd58 88bc 8d00 143e 0915 2a3c aeb3 7a3d
00000040: 7536 153d edd9 9ebd 4222 353d 7d57 043e
00000050: af32 7d3c 8732 e7bd 9cda eabd bb6a 60bc
00000060: bb91 29bc 7d00 52bd 6fc4 173e bb8d d9bc
00000070: f597 53bd 6b1e 183d dfb4 043e 50d0 693d
00000080: 83e6 263e a886 39bd 219c 1d3e a2c4 95bd
00000090: 5df3 84bd 48ae 353d 761b 81bd 6e09 0e3d
000000a0: c82a 51bd e321 483d 6644 093c 792f 64bb
000000b0: 7f09 8fbd 92c6 953b c9ed 693d 2922 1b3e
000000c0: c130 1d3e 46a0 833c 39c4 1ebc a259 de3d
000000d0: e8e4 953c 1b81 2f3d ff4d acbc 93bb b73b
000000e0: cacc c03c a8a0 ccbd 8927 1ebb f233 cfbd
000000f0: 886c 4c3d 0b9f cbbc e0a5 aa3d 6cfa debd

Gnl.6.weight f4 [16, 64]
0.026760973 -0.054200526 -0.15914708 0.10941844 -0.104845546 -0.015538315 -0.055502176 -0.0137934135
-0.11897692 -0.11688593 -0.05590506 0.03085097 -0.013652111 -0.11214561 0.15269862 0.11778385
0.06507637 0.15736304 0.1476872 0.035014737 0.121782854 -0.08289902 -0.0734197 -0.094478324
-0.021478487 -0.099859074 0.1444423 -0.031055292 0.039160684 0.02426424 0.097250365 0.07311062
0.19551004 -0.18234198 0.15609244 -0.16401134 0.0699727 -0.08126592 -0.14823349 0.012267007
-0.16488424 0.12229671 0.11570936 0.07642687 0.019146258 0.13166347 -0.11868594 0.11675198
0.08002435 0.069214284 -0.014102575 0.070660494 0.08738074 -0.02239998 -0.14405581 -0.012906051
0.14352235 -0.06460072 -0.12620135 -0.006998887 -0.0068131695 -0.13408194 0.16878816 0.014001086
0.18146883 -0.05116303 -0.02852108 -0.11802807 -0.010399963 0.001808272 0.1420492 -0.058469124
-0.12055674 -0.007818792 -0.007421466 -0.006332722 -0.03157815 -0.08530582 0.04324503 -0.018472284
-0.0329768 0.009055624 0.046137035 -0.013968223 0.16789056 -0.103714444 0.047726545 0.047764678
0.12099731 0.04994307 0.13669543 -0.10590662 0.05327748 0.06273829 0.0497556 -0.066006675
0.102334134 0.12501618 -0.13309537 -0.013583659 -0.13064976 0.04012916 0.053388804 0.17900336
0.13935682 0.15246013 0.015555336 -0.12308848 -0.025839806 0.19382584 -0.028406538 0.045273595
-0.004839513 0.027812777 0.049899243 0.04016731 -0.00073326647 0.07072952 0.0916501 0.05448134
0.16366753 0.1029442 0.10308593 -0.06975391 -0.059472755 -0.027220177 0.107073694 -0.049055226
-0.16047783 0.14996281 -0.04888754 -0.12178317 -0.044938527 0.07924639 -0.070564374 -0.20212404
0.06730014 0.07549784 0.15735768 -0.06546116 0.035886534 -0.0074675456 -0.107363425 0.014369799
0.07226025 -0.051647685 0.011854666 0.013899413 -0.12248281 0.0015766945 0.13162562 0.078064576
-0.06973318 -0.047419176 -0.1839567 -0.081878185 -0.07269586 0.113729805 -0.07305232 -0.02001891
-0.1782223 0.046871822 -0.12714188 0.040254734 0.1813263 0.085226595 -0.08136197 -0.20527804
0.026512759 -0.12417485 -0.13499214 0.08470396 0.09224396 -0.057687175 0.1347342 -0.20423336
-0.0412723 0.13031442 0.10503042 -0.0353471 -0.016321555 -0.13293077 0.17331523 -0.20193008
-0.13284108 0.12504917 -0.10428403 -0.0023676027 -0.025753824 0.06320449 -0.114310704 0.10384868
0.13757455 -0.12681319 0.00048285862 -0.037869886 -0.13350002 0.08643808 -0.1274158 0.09683039
-0.048889007 -0.09783323 -0.14636707 0.03165254 -0.12853257 0.058700122 0.08448312 -0.12298576
0.08538465 -0.035676014 0.030260097 -0.045782477 0.088280156 -0.10220236 -0.040452436 -0.044329587
-0.010387494 0.031636346 -0.040797297 0.0050899717 0.042072576 -0.048438214 0.05893414 0.11481335
0.104779914 0.054219708 -0.03987504 -0.11014698 0.06310154 0.08825105 -0.068991296 0.09357367
-0.050818596 -0.07212206 -0.10381368 -0.11888264 0.12245275 0.0826548 -0.074195944 0.011126884
-0.006839214 -0.07954927 -0.11201651 0.041011646 -0.07741311 -0.083962224 0.043986056 -0.08113356
0.04674141 -0.048261743 -0.025454018 0.07817192 -0.14149565 -0.07319877 0.1747097 -0.011197094
00000000: d439 db3c 5f01 5ebd 74f7 22be c616 e03d
00000010: 43b9 d6bd 6b94 7ebc 4056 63bd c5fd 61bc
00000020: 2caa f3bd e461 efbd b4fc 64bd 2cbb fc3c
00000030: 1bad 5fbc 99ac e5bd 075d 1c3e a938 f13d
00000040: c346 853d c723 213e 503b 173e 9d6b 0f3d
00000050: 4a69 f93d f6c6 a9bd 115d 96bd da7d c1bd
00000060: a7f3 afbc ea82 ccbd afe8 133e ab67 febc
00000070: f466 203d cdc5 c63c 332b c73d 05bb 953d
00000080: c933 483e dbb7 3abe b2d6 1f3e 97f2 27be
00000090: d94d 8f3d bf6e a6bd 85ca 17be 8efb 483c
000000a0: 6ad7 28be b376 fa3d 07f9 ec3d b185 9c3d
000000b0: 9dd8 9c3c cad2 063e 9d11 f3bd a91b ef3d
000000c0: cee3 a33d 38c0 8d3d 7d0e 67bc 73b6 903d
000000d0: acf4 b23d 2a80 b7bc 5e83 13be e773 53bc
000000e0: 86f7 123e 624d 84bd ed3a 01be eb56 e5bb
000000f0: 0241 dfbb c74c 09be ced6 2c3e d064 653c
00000100: f7d2 393e 5390 51bd 0aa5 e9bc b3b8 f1bd
00000110: 9b64 2abc 8a03 ed3a 5875 113e 527d 6fbd
00000120: 74e6 f6bd 641a 00bc c52f f3bb b982 cfbb
00000130: 1758 01bd d1b4 aebd b321 313d 3053 97bc
00000140: ae12 07bd 0a5e 143c 30fa 3c3d f9da 64bc
00000150: 81eb 2b3e 3d68 d4bd e97c 433d e5a4 433d
00000160: 70cd f73d 1b91 4c3d e3f9 0b3e 92e5 d8bd
00000170: 7d39 5a3d ef7c 803d 87cc 4b3d 822e 87bd
00000180: 8f94 d13d 3e04 003e 274a 08be ff8d 5ebc
00000190: 0dc9 05be 795e 243d 38ae 5a3d a84c 373e
000001a0: 8eb3 0e3e 821e 1c3e cfdb 7e3c d015 fcbd
000001b0: 00ae d3bc 487a 463e d4b4 e8bc ce70 393d
000001c0: c794 9ebb 9fd7 e33c 2663 4c3d 7a86 243d
000001d0: ae38 40ba a3da 903d 0cb3 bb3d d327 5f3d
000001e0: 7698 273e 69d4 d23d b71e d33d 23db 8ebd
000001f0: b499 73bd d9fc debc 7449 db3d 22ee 48bd
00000200: 4d54 24be da8f 193e 4d3e 48bd 7469 f9bd
00000210: 7611 38bd ee4b a23d 0e84 90bd 9bf9 4ebe
00000220: a8d4 893d 9d9e 9a3d 5f22 213e 8010 86bd
00000230: c2fd 123d 50b2 f4bb 5be1 dbbd 4e6f 6b3c
00000240: 2ffd 933d 868c 53bd 133a 423c 5dba 633c
00000250: 44d8 fabd 17a9 ce3a dec8 063e 52e0 9f3d
00000260: 45d0 8ebd 9c3a 42bd 255f 3cbe c0af a7bd
00000270: 91e1 94bd 2ceb e83d 749c 95bd b2fe a3bc
00000280: e87f 36be abfc 3f3d 7b31 02be 26e2 243d
00000290: 9aad 393e 488b ae3d 1ba1 a6bd 6834 52be
000002a0: 4931 d93c 624f febd 613b 0abe 4579 ad3d
000002b0: 67ea bc3d 6349 6cbd c3f7 093e 8d22 51be
000002c0: 250d 29bd 2571 053e 301a d73d 1fc8 10bd
000002d0: c8b4 85bc 011f 08be 8c79 313e c2c6 4ebe
000002e0: 7e07 08be e40c 003e de92 d5bd c829 1bbb
000002f0: aff9 d2bc 5b71 813d bb1b eabd 9eae d43d
00000300: 58e0 0c3e 51db 01be 3028 fd39 741d 1bbd
00000310: 3bb4 08be 7306 b13d 4a79 02be 034f c63d
00000320: d73f 48bd ca5c c8bd 40e1 15be 18a6 013d
00000330: 0b9e 03be 8a6f 703d 7c05 ad3d f5df fbbd
00000340: 26de ae3d 0321 12bd 06e4 f73c 6886 3bbd
00000350: 3acc b43d 794f d1bd 74b1 25bd f192 35bd
00000360: 4f30 2abc 1d95 013d 111b 27bd c7c9 a63b
00000370: 4b54 2c3d 2667 46bd ed64 713d 4323 eb3d
00000380: da96 d63d 7c15 5e3d 0354 23bd bd94 e1bd
00000390: 613b 813d f7bc b43d 4f4b 8dbd 8da3 bf3d
000003a0: 2927 50bd bbb4 93bd 449c d4bd be78 f3bd
000003b0: 82c8 fa3d eb46 a93d 0bf4 97bd 894d 363c
000003c0: 7c1b e0bb baea a2bd e968 e5bd d4fb 273d
000003d0: c48a 9ebd 63f4 abbd b92a 343d 5a29 a6bd
000003e0: ec73 3f3d 1bae 45bd f284 d0bc 9918 a03d
000003f0: 3ce4 10be 3de9 95bd 19e7 323e 0474 37bc

Gnl.6.bias f4 [16]
0.08185428 -0.0003819029 0.08222915 -0.023082228 -0.003934788 -0.0035824482 0.009362862 -0.042680703
-0.06345107 -0.08426187 -0.036030043 0.034647003 0.0072334637 0.07604826 0.037755225 0.053447045
00000000: 37a3 a73d 243a c8b9 c267 a83d f116 bdbc
00000010: 65ef 80bb 82c7 6abb b166 193c f6d1 2ebd
00000020: a2f2 81bd 7d91 acbd 3d94 13bd 04ea 0d3d
00000030: b106 ed3b 31bf 9b3d 39a5 1a3d 4aeb 5a3d

C.weight f4 [3, 16]
-0.2719365 0.15237354 0.26350784 0.104594365 -0.16265316 -0.07639928 -0.232131 -0.2221981
0.23993048 0.07865863 0.20293377 0.14021859 -0.03481444 0.13588281 -0.16999994 -0.13736333
-0.0901785 -0.19024765 0.29656494 -0.26749426 0.2912327 -0.14545363 0.101751566 0.26462206
-0.14232497 -0.16126522 0.09616698 -0.108615994 0.08249394 0.19569589 0.016625885 0.23754779
-0.21140115 0.17360675 0.0455875 -0.24583961 0.003087595 0.19114888 -0.27175915 0.22773406
-0.21891522 0.2619419 0.058884934 -0.1431208 0.22395974 -0.123113394 0.0016711346 -0.13636905
00000000: 433b 8bbe cf07 1c3e 80ea 863e 9235 d63d
00000010: 8d8e 26be 3a77 9cbd c0b3 6dbe e687 63be
00000020: 56b0 753e c717 a13d dfcd 4f3e 7695 0f3e
00000030: 9699 0ebd dd24 0b3e 7714 2ebe f9a8 0cbe
00000040: 81af b8bd 48d0 42be 5cd7 973e 02f5 88be
00000050: 741c 953e ccf1 14be 2063 d03d 8b7c 873e
00000060: a3bd 11be b622 25be 32f3 c43d 1072 debd
00000070: 95f2 a83d 8164 483e 0233 883c ba3f 733e
00000080: 8b79 58be f8c5 313e f5b9 3a3d 61bd 7bbe
00000090: 4059 4a3b 88bc 433e 0424 8bbe 1e33 693e
000000a0: 502b 60be 401d 863e 5431 713d 428e 12be
000000b0: b455 653e e022 fcbd f909 db3a 54a4 0bbe
