KMM-3d/two_stage_out/two_stage_PG.pt (torch, 440450 bytes, 12 tensors)

net.0.weight f4 [167, 60]
00000000: 0897 d3bb b1b1 713d 680a c0bd d8fc a4bd
00000010: f64e 83bd 3e81 483d 0557 bc3c 7cf4 b33d
00000020: a841 66bb 2e44 4c3d f99e 56bd 3bec 86bc
00000030: 91fb 01be dc6c ccbd 7a47 5dbd 9677 0c3b
00000040: cb86 213d 70f5 973d 7de4 aabd efee 8dbd
00000050: 0865 743d 6c13 fc3d 0397 12bd 3acb d23d
00000060: 52c6 cebb 2651 4939 8156 063e 5a63 eabd
00000070: fc9b c2bd a890 c6bc d600 33bd 876f c93d
00000080: 2d35 a6bd 5a7d 45bd 617a d1bd 94df 00be
00000090: f706 84bd 6e6f c53d 75dd 853d 8bbb 7d3d
000000a0: a48a b8bb 3866 6bbd e73b 193d 9ded 07be
000000b0: 3f02 9ebd 152e 46bd 67ea 8c3d 814e ae3d
000000c0: 756a 5ebd 2aef 94bc 9d0b c23d b57c 003e
000000d0: e91f 213d 2223 d43c 0571 b33d f087 b5bd
000000e0: e5c2 ae3c a29c cfbd 234f d2bd 47f9 62bd
000000f0: 866c 433d 308a 3b3d 98ea a2bd 2f5e 853c
00000100: b04e 833d 801e 0fbd 6895 6abc b3a1 cd3c
00000110: ff72 a63d 95e6 f53d b85b dbbd 04c8 64bd
00000120: a6dc 2e3d 5a53 d13d 729b c23d 609e ce3d
00000130: 155f c63c 92df e9bd dd8a 2c3b 5fb6 adbd
00000140: d86f f5bd 2008 ea3d 69be c53d 29f9 08be
00000150: 1d90 f83c f7dc cfbc 51c4 a7bc 3d45 82bd
00000160: afd8 3a3d 4f6b aabd 3960 3d3d 68e1 7e3d
00000170: 4aa2 e63d 1e51 223d 4650 08be f338 acbd
00000180: 08ea 013d 402a bb3c 0f6f d5bd 0009 adbd
00000190: e647 f03d 7428 b53d 347c 50bd 69b2 13bd
000001a0: 7aeb d7bd c035 cbbb d773 cebd 49b0 aebd
000001b0: b695 85bc 333f 873c a2ce 40bd 4ab5 913d
000001c0: b6f8 a7bd ee60 003e 92b0 973d 260d e3bd
000001d0: 00db fbbc c61a 8fbb eeee 7b3c 7978 043d
000001e0: 5d9c df3d c2e0 453d 90fc 51bd a6be af3d
000001f0: 6d22 b5bd 39ae edbc a017 86bc e6ba 42bd
00000200: 9247 65bd 3c6a e7bd f115 b43c 756d 003c
00000210: 8ab9 36bd 835b d5bb f70d 993d 8eb6 363d
00000220: 326d c03c fec0 443c 30fa 9a3d eab6 f43d
00000230: db72 483e 10d3 c03d 3781 293e 39c1 333d
00000240: cbfd 05be 7908 f1bc 3a0b e73d b22f 483d
00000250: a525 32bd 246e 06be cf77 f2bd 0a37 cbbd
00000260: 1b95 d7bb 08cb 583d 30e3 cd3d c6c6 fabd
00000270: a3b0 2c3d 88f7 aebd 679f 83bd d77a 183b
00000280: f4e9 8bbb 4023 37bd 258c 2dbe d23d b4bd
00000290: 07c4 72bb d7ac 39bd f77d 05bd fd64 833d
000002a0: a228 18be f09b 9abb aa84 f73d 9d35 59bd
000002b0: 79f9 133e fe67 d63d bdb3 8cbd 273a e13d
000002c0: b712 12bd 508c 28bb 3e96 d63d 5ed8 e3bd
000002d0: e4e5 123d 35eb b9bc c6a0 c43d 2649 093d
000002e0: cbb8 7a3d 6425 6d3d f332 06bd 3b36 b4bc
000002f0: 8519 d7bd 7db8 3b3d a804 d63d 4389 af3d
00000300: 56d8 ebbd 00ff 0e3c e6d1 bfbd 165b 85bd
00000310: fbde 9cbd b727 443d 35fa cabd 4029 acba
00000320: 7fdb 823c 57b0 5a3d 20b7 c5bd e951 cfbd
00000330: ae4d 8bbd 3ab2 b93d c249 5cbd b479 c53d
00000340: 8f80 413d 251d 073c 44b7 2abc c0e3 d5bc
00000350: 5046 4fbb 21f8 833c 6d02 1eba 5a06 863c
00000360: 9e83 74bd bf9e 8dbd 40ae c73d 8181 bfbd
00000370: db5f 8fbb d969 083e fbc3 673d 77ca f83b
00000380: a99a e1bd 3f20 8e3d 545c bcbd 2160 33bd
00000390: 7932 4bbd a03a 90bc 9d03 bfbb 49d9 a83d
000003a0: fa18 7d3c 4d0a da3d b021 723d c1af aabd
000003b0: 7e63 393d 3b1a 9ebd 2496 5fbd 8047 cd3c
000003c0: 5af0 0e3d 0c8b 863d 12b9 ddbc bacc ccbc
000003d0: fe2a 5b3d 3b93 04be 28f5 743d 4691 f6bd
000003e0: 0079 323c 587a d1bc edba b9bd 6e7c 513c
000003f0: 5f02 d43d bd33 33bd 580c acbd 4b6b 6abd
-0.0064572133 0.05900735 -0.09376985 -0.080560386 -0.06411545 0.04895138 0.022990713 0.08786866
-0.003513435 0.04986971 -0.052397702 -0.016470065 -0.12693621 -0.09981701 -0.054023243 0.0021433583
0.03943519 0.0741986 -0.08344362 -0.069303386 0.059666663 0.12308392 -0.035788547 0.10292669
-0.0063102627 0.00019199084 0.13118936 -0.11444731 -0.09502408 -0.0242389 -0.04370197 0.09835725
-0.08115611 -0.048215248 -0.1022842 -0.12585288 -0.06446641 0.09640394 0.0653638 0.061946433
-0.0056317616 -0.05747053 0.037410643 -0.13274236 -0.07715272 -0.04838379 0.06880646 0.08511067
-0.054300744 -0.018180449 0.09474871 0.12547572 0.039337073 0.025895659 0.08761791 -0.08863819
0.021333167 -0.10137297 -0.102690004 -0.05541351 0.047710918 0.045786083 -0.079549015 0.016280262
0.06411493 -0.034941196 -0.014317848 0.025101518 0.081274025 0.12006871 -0.10710853 -0.055854812
0.042690895 0.10220976 0.09502305 0.100888014 0.02421526 -0.11419596 0.0026327886 -0.0848205
-0.11984223 0.11427331 0.096554585 -0.13376297 0.030342156 -0.025373919 -0.020479353 -0.063608624
0.0456168 -0.08321249 0.046234343 0.062226683 0.11261423 0.03962814 -0.13311872 -0.084093
0.03171733 0.022847295 -0.10421573 -0.08448982 0.117324635 0.088456064 -0.0508997 -0.036058817
-0.105429605 -0.006201476 -0.100806884 -0.085297175 -0.01630674 0.016509628 -0.04707206 0.07114656
-0.08201735 0.12536976 0.07406725 -0.11086492 -0.030744076 -0.0043672053 0.0153767895 0.032341454
0.10918496 0.04831005 -0.051266253 0.08581285 -0.08844457 -0.02901374 -0.016368687 -0.04754152
-0.055976458 -0.112995595 0.021983119 0.007838597 -0.044610538 -0.006511153 0.07473367 0.04460769
0.023489568 0.012008904 0.07567251 0.119489506 0.19575064 0.09415257 0.16553198 0.043885443
-0.13085096 -0.029422985 0.11281438 0.04887361 -0.043492932 -0.13127953 -0.11839258 -0.09922607
-0.006579054 0.052928 0.10053098 -0.12244944 0.04216064 -0.085433066 -0.06426888 0.0023266578
-0.0042698327 -0.04471135 -0.16947992 -0.08800854 -0.003704311 -0.04533085 -0.032590833 0.06415746
-0.1485925 -0.004718296 0.120858505 -0.053029645 0.14450635 0.10469054 -0.0687022 0.1099742
-0.03566238 -0.0025718398 0.10477875 -0.11125253 0.035863772 -0.022695163 0.096009776 0.033517025
0.06121139 0.057896987 -0.032763433 -0.021998515 -0.10502914 0.04583024 0.10450107 0.085711025
-0.11515872 0.008727789 -0.09366207 -0.06511514 -0.07659718 0.047889438 -0.099110045 -0.0013134852
0.015973805 0.053390827 -0.09654069 -0.10123045 -0.068019256 0.09067197 -0.05378128 0.09642354
0.047241744 0.008246695 -0.0104196705 -0.026109576 -0.0031627603 0.016109528 -0.0006027583 0.01636045
-0.059695832 -0.06915044 0.097500324 -0.09350873 -0.0043754405 0.13321628 0.056583386 0.007592495
-0.11015827 0.06939744 -0.09197298 -0.043792848 -0.04960868 -0.01760608 -0.005829288 0.08244569
0.015447849 0.10646496 0.05911416 -0.08334304 0.0452609 -0.07719847 -0.054586545 0.025058508
0.034897186 0.0656949 -0.027065787 -0.024999965 0.053507797 -0.12946789 0.05980411 -0.120394275
0.010893106 -0.025571033 -0.090688564 0.012786014 0.10352015 -0.043750513 -0.08400792 -0.05723123

net.0.bias f4 [167]
00000000: 9e35 823d a770 96bb c81a 44bc 75f4 823c
00000010: 6286 9dbd 1fd6 26bc 6bdb c33d 68b5 1c3d
00000020: e78c 1e3d 217d 99bb eda9 253c 1fdd 68bd
00000030: e803 0cbd c1fa 48bd 1f22 1abd c3d0 f7bc
00000040: 5fe2 28bc 3deb c63a 6865 fbbc ea51 b039
00000050: 59b1 eebc bf5d 16bd 83a2 09be 65a0 183e
00000060: 0fb5 f1bc b1b2 e53c c4f7 ffbd 3437 2c3d
00000070: 3ed9 5f3c 3674 a3bd c22f 063c 4f9d c7bd
00000080: 2fb9 303d c2cc 4d3c 19dd a3bc a972 183d
00000090: 1ddc b53a c1ec ad3c f89f 12be 9bef a63d
000000a0: 97ab 98bc 3dd5 b03c 3876 fd3d 1226 07be
000000b0: ed1d 80bd c575 773d 5f34 15be 72a2 a23c
000000c0: 50be eebc 5623 d1bd a7ea 1abd 6ecc c2bd
000000d0: f65b 6cbc 3492 bc3d 2294 0e3e db7c 06be
000000e0: 267b 2b3d 34df a5bd d1d4 453d 7825 ad3d
000000f0: 6929 07be 8f82 9dbd 78ff babd e14d 29bd
00000100: 8584 0f3d 2120 99bd c9ac 40bc 9750 00bd
00000110: 6744 8d3d abf9 e4bd 79d7 2cbd 1ca1 033d
00000120: 631d aebd 637d 093d 52a9 fbbd 6ca4 13bd
00000130: 8808 70bd c8c7 f9bc 0c72 80bd 356f c33d
00000140: 8343 9ebd 5be3 acbd 3a71 62bd e98f d7bd
00000150: 9f2d eebd 7dec dd3c ac5f d33d 1f86 a63b
00000160: 0836 4ebd 35b5 703d 3b57 e43d df5d b9bd
00000170: 3b80 97bd 3a9d e23d 8e85 943d 1658 c7bd
00000180: 1c2a 283d bf76 bbbd 1bc9 afbd 9084 80bd
00000190: ce3f ae3d 3141 7dbd 5f5a 9b3d 271f 96bd
000001a0: aaff 93bc 9a51 c23d a324 22bc dbb7 0cbd
000001b0: 0cd6 39bd 4cfd bbbd c290 7a3d e58b b0bd
000001c0: 4f39 b3bd 0953 c63d 25f5 ae3d a42d c5bd
000001d0: b9ee 12bb f0cc b3bc 6770 f13d 8016 abbd
000001e0: feb8 e0bd 3e34 bb3d 4f00 d83c b94e fdbc
000001f0: 35fb 1ebb 2718 803d 6a0e c3bd ab6b ba3d
00000200: 6b0b ae3d 9d59 103c 56e7 d7bd c2c5 d13d
00000210: c898 8f3d c4f4 dcbd 3670 bdbd 644f 21bc
00000220: 72c8 ecbd 48c6 22bd 17c9 563d 4d95 44bc
00000230: 71c4 5a3d 8b78 f13c ca1f c83d 0423 de3c
00000240: 45af 6f3d 51a8 4c3d 8818 87bd 083d c83d
00000250: e653 4d3d bc4c a93d 9c9c 63bd 3091 3cbd
00000260: 080e b83d b207 3abd d08f 3e3d 3c15 b23d
00000270: faa7 3c3c 541e c0bd a36c c3bd 2410 d3bd
00000280: f1b5 5ebd cc95 183d 8ce8 653b 4163 02bd
00000290: 8851 aa3c a5cc 003e c93c e43c
0.06357883 -0.004591066 -0.011969276 0.015985707 -0.07691647 -0.010182886 0.09563335 0.03825894
0.038708594 -0.004684106 0.010111314 -0.056851503 -0.034183413 -0.049067263 -0.037630197 -0.030250913
-0.010307877 0.0015176308 -0.030688003 0.00033630367 -0.0291373 -0.036710497 -0.134409 0.14904936
-0.02950528 0.028039308 -0.124984294 0.042044833 0.013662634 -0.0798115 0.008190097 -0.09746801
0.043145355 0.012561025 -0.020002889 0.037218723 0.0013874803 0.021231057 -0.14318836 0.0815117
-0.018636508 0.021586055 0.12376064 -0.13198116 -0.06255708 0.06041505 -0.14570759 0.01985285
-0.029143482 -0.10211818 -0.03782144 -0.09511648 -0.014426222 0.092075735 0.13923696 -0.13133566
0.04186549 -0.08099213 0.04829866 0.08454412 -0.1319939 -0.07690918 -0.09130758 -0.041334037
0.03503849 -0.07476831 -0.011759945 -0.031326856 0.06897812 -0.11180433 -0.04219768 0.032136068
-0.08501699 0.033566844 -0.12288155 -0.036045477 -0.058601886 -0.030490771 -0.06271753 0.095426954
-0.077277206 -0.08441802 -0.055283763 -0.105254956 -0.11629795 0.027090305 0.10320982 0.0050819064
-0.050344497 0.058766562 0.111494504 -0.090511076 -0.07397505 0.11065145 0.07252036 -0.09733598
0.041055784 -0.091535084 -0.0858328 -0.06275284 0.085082635 -0.06182975 0.07585596 -0.073301606
-0.018066246 0.094882205 -0.00989643 -0.034355026 -0.045370147 -0.09179172 0.061173208 -0.08620433
-0.08751165 0.096838064 0.08542851 -0.09627846 -0.0022420122 -0.021948308 0.11789017 -0.08353901
-0.109727845 0.09140824 0.026367335 -0.030921327 -0.0024258618 0.06254607 -0.09524234 0.09102567
0.084982716 0.008810428 -0.10542171 0.102427974 0.070115626 -0.10788873 -0.09249918 -0.009845588
-0.115616694 -0.039739877 0.052437868 -0.011998487 0.053409997 0.029476425 0.09771688 0.027116306
0.05851676 0.049965207 -0.06596476 0.09777266 0.05012884 0.08266589 -0.055569276 -0.0460369
0.08987051 -0.045417495 0.04652387 0.086954564 0.011514658 -0.09380785 -0.09542205 -0.10305813
-0.05437273 0.037252232 0.0035081236 -0.031832937 0.02079083 0.12578066 0.027861016

net.2.weight f4 [167, 167]
00000000: bea4 773d a788 ce3b ddc9 513d 09f3 263d
00000010: 21c4 483c 126e 713d e998 553d 979d ae3d
00000020: 7580 d13b 502d 20bd e9b0 be3d 97ea 65bc
00000030: a673 16ba e5ad 72bd 6307 2dbd 8180 54bc
00000040: 8303 973d 0950 43bb 3be9 04bd ba6c 453d
00000050: f935 04bd 6bf0 9a3c 1d71 55bd 1eb1 c8bc
00000060: 3ebc 123d 13e8 ae38 973b ccbd 8226 b9bc
00000070: 6139 1b3b 33ec fcbc 4e19 c8bc 5866 96bd
00000080: 7104 83bd 1783 6abd 906a 5d3d 3464 17bd
00000090: a327 183d 03b4 9fbd 9ab9 31bd 4a0a 093b
000000a0: eb7b 983d 08a3 88bd a369 70bc be49 97bd
000000b0: 735a e4bb 8c26 3c3d b5bc 863d 106a 893d
000000c0: d1a0 24bd 1f7a b1bc 806c 4f3c 94c5 933d
000000d0: ea4f 853d 3bf4 5e3d b234 31bb afe7 9abd
000000e0: e658 833a 88e8 813d 246b 88bd 2d4d 99bd
000000f0: e130 36bd 90c1 16bd 6140 863d 25b6 eb3c
00000100: 8eba 303d 75c5 6e3d ca7b e13c ec57 2aba
00000110: a6fa 77bd 1742 c0bc b64b b03c 7085 ae3d
00000120: cb1c a6bc b948 bcbc da72 02bd 3eab 1ebd
00000130: 1c0e fcbb 04ae 263b e28b 87bd e958 d53b
00000140: 93d5 15bd 7910 123d eed4 c53a 59ba 7dbd
00000150: 9271 d2bc 582a 5c3c 6f0f 8a3b 0143 373d
00000160: 0bfb e13b 70e2 1b3d a599 f73c 20b0 993d
00000170: 903d dfba e7e1 bdbd a8a4 22bd d65d e1bc
00000180: 64b2 7a3d ac3a 9c3d ded1 773c 2e42 d43c
00000190: 04d7 7cbd c115 c0bc f2d7 873b 252b 7bbd
000001a0: a9d9 92bd c0f1 eabc 6605 323d 73c7 a5bc
000001b0: c7f3 f1bc 66de 793d 194c 8fbc 3ff4 07bd
000001c0: fd79 10bc 5f10 103d d7c3 8e3c 314a 3ebd
000001d0: 2543 333d 6f4c 96bd 4e4d bd3d 101c 9dbb
000001e0: 8641 123a 614a 953d 3047 6f3d f390 c1bd
000001f0: 414c d2ba c746 df3d 5152 60bd 99e9 893d
00000200: c620 853d f9e2 0dbb 202f f93c 6270 373c
00000210: f738 353d 3a05 303d 4f27 5a3d 0ac3 6fbd
00000220: 571b 21bd ed0e 2fbd 6eae 703a 7e91 00bd
00000230: 4776 633c 02c3 8a3c ffad 14bc ab62 42bc
00000240: 58e6 39bd e1e1 98bc 95de 8bbc f460 9c3d
00000250: 5bcb 3a3d 4f5c 0e3c 5d91 5c3c 0817 ba3d
00000260: 9828 633b 90c2 893d ca89 e8bc 25a7 d23c
00000270: dff0 f43c 3ed4 7a3d c374 a9bd 4565 b7bb
00000280: a23c 7abd edcf 1dbd 964d 27bd b2ae 9cbc
00000290: dc0b 60bd f5b1 30bd 6e62 bbbd c929 9dbc
000002a0: f615 6b3d b5ad 6dbd aedb 21bd 428e 2ebc
000002b0: ed41 1bbd 581f e33b d37c 773d dc34 a9bd
000002c0: 4497 6f3d 0511 543d 7ff5 8e3d 6978 6bbd
000002d0: 3674 d13c 4ec8 893d 3681 b0bd d393 5a3d
000002e0: ee7d 7fbc 4a6a b9bd bdb5 19bd 4097 b43c
000002f0: e246 5bbc 24be c7bc 6db7 3bbc e0cf 083d
00000300: e3c5 483d 82bf 9abd dee4 05bc 1e7c 333d
00000310: caa7 8b3d d46f 3c3d 3ed6 a03d b1ea 4cbb
00000320: 74b9 f03c 2eea 77bd 4d94 3ebd 9b6a 023d
00000330: bc86 94bb b7af 973d a035 5fbd 358c 203d
00000340: 42f5 3f3d 89e6 3f3d 8a40 253d 7a6d a7bc
00000350: f601 303d 88b4 77bd 6f45 8abd 5f3c aabb
00000360: 69eb 7f3d 5bc4 33bc 53f5 7fbd 881e babd
00000370: c786 363c 7ad5 6bbc 59b5 403d 285a 78bc
00000380: 66d8 053c 1b1d b2bc 1187 a7bc 1ab5 2b3d
00000390: 4ae4 62bd 054d 31bd 0b4b 0c3d 76e0 1a3c
000003a0: 17e6 b6bc 08c5 efbc 45c0 093d 51ce 883d
000003b0: 0f8a 123d 15d4 a83c b148 5cbd da0d 58bd
000003c0: b8f9 83bd 9a58 0cbc 7ce3 15bd 854b 123d
000003d0: bb0c 66bd 2d0b 2cbc fb98 503d e2c4 4dbd
000003e0: 3427 f3bc 5e22 393d edcc 5cbd cc38 f2bc
000003f0: 4861 7f3d 8c25 31bd 03e2 913d 6e80 333d
0.060459845 0.0063029113 0.051217902 0.04075912 0.012253792 0.05894286 0.05214778 0.085261516
0.006393487 -0.039105713 0.09311087 -0.014032981 -0.0005739279 -0.05924787 -0.042243373 -0.012970091
0.07373717 -0.0029802343 -0.03244899 0.048199393 -0.032278035 0.018913468 -0.052109826 -0.024498519
0.035824053 8.340194e-05 -0.09972303 -0.02260137 0.0023685324 -0.030874347 -0.024426129 -0.07343739
-0.063973315 -0.057253923 0.054056704 -0.036960796 0.037147176 -0.077980064 -0.043389894 0.0020910674
0.074455105 -0.06671721 -0.014673623 -0.07387112 -0.00696879 0.0459352 0.06578962 0.06709683
-0.04019243 -0.021664677 0.012660146 0.072154194 0.06509383 0.054432135 -0.0027039465 -0.075637214
0.0010021001 0.0634318 -0.066610605 -0.07485423 -0.04448021 -0.03680569 0.06555248 0.028773377
0.043146662 0.05829378 0.027524848 -0.0006498087 -0.06054177 -0.023469014 0.021520477 0.08521545
-0.020277401 -0.022983896 -0.031847812 -0.038737528 -0.0076921117 0.0025433311 -0.066184774 0.006510843
-0.036580633 0.03566024 0.0015093365 -0.061945293 -0.02568892 0.01343783 0.0042132656 0.044741634
0.0068963817 0.038057745 0.03022463 0.07504296 -0.0017031897 -0.09271603 -0.03970781 -0.027510565
0.061205283 0.07628378 0.01512572 0.025910463 -0.061728492 -0.023447873 0.0041456157 -0.061320443
-0.07170422 -0.028679729 0.04346218 -0.020236706 -0.029535187 0.06100311 -0.01749234 -0.033191916
-0.008818147 0.035171863 0.017427368 -0.046457473 0.043765206 -0.07338797 0.0924326 -0.004794605
0.0005579222 0.07289577 0.0584175 -0.09451475 -0.0016044454 0.109021716 -0.054766003 0.06734008
0.06500392 -0.0021650179 0.030417979 0.011196228 0.04424378 0.042973734 0.053260144 -0.058535613
-0.039332714 -0.042738844 0.00091812655 -0.031388752 0.01388318 0.01693869 -0.009074687 -0.011864345
-0.04538569 -0.018662395 -0.017073909 0.0763568 0.04560409 0.008689 0.013462392 0.09086424
0.0034661647 0.06726563 -0.028386015 0.025714466 0.029900013 0.061237566 -0.08274224 -0.005596789
-0.06109298 -0.03852837 -0.040845476 -0.01912627 -0.05469881 -0.043138463 -0.09149633 -0.019184964
0.05739399 -0.058026988 -0.039516144 -0.010654034 -0.03790467 0.0069312267 0.060421776 -0.08262035
0.058493868 0.051774044 0.069804184 -0.05748788 0.025568109 0.06727658 -0.08618395 0.053363632
-0.015593989 -0.09053476 -0.037526835 0.022044778 -0.013383599 -0.024382658 -0.011457306 0.03340137
0.049016844 -0.075560585 -0.008172242 0.04381954 0.068191126 0.046005085 0.078533635 -0.0031267817
0.029385306 -0.060526066 -0.04652815 0.03183995 -0.004532663 0.07406562 -0.0544945 0.03919621
0.046864755 0.046850715 0.040344752 -0.020437945 0.04297062 -0.060474902 -0.06751525 -0.005195185
0.062480364 -0.010972108 -0.06248982 -0.090878546 0.011140532 -0.0143941585 0.047047947 -0.015158214
0.008169269 -0.021742394 -0.020450147 0.04192076 -0.055393495 -0.043286342 0.034251254 0.00945293
-0.022326512 -0.029268757 0.03363063 0.06679977 0.035776194 0.020608941 -0.05378026 -0.052747585
-0.064441144 -0.008566046 -0.0365939 0.035716552 -0.056164484 -0.010500711 0.050927144 -0.05023659
-0.02968178 0.04519879 -0.05390637 -0.029568098 0.062348634 -0.043248698 0.071231864 0.043823652

net.2.bias f4 [167]
00000000: 9f97 74bd 398b c53b e2eb 5cbd d0e8 8fbd
00000010: c0d3 acbb 427c 90bc d837 153c 0382 c83c
00000020: d392 7abd 85c0 463d 03d7 ca3a 1668 43bb
00000030: e6d3 16bd 61a2 203a d451 5f3c 7848 d53c
00000040: ce77 4f3d 4d7b aa3c 7199 1abc 4cb6 60bd
00000050: 3c14 99ba ead8 d0bc f7d9 453c b9a1 fabc
00000060: fcf3 f43b 3357 bb3b 62d5 97bb d2a5 583c
00000070: 81b8 953c bf61 6f3a a2ca 9ebb 9575 a13a
00000080: 2e32 ac3c 890f c13b 34b6 8cbd 8464 af3b
00000090: d013 b33c d2f5 333d bdf4 36bb 9f29 5f3d
000000a0: 9de1 4fbc 1c91 87bc 3056 b73c d9b0 273d
000000b0: 600e 583d e643 363d f66a f4ba 2eee 03bc
000000c0: b39e 88bb 0442 bebc 4373 f03c 3a95 843d
000000d0: c036 a43c abcb 883c 970c f2bc 0fef cebc
000000e0: 259c 95bc 997e ea3c 8e6b 2bbc bfd6 d9bb
000000f0: 77ac 55bd f72f 263c 0fef 34bc cc4d 75bd
00000100: e8ac 863c d721 0a3d e6ca 8b3b 8c68 00bd
00000110: 9ea8 2dbd 418b 98bc d755 babc a719 01bd
00000120: 57a6 98bd 04dd 4ebd 3253 443d 4bd5 353c
00000130: 145c 02bd 585f 36bb 81fa a5bd 26c7 aa3c
00000140: bda8 e8bc 8bac 8b3c 414a bd3c 1337 aebb
00000150: d1f1 71bd 3136 2dbd ed11 663b 06ea 0b3d
00000160: 5410 5a3c 3dd2 40bd 10f0 22bd 0e15 033c
00000170: 96aa c5bc a630 32bc c59d e9bc 5049 023d
00000180: 0ef0 bf3c 4a6b ad3c 71da 42bd 8018 f0bb
00000190: 629b d5bb efa1 3abc d2c3 9c39 68ea 88bd
000001a0: 339e 9fbc cc28 0dbd 52fa 883c 66c9 683c
000001b0: 046b 1ebd 5cae 6ebb 17b5 3c3c cadb 033c
000001c0: 2e9c 62bd 8b0b 033d bb47 9e3c 0b32 053d
000001d0: 17bd 96bd 05a2 003d a93e 883d d9a3 a03c
000001e0: d21c a4bc 93ca 0dbd ecad 99bc 3599 cfbc
000001f0: 5155 2fbd 7c93 ccbc e2c9 5bbc c5f4 c6bc
00000200: 858b b93c 1acf a93c bd25 03bc 3e5b d03c
00000210: bf29 08bb 5526 6ebc b563 603c af97 72bc
00000220: 2846 e63c a872 3c3b 6678 153d 95ce 2a3c
00000230: 1078 a2bb bff4 ce3a 7a57 75bd 1bb8 81bd
00000240: f302 093d 01c9 b2bc 4720 b3bc 6455 55bd
00000250: 3e2b 16bd f2df 8b3c 12df fabd 50dc 9cbc
00000260: cae4 43bd 0b94 e73b 4759 64bc f164 84bc
00000270: 3957 63bc 2843 bc3c 9a7d e33c ea13 3039
00000280: e052 b83c 9d6d fcbc 3cbd fa3c a143 b93c
00000290: 76fa 70bd 65bb 2abd 0269 4cbd
-0.05971491 0.0060285595 -0.053935893 -0.07026827 -0.005274266 -0.017637376 0.0091075525 0.024476057
-0.06117518 0.048523445 0.0015475455 -0.0029816679 -0.036823176 0.0006127712 0.013630349 0.026035532
0.050651364 0.020810748 -0.009435997 -0.05486135 -0.0011679004 -0.025494058 0.012075893 -0.030594693
0.0074753743 0.005717182 -0.0046335915 0.013223128 0.018276455 0.0009131692 -0.004845933 0.0012318367
0.021020021 0.0058917445 -0.0687069 0.0053525586 0.021860033 0.043935604 -0.0027916871 0.054483052
-0.012688068 -0.016548686 0.022379965 0.04094014 0.052748084 0.044498347 -0.00186476 -0.008052392
-0.004169309 -0.023224838 0.029351836 0.06473775 0.020045638 0.016698679 -0.029547019 -0.025260476
-0.018262932 0.02862482 -0.010462655 -0.006647914 -0.05216643 0.010143272 -0.011043324 -0.059888646
0.01643987 0.03372368 0.0042661307 -0.031349704 -0.042397134 -0.018621089 -0.02274601 -0.031518605
-0.07453602 -0.050503746 0.047930904 0.011098216 -0.031826094 -0.0027827825 -0.081044205 0.020846914
-0.028400773 0.017050048 0.023106696 -0.005316624 -0.059068505 -0.04228801 0.00351059 0.03415873
0.013309557 -0.0470755 -0.039779723 0.008000625 -0.024129193 -0.0108758565 -0.028517613 0.031808197
0.023429897 0.021169323 -0.047571603 -0.0073271394 -0.006518767 -0.011391147 0.00029900536 -0.066853344
-0.019484615 -0.034462735 0.016720925 0.014208173 -0.038676277 -0.0036419844 0.011517785 0.008048007
-0.055324726 0.03199343 0.019321313 0.032518428 -0.07360285 0.031404514 0.066525765 0.019609379
-0.020033274 -0.034617018 -0.01875969 -0.02534161 -0.042805973 -0.02497267 -0.013414832 -0.024286637
0.022649536 0.020728637 -0.008004603 0.025434133 -0.0020776836 -0.014535506 0.013695647 -0.014806672
0.028109625 0.0028754864 0.036491774 0.01042523 -0.00495816 0.0015789493 -0.059897877 -0.063339435
0.03345008 -0.021824362 -0.021865977 -0.052083388 -0.036662333 0.017074559 -0.122495785 -0.019148022
-0.047825612 0.0070672086 -0.013937301 -0.016161414 -0.013875776 0.022981241 0.027769852 0.00016792087
0.022500455 -0.030813986 0.030607812 0.022615256 -0.05883261 -0.04168262 -0.04990483

net.4.weight f4 [60, 167]
00000000: a779 233d 3f27 8b3d aa70 ea3c 2bf6 febc
00000010: 7abe 11be bb52 2f3d d96c 62bc 256f a43d
00000020: 3591 37bd a3d5 69bd 2065 babd d7ae ddbd
00000030: d974 26bd 504d 373d 258e 40bd f187 6bbc
00000040: c842 06bd 2628 fbb9 e329 063b 9ff7 713d
00000050: 5094 87bc 55e6 9e3c 9e2a 9bbd e2b8 3b3d
00000060: 54b1 283d 3b82 993c 9f05 ae3d 2856 063d
00000070: df58 0e3d 7ce7 903d 3965 98bc abcf 7abc
00000080: 31cc e53c ef25 76bd 26f6 30bd 9b36 4e3c
00000090: a933 5f3c 6a3c 623d d84a 163b 9ffb 9b3c
000000a0: 9782 39bd 3cb3 e13c 9a1a 03bc 3853 c93d
000000b0: 15ad b63d 5b43 afbc e2b2 85bb 819f 723d
000000c0: fa9e c33c 9678 f0bb 5d70 10bd 3c43 aabb
000000d0: 9cbe c63c ac38 41bd 3a7c b73c 8bd8 09be
000000e0: 35d2 963d 324c 21be 6646 413b c289 683d
000000f0: d1d0 98ba d36f 803d 4c9c 393d 808f 283c
00000100: 000b 4ebd 39de d1bc 73de 3fbd b56f 79bc
00000110: 710b 36bd ed08 a9bd ad5b 5b3c 85b5 c03d
00000120: 9e2d bdbc dfa6 b0bc 573a c4bd 62ef 86bc
00000130: 39e7 c138 69b7 363d 1fac a6bc 86d4 8a3c
00000140: d0ce e03c 73b9 7ebd 1b8e a63d a7b4 75bd
00000150: 1249 1cbd 483b 7a3d b242 fd3b ddba f43b
00000160: a786 2e3c c619 223d 55d5 433d 8d02 ed3b
00000170: 773e b8bd 8643 45bd 5edc 73bd a3e8 e3bc
00000180: bf39 a93d 0d97 763d cfd1 d73d 5c3f 703d
00000190: 607f db3c 73f2 95bd 43c7 593d 78d9 aa3d
000001a0: ba72 7ebd b27c ffbb ddb1 783d 5001 b8bd
000001b0: d1a3 b63d 0882 833d a4c7 a0bc a0db e4bc
000001c0: 6091 f7bc d012 11be 8e9b 523d 4445 09bc
000001d0: 4dd4 eb3c cb0a 133d 9e1a a6b9 4a12 3c3a
000001e0: 91bf e3bc 335d bd3b b058 7d3d 3206 01bd
000001f0: 78a9 8d3c 90a7 d0bd c952 963d 4254 803d
00000200: 8603 ed3d bc05 443d d68a d73b d97d 8b3b
00000210: ac10 94bd a6f9 763b 8b5d 9abc d158 e23c
00000220: eae9 adba 3059 e6b9 0b4c 61bc fb0b 933c
00000230: 5610 59bd 4f51 2a3d 7c08 393d eab8 bbbd
00000240: 3c0d 47bd bfbc 5e3d b370 0dbd b2f1 033d
00000250: 9252 3d3d 643e a6bc 8c57 123d bb85 30bd
00000260: ec90 343d 3355 c0bd 4945 e5bc 7b72 9bbd
00000270: 9ddc 9ebc 07a1 9a3b 4445 b5bd fa93 823c
00000280: fa0f fcbd 0c74 813d 4fd2 96bd 80dc 83bd
00000290: f5cc 613d cab6 e33b 98f4 97bd b14a c3bd
000002a0: 1bb1 a83d 932b 2f3e 0634 363e a716 7ebd
000002b0: c9b4 aabd 309c bbbd 9efe 19be aa9c b1bd
000002c0: a255 04be 6dc7 f43d 5d29 513e b32c 1f3e
000002d0: 5fce 393e 5cb7 163e 9db6 c8bd 8ec4 85bd
000002e0: ee65 17be f0a4 8f3d d9ba f03d 4851 18be
000002f0: 533f 043e a32d 4fbe 391f 4fbd 6fd2 a9bd
00000300: c4b0 05be 2d3b d8bd b95e ce3d e8a3 e83d
00000310: 9eed 2a3e f64a 1b3e 0b92 0ebe 11c4 8cbd
00000320: 51c0 21be 7f77 f8bd 2708 1abe 3451 3c3e
00000330: c877 23be 118c e3bd e1ac ec3d adc4 b0bd
00000340: d04d 6ebd 6aa2 af3d bb56 35be 1f78 de3d
00000350: fa86 f0bd 56f0 67bd e94d 0dbe 6d3c ef3d
00000360: 1e2c 06be 676e 0f3e 3f35 84bd bd4e 303e
00000370: a6be b63d c760 ebbd 99c2 37be 13c6 363e
00000380: 8f01 e33d d3ae 67bd 9856 22be 165d 8ebd
00000390: 6ab2 7a3d 4512 34be 78ff 1c3e 4f9c d5bd
000003a0: 4838 13be e34b db3d ba7c b03d fe68 fd3d
000003b0: 65bf 233e dce7 c83d 3bab c7bd b0af ddbd
000003c0: 15d1 06be 5f13 423e 7597 34be 2c0c 25be
000003d0: 460a 0a3e 4d6a 0dbe cfd9 3dbe af4c 1a3e
000003e0: 98b0 24be 8b29 46be 5009 90bd 208f 52bd
000003f0: 780c 15be 8b8a 24be 42f4 cf3d e0f9 d7bd
0.03991094 0.06794595 0.028618176 -0.031123241 -0.14232817 0.042803507 -0.013819897 0.08029012
-0.044816215 -0.057088505 -0.09101319 -0.10824364 -0.04063878 0.044751465 -0.04701056 -0.014375673
-0.03277853 -0.00047904364 0.0020471744 0.05907404 -0.016550213 0.01939694 -0.07576488 0.045830615
0.04118474 0.018738857 0.08497166 0.03279701 0.034752723 0.07075402 -0.018602954 -0.015308301
0.028051468 -0.06009477 -0.043203495 0.012586261 0.013623157 0.055233397 0.0022932794 0.01904088
-0.045290556 0.027551286 -0.008001948 0.09830326 0.089197315 -0.021394422 -0.0040801624 0.059234146
0.023879517 -0.0073385937 -0.035263408 -0.0051960032 0.024260812 -0.047173187 0.022398103 -0.13461511
0.073643126 -0.15751722 0.0029491424 0.056772 -0.0011658912 0.06271329 0.045315072 0.010288119
-0.05030346 -0.02561866 -0.046843003 -0.015224387 -0.044444505 -0.082536556 0.013388556 0.09409622
-0.023093041 -0.021563945 -0.0958144 -0.016471568 9.246026e-05 0.044608507 -0.020345746 0.016947042
0.027442366 -0.062188577 0.08132573 -0.059986737 -0.038155623 0.06109169 0.007728898 0.007468565
0.010652221 0.03957536 0.04781087 0.00723297 -0.08996289 -0.0481601 -0.05953633 -0.02782089
0.08262967 0.060202647 0.10538065 0.058654174 0.026794136 -0.07321634 0.053168546 0.0834226
-0.06212113 -0.0077968473 0.0607165 -0.08984625 0.08917964 0.06421286 -0.019626446 -0.027936757
-0.030220687 -0.14167333 0.05141788 -0.008378331 0.028787756 0.035898965 -0.0003168182 0.0007174356
-0.027801307 0.0057789325 0.061852157 -0.03150005 0.017292723 -0.1018821 0.07340009 0.06266071
0.11572938 0.04785703 0.00657783 0.0042569456 -0.072297424 0.0037685423 -0.018843433 0.027630242
-0.0013268564 -0.00043935468 -0.01375104 0.017950049 -0.052994095 0.04158145 0.045174107 -0.09166129
-0.048596606 0.05437922 -0.034531306 0.03221292 0.046221323 -0.020293422 0.035728022 -0.043096285
0.04408352 -0.093912505 -0.02798714 -0.07590195 -0.019392306 0.004718903 -0.08851102 0.015939701
-0.12307735 0.06320962 -0.07364332 -0.064385414 0.055127103 0.0069492804 -0.074196994 -0.09535731
0.08236905 0.17106466 0.17793283 -0.06203332 -0.08335263 -0.0916065 -0.15038535 -0.086724594
-0.12923291 0.119521 0.20425935 0.15544395 0.1814513 0.14718384 -0.09800456 -0.065316305
-0.14784977 0.07013881 0.11754388 -0.14874756 0.12914781 -0.20232253 -0.050566886 -0.0829209
-0.13055712 -0.10558162 0.10076661 0.11359388 0.16692206 0.15165314 -0.13922898 -0.06873334
-0.15796019 -0.12132167 -0.15042172 0.18390352 -0.15963662 -0.111107 0.115564115 -0.08631263
-0.058179677 0.085759 -0.17708866 0.10862755 -0.11744495 -0.056625687 -0.13799252 0.11681447
-0.13102767 0.14006959 -0.064554684 0.17217536 0.08923082 -0.11493068 -0.17945327 0.17848997
0.11084282 -0.05656321 -0.15853345 -0.069513485 0.061205305 -0.17585094 0.15331829 -0.10430204
-0.14376938 0.107078336 0.0861754 0.12373541 0.1599098 0.09809849 -0.097494565 -0.10824525
-0.13165696 0.18952702 -0.17635901 -0.16117924 0.13480482 -0.13810082 -0.18540119 0.15068315
-0.1608299 -0.19351785 -0.07033026 -0.051406026 -0.14555538 -0.16068475 0.1015401 -0.10545707

net.4.bias f4 [60]
00000000: 7975 2a3d 27ab 553e 171d f5bb c622 0d3d
00000010: 2a9e 3e3e 0717 2cbc 8eb2 1d3d a5c5 503e
00000020: ff9e 16bc 4357 173d cab1 453e 636b 2fbc
00000030: 1997 213d f944 4e3e 7d61 4dbc 1d02 1a3d
00000040: 6751 483e c751 57bc f650 283d ba83 493e
00000050: 16b5 96bc db0e 123d 4e63 593e d852 9fbc
00000060: 2264 0b3d 04be 553e 7b91 e4bb ec9d 253d
00000070: 3398 453e 8f2a 2dbc 2053 273d 197f 4f3e
00000080: 3499 aabb fac0 243d e723 573e c57a 23bc
00000090: c538 053d e5e1 4f3e ced4 71bb 88fa 2a3d
000000a0: 6333 4f3e ee37 2bbc 0f78 263d 59d0 4f3e
000000b0: 2a55 25bc d930 f43c c6f7 4e3e ddcc 56bc
000000c0: 1f96 2d3d 414b 593e b617 47bc 6808 0b3d
000000d0: 3902 543e ed9a 94bc 80c8 223d f0b6 453e
000000e0: 0dbf 19bc 9bbf 2c3d ba92 533e 63bd a2bc
0.041615937 0.2086607 -0.0074802744 0.03445699 0.18615022 -0.010503537 0.03850036 0.20387895
-0.009193181 0.036948454 0.19306102 -0.010706755 0.03945074 0.20143498 -0.01253545 0.03759967
0.19562303 -0.013142056 0.041092835 0.19679156 -0.018396895 0.0356587 0.21229288 -0.019448683
0.03403104 0.20873266 -0.0069753504 0.04043381 0.1929634 -0.010569229 0.04085076 0.20263328
-0.0052062515 0.0402231 0.2100979 -0.009978001 0.032524843 0.20301016 -0.0036900523 0.04174283
0.20234446 -0.010450346 0.04064184 0.20294322 -0.0100911055 0.029808449 0.20211706 -0.013110367
0.042379495 0.21220113 -0.012151649 0.033943564 0.20703973 -0.01814028 0.039741993 0.19308066
-0.009383929 0.042174917 0.2066144 -0.019865697

net.0.weight f4 [167, 60]
00000000: 9a60 a1bd da25 cebd 1d9f 3ebc 1a10 fa3c
00000010: 64b4 bf3d eb24 95bd 65ee d53c d397 3abd
00000020: b2f5 a33d 6b9b 54bd e989 433b d9fb 023e
00000030: d918 79bd 1140 813d 1805 e7bd 8311 0f3d
00000040: c5d7 0e3d d1c0 babd c5f5 b73d f7db c33d
00000050: ade2 ecbd 7268 9f3c cdd9 c43d 7988 beb9
00000060: 5145 e23d 585b e0bd b745 e13d 5320 adbd
00000070: 77cf cdbd a5d7 cfbd 8249 6b3d a4a8 e8bd
00000080: 45dc 93bd ca78 96bd 1fed f2bd 489f cc3d
00000090: 769f 6abd 84b2 913c 8e59 963d e527 9f3d
000000a0: 68f6 39bd 03d7 a6bd 11cb 73bd 5cb3 c83c
000000b0: adaa d83d 1351 36bd c1ba 12bd e977 993c
000000c0: 3974 133d d4bf 013e 9d2a d23c da50 8ebc
000000d0: 0111 20bd fb36 883c 458b 4abd 27f5 e1bc
000000e0: a73d 523d dbfe de3d 6cc0 013e d05e 053c
000000f0: f9c0 71bb 0cff f8bd 948b e7bc 01e1 503d
00000100: c1ec 6bbd f2be 893d 0d2e 423b bd1d 63bd
00000110: ba6b 253e 8c03 bcbc 9b46 b2bd e5bb b33d
00000120: 8fe7 17bc 45bd d03d 8bff a8bd 3b11 af3c
00000130: 2d4e 113d af8b b2bd 468f babd 4fce 263d
00000140: b0ff aabc a5d3 c6bd bc60 a33d 0402 9d3d
00000150: 3712 9ebc 9469 953d 9e39 a23d a0d8 183d
00000160: 5719 b5bd 36cc 383d 92b7 3dbd 5ac1 b3bd
00000170: c136 54bd 5cd1 893d b015 ce3c 701e 5c3d
00000180: d236 b43d 25cd 113d 3bc0 a1bd 9d1c b23c
00000190: 9ab8 3a3d 8f6f 44bd 7b8e 89bd 0692 d93d
000001a0: fde1 92bd b8a4 fb3d 3029 6cbd 3083 afbd
000001b0: 078b 66bd 6f27 82bb 86b7 62bd 6b8b 88bd
000001c0: aa0e e23d 17bf a2bd cb68 d0bb a9f8 813b
000001d0: 9d06 1abd 1a9d 0f3d e7b0 abbd 6321 f83d
000001e0: b60e 26bd 86f4 e7bd 8a7f bc3d 716c 01bd
000001f0: aa2f 3f3d b42f bbbd f803 1a3c a4ed e3bd
00000200: 64e5 8fbd b195 f13c 2c82 5bbd eba7 813c
00000210: 94b7 d4bd 764f 30bb 0c0b aebd 3038 f43d
00000220: e8dc d4bd ce30 6fbd 546d 58bc cd76 ca3d
00000230: 66fa e5bd 0d02 03bd d405 0cbd 9fc7 063e
00000240: 2cf6 6fbd bd31 ecbd d140 9ebd db0f ec3d
00000250: a47a 113d d20d 87bd 99e4 d3bd 3c97 adbd
00000260: 838c ef3d 7c9a 523d 3cd8 5abd 9780 113d
00000270: fa7c b93d 34b7 c3bd e6df 373d 9fea 91bd
00000280: eb29 bcbd aa74 c7bc 588d c6bd 7148 6dbd
00000290: 0127 64bd 4e45 19bc bc81 903d 5f29 133e
000002a0: 4284 d33d 3733 16bd f5aa 39bd f82e 02bd
000002b0: acff 25bc d74d 0d3e 7ff9 e537 6e64 893d
000002c0: 1ae6 0c3e ac13 66bd 4d2e c8bd 3a48 30bd
000002d0: a1f2 b83d 22f8 d43d 1e79 03be 5536 d6bd
000002e0: 01a5 7fbd 7b2b f53d 6ae0 7cbd f21c 723c
000002f0: 23e1 86bd 3edb 683d 8567 b9bd 31c9 b3bd
00000300: ff9a 89bd 0d6a c13d e9a3 cb3d 7508 dc3c
00000310: 35c2 72bd e303 b8bd 2724 813b 489f 683b
00000320: 65f6 eabd c984 d4bd bb9b 803d 43aa dd3d
00000330: f947 e03d 0400 17be 3f91 5abd 42a3 923c
00000340: eedf 0fbe 23e7 4e3d 93fc 5abd c131 75bd
00000350: 28bc 013e 93d5 b1bd ca0a 91bd eaf4 733d
00000360: eea4 293d 1181 8cbd b79c a1bd fd14 e4bd
00000370: cffc 623d 1e1e 4d3a 6961 113e 5b76 b3bd
00000380: 72e5 eb3d 2bf3 393c 502c ecbd bdba 8dbd
00000390: 24a0 663d 7c5b fabc e58f 2bbd 35b7 dfbd
000003a0: d9fc 89bd 90c5 d23d f31c acbd a3d1 383d
000003b0: 4cd4 bebd a7b8 0f3c 3bfd 253c 1614 9bbc
000003c0: 4c1f bcbc a798 97bd 502d 003e 6543 72bd
000003d0: 57de 8d3d 08c1 c1bc 083b 53bd 1345 93bc
000003e0: 8fa6 703d 64a8 d33b 28e0 4eba b2b8 babc
000003f0: 0b48 f63d 67e4 21bd a87e 383c 5187 ffbd
-0.078797534 -0.10065813 -0.011634615 0.030525256 0.09360579 -0.07282432 0.026114652 -0.045554947
0.08005847 -0.05190603 0.002983684 0.12791385 -0.060814712 0.06311048 -0.112802684 0.03492881
0.034873743 -0.09118808 0.08982424 0.09563439 -0.115666725 0.019458983 0.09611855 -0.00036341304
0.11048377 -0.109549224 0.10999625 -0.08453431 -0.100493364 -0.10148553 0.05744315 -0.11360291
-0.072197475 -0.073472574 -0.118616335 0.09991318 -0.05728098 0.017785318 0.073413 0.07771281
-0.045401007 -0.08146479 -0.05951983 0.024499588 0.10579429 -0.044510912 -0.035822634 0.018733935
0.03599951 0.12670833 0.025655085 -0.017372537 -0.039078716 0.01662778 -0.049449224 -0.027582718
0.051328328 0.108884536 0.1267106 0.008140281 -0.0036888702 -0.12158021 -0.028264798 0.05099583
-0.057598833 0.06725873 0.00296295 -0.055448283 0.16154376 -0.02295091 -0.08704873 0.087760724
-0.009271516 0.1019235 -0.08251866 0.02137052 0.035474945 -0.08718049 -0.091093585 0.040724095
-0.020873874 -0.09708337 0.07977435 0.076664 -0.019295795 0.07295528 0.07921146 0.037315965
-0.08842724 0.045116626 -0.046317644 -0.08777113 -0.05181003 0.06729385 0.025156826 0.053739965
0.08799519 0.03559603 -0.07897993 0.02174216 0.045586206 -0.047957953 -0.06716629 0.10623555
-0.0717201 0.12287277 -0.057656467 -0.08569944 -0.05628493 -0.003971986 -0.055350803 -0.06667217
0.11037953 -0.07946604 -0.0063601485 0.00396641 -0.037603963 0.035061933 -0.08383351 0.12115743
-0.040541373 -0.11325936 0.09204014 -0.03159756 0.046676315 -0.09139958 0.00940036 -0.11129311
-0.07026175 0.029490324 -0.05359094 0.01582714 -0.10386577 -0.002690283 -0.08498201 0.119247794
-0.10393697 -0.058396153 -0.01320966 0.09885941 -0.112294 -0.031984378 -0.034185246 0.13162087
-0.058584377 -0.11532924 -0.077272065 0.11526462 0.03551735 -0.06594433 -0.10346336 -0.08476111
0.11696722 0.05141686 -0.053428873 0.035523023 0.090570405 -0.095564276 0.04489126 -0.071248285
-0.09187683 -0.024347622 -0.09694928 -0.057930414 -0.05570126 -0.009354902 0.07055995 0.1437125
0.103279606 -0.036669936 -0.045329053 -0.031783074 -0.010131758 0.13799225 2.7415108e-05 0.067086086
0.13759652 -0.056171104 -0.09774456 -0.04303763 0.09030653 0.1039889 -0.12839171 -0.10459582
-0.06241322 0.11971184 -0.061737455 0.014777409 -0.0658591 0.05684971 -0.09052948 -0.087786086
-0.06719016 0.09444056 0.09943373 0.026859501 -0.05926724 -0.08985116 0.0039410773 0.003549533
-0.11472777 -0.10376889 0.06279703 0.108234905 0.10951228 -0.147461 -0.053361174 0.017900113
-0.14050266 0.050513398 -0.05346353 -0.059861902 0.12669432 -0.08683314 -0.07082136 0.05955974
0.041417055 -0.06860555 -0.07891219 -0.11136816 0.05541688 0.0007824617 0.14197315 -0.08762809
0.115183726 0.01134948 -0.115318894 -0.06920383 0.056305066 -0.030561201 -0.041885275 -0.10923616
-0.0673768 0.10291588 -0.08403959 0.0451218 -0.09317836 0.008772052 0.010131176 -0.018930476
-0.022964142 -0.07402163 0.12517285 -0.059146304 0.069271736 -0.023651615 -0.05156997 -0.017977273
0.058752593 0.0064592827 -0.0007891678 -0.022793148 0.1202546 -0.039524462 0.011260666 -0.124769814

net.0.bias f4 [167]
00000000: 9d7f c1bd 5a1f f839 cd17 953c 7883 84bd
00000010: 6fb6 ebbc 3538 053d 7218 48bd 59ce db3d
00000020: e125 4bbd e408 cabd ffa1 c73d 42e4 e83d
00000030: e099 6ebd a65e 073e 9cfb a13d 39ca cebc
00000040: 718a 4739 e8e0 2d3e 5878 863c 6a03 3ebd
00000050: c9fd f1bd ecc7 8ebd 62a0 ecbd 366e 9ebd
00000060: 9407 e23d 6d0b c83d 230d 7abd 7ac1 993d
00000070: 117c fd3b 9644 e6bd e35d 23bd a395 a13c
00000080: 4ec7 0a3c ae45 6cbd 97ad 67bd 1527 86bd
00000090: aab0 973c aacf 693a 19ce d53b b217 193b
000000a0: f4b6 f9bc ed98 ef3d 8988 9c3d 6d3e 693c
000000b0: ef26 e1bd d485 273c a760 333e cfca 7ebd
000000c0: e700 9fbb 84e2 f7bb b414 8c3d 3c1c dcbc
000000d0: bebb 27be fb7f 17bd 737b fcbd 8bef 54bd
000000e0: 67d3 bc3d 9888 9cbd 4d38 863d 7dc2 803c
000000f0: 320f 823d 349c d5bd e142 cd3c c413 0b3e
00000100: f3c9 053e 9104 2b3d fac1 b9bd fe89 fc3b
00000110: 04f0 a43d fc4d f6bd 8189 b3bc 64af ad3d
00000120: 73e0 e63d b6e7 d73d b76f a6bd cbdb 41bd
00000130: b4f2 9b3d d38f 193e 6586 173d d3e5 7aba
00000140: ad7f 293d 2038 38bd 1a7a 04be 9079 a0bc
00000150: c54c 553d 7f82 fe3d c4f3 663b 2e32 0cbd
00000160: a39e e8bd 23f9 083e 9064 0e3d c97f 96bd
00000170: 34a0 c63d 12a8 f5bd 2fd0 e8bd 8f70 89bd
00000180: 901a a8bc bcff 5abd 1daa 873c ef50 183d
00000190: 5b85 f8bd a3f2 113d f450 813d 8b9c 1dbc
000001a0: 71b5 34bc 3c33 9a3d dd70 3f3d 2a52 5dbd
000001b0: 9af9 713b 166d ebbc b3bd e0bd 873e 483d
000001c0: 95ff 6c3d 2269 62bd 461d 123e 8d18 ed3d
000001d0: 742c d83d b2f8 40bd 4265 8c3c 18d3 a73d
000001e0: 212d 84bd f038 a73d 9346 0d3c c9cc 31bd
000001f0: 917c 923d 9703 dbbd 1135 9abd d491 723d
00000200: e08a 45bc a33c 91bd 01c1 333d 09a1 cbbd
00000210: 64f0 0fbe 8423 10bd baef 1dbd a152 82bd
00000220: 9503 9cbd afc9 7d3d 580c d9bc ae84 79bd
00000230: cd0b 593d 0767 efbd e7ef e13d f142 d73d
00000240: c9fc 0d3d ff32 1ebe 7c41 e83d dd1e c2bc
00000250: 05cd 833d f553 09be 7b41 ebbd a241 833d
00000260: b6a7 023e 2b50 43bd 4199 323d 69d5 eebd
00000270: bc76 43bc 5d84 f1bb f2a8 cf3d 783c 093d
00000280: 35ee 453d a600 a8bc f748 81bd 58f7 1bbc
00000290: e8eb 1b3d 01ab f73d de9d 043c
-0.094481684 0.00047325605 0.018199826 -0.06470388 -0.028773515 0.032524306 -0.048851438 0.10732717
-0.04959667 -0.09864977 0.09747695 0.11371662 -0.058252215 0.132197 0.07909319 -0.025242912
0.00019029692 0.16980326 0.016414806 -0.046389975 -0.11815984 -0.06971726 -0.11554028 -0.07735865
0.11036602 0.09767804 -0.061047684 0.07507606 0.007735737 -0.112435505 -0.03988446 0.019724673
0.0084703695 -0.05768364 -0.056562033 -0.06550423 0.018516857 0.0008919189 0.006524813 0.002336007
-0.030482747 0.1169909 0.076432295 0.014236075 -0.10993754 0.010224778 0.17517339 -0.062205132
-0.0048524025 -0.0075648446 0.06839886 -0.026868932 -0.16380212 -0.036987286 -0.123282336 -0.05198626
0.09220009 -0.07643241 0.06553707 0.01571774 0.063505545 -0.10430184 0.025056304 0.13581759
0.13065319 0.0417524 -0.09070201 0.0077068796 0.08053592 -0.12026593 -0.021916153 0.08480719
0.11273279 0.10542242 -0.08126777 -0.04732875 0.07614651 0.14996271 0.036993403 -0.00095709896
0.041381527 -0.0449754 -0.12937203 -0.019589216 0.052075166 0.12427234 0.003524051 -0.034227543
-0.113583826 0.13376288 0.034763873 -0.07348592 0.09698525 -0.119949475 -0.11367833 -0.06710922
-0.020520478 -0.053466544 0.016560609 0.03718656 -0.121348105 0.035631787 0.06314269 -0.009619842
-0.011029587 0.075293034 0.046738494 -0.054033436 0.0036922456 -0.02873854 -0.10973682 0.048887756
0.05786093 -0.055276044 0.1426898 0.11576948 0.10555354 -0.047112174 0.017138127 0.0819456
-0.0645392 0.08165157 0.008622783 -0.04340819 0.071526654 -0.10694044 -0.07529653 0.059221104
-0.012057036 -0.07091644 0.043885235 -0.099428244 -0.14056545 -0.03519012 -0.0385587 -0.063634165
-0.07617871 0.06195992 -0.026495144 -0.06091755 0.05298977 -0.11689573 0.11032086 0.10510815
0.034664903 -0.15449141 0.11340615 -0.023696357 0.06435589 -0.13410933 -0.11487099 0.06409003
0.12759289 -0.047683876 0.043603186 -0.116617985 -0.011930164 -0.0073705153 0.10139646 0.033504933
0.048322875 -0.020508122 -0.06312745 -0.009519421 0.038066775 0.12093163 0.008094279

net.2.weight f4 [167, 167]
00000000: 4a5f cfbc 215a fc3c c970 71bd bd31 79bd
00000010: e59a 183d 4e45 21bc d946 50bd a95e 8f3d
00000020: 0e37 c73d 7fa4 9f3d 9964 27bd 8cd3 9abd
00000030: a804 ccb9 b813 943d 3eb3 68bd 28fd 803d
00000040: 4900 1bba cf3d 2c3c 834e 3fbd d28a 9f3c
00000050: fc5c 143c 3159 e3bc 318b ea3c 31f0 0f3c
00000060: 3444 393d fe82 3ebd 33e7 623d 7701 883d
00000070: 1d9a 8d3d 259d cabc 16f8 963d 6efc e6bc
00000080: cc2e 3b3d 6896 1e3d 6d20 363d 2cac 50bd
00000090: 6bcb 85bc 00fc cb3c 7d97 19bd b222 83bc
000000a0: 7019 273d 15c5 86bd b73c 083c 25e4 463d
000000b0: 43ca 92bd 157e 30bd c921 0dbd 64f3 d0bc
000000c0: 9fd8 a83d 0a20 43bd c1ec 28bd 37c9 1e3d
000000d0: aaaf 9b3c 4de7 20bd 21d4 05bc 85e6 32bd
000000e0: 8936 8c3d b6f7 bcbc 2782 71bd 65f5 85bd
000000f0: 97a5 f0bb 03f5 97bd 1093 213c 5a3c 5f3d
00000100: 2375 043d 461e 30bc a3ab 503c 1867 4b3d
00000110: 0b31 b23d fca0 a53c 1768 89bc 24d0 9d3d
00000120: 7871 a7ba 96d3 d1bc 51cb 15bd b8c3 d93b
00000130: e0d4 80bd 9a5d 1b3d 4067 3bbd 45a1 20bd
00000140: ae8f 643d e649 60bc 4523 76bd 4fa5 16bd
00000150: b778 173b 792d aabc 8a10 17bd fba4 31bd
00000160: e127 b9bc 2bd7 74bd f6fd 96bc d5c8 8b3d
00000170: e1e3 cebc f839 583d 2218 153d 14fb 62bd
00000180: 3889 f5bc b46f f03c 7719 e13c 07f2 8c3d
00000190: c354 75bd 5eb1 a3bc 7004 c23c b67b 993d
000001a0: 0889 ddbc 87ff c33c 241b 8fbd 38f9 32bd
000001b0: 0f5c 87bd f1c6 123d 7605 46bb 40e1 9b3d
000001c0: 57dd 8b3d 02ac 7b3d f272 c8ba 28e2 4e3d
000001d0: 5918 853b bac3 783d bbde 1c3d d13a debc
000001e0: f440 2bbd 688c 5f3d 3655 a3bd 624e 74bd
000001f0: 16fd e5bc 60cc 3a39 6b33 de3b 8cfd 19bd
00000200: 527b 6fbd af18 a03d a6f1 5b3d d4d1 863c
00000210: e488 0dbd 31c5 2a3d 7b14 b83c 2dc2 2ebd
00000220: 7cac 833d 70e6 a4bd 540a 42bd 2e43 30bd
00000230: a309 eb3c ec70 b1bc cbe3 1f3d 49c5 7ebc
00000240: f828 a6bd d51d 213c 10dd 7fbd fe59 033c
00000250: 5eae 1d3d c326 55bd 77b6 723d 8a4f 42bd
00000260: 48a8 df3c 6232 963d 8d01 2a3d 542a 00bd
00000270: c773 0abd e9b0 073d 757b 603d 8591 6f3c
00000280: cb8c 3dbd 6f76 10bd 11d9 ddbb 6622 79bd
00000290: 5557 bc3d 2554 0c3c 3c40 81bc c812 4c3d
000002a0: b00c 823a d6a9 aa3d 9bdf b43c ea55 cebc
000002b0: bb12 06bd 7c9f a83d 7376 49bd 14ee 07bd
000002c0: dca2 a7bd 7faf 7dbd 9879 b5bb 382a 92bc
000002d0: e829 64bd 3b99 7f3d e124 38b8 21f3 22b9
000002e0: 82c3 b3bd 9f58 02bd 18e9 87bd a3c2 52bc
000002f0: e453 f9bc abf5 3f3d ad9f 53bd 3065 d53c
00000300: 0a37 74bd d3b3 013d 029b 8b3c ecdb 803d
00000310: 1746 90bb eee4 47bd c4ae d3bb 6f36 94bb
00000320: c8bc 543d 6381 08bd a0cf c3bd 5770 033b
00000330: c420 a53b 6fb5 c8bc eda3 79bc b9e6 953d
00000340: cae0 14bd 8658 203d fba6 e9bb 6c3b b93c
00000350: e852 ac3d e971 0abd a23b 6dbd 34fc 423d
00000360: 4455 733d debc 2e3b 32de a5bb 87c3 963d
00000370: 5b21 283d 3789 8b3d 0afe deba 4a67 933c
00000380: 0881 8abc eaab 8c3d 3c9a c8bc 9c89 5ebc
00000390: 3ea1 763d 84b0 99bd d0c2 8dbd 87be 8dbc
000003a0: eb1b aebb d059 633d 3bc6 eabc f740 a4bd
000003b0: 438d 62bd b840 b33d 353f c43c 9762 223d
000003c0: a75f 68bd 4208 5bbd 4237 af3c c967 1c3d
000003d0: 513d 853d 0278 a03d 7c05 a4bc 2944 47bd
000003e0: c050 a2bd c48b 3c3d d300 fabc 894e 403d
000003f0: 5110 c33c eafb 813c 1d08 f9bc d057 9b3d
-0.025313992 0.030804696 -0.05894545 -0.06083845 0.037257094 -0.009843184 -0.050848816 0.07000477
0.09727298 0.07795047 -0.04086742 -0.075598806 -0.0003891338 0.072303236 -0.056811564 0.06298286
-0.0005912823 0.010512783 -0.046705734 0.019475374 0.009055372 -0.02775249 0.028630825 0.008785293
0.04523106 -0.046511643 0.05539627 0.066409044 0.069141604 -0.024733135 0.073715374 -0.02819654
0.045698926 0.038717657 0.044464517 -0.050945446 -0.016332349 0.024900436 -0.037497986 -0.016007755
0.040795743 -0.06580559 0.008315257 0.04855742 -0.071674846 -0.04308899 -0.03445605 -0.025506683
0.08244442 -0.047637977 -0.04124141 0.038766112 0.019004662 -0.039283086 -0.008168251 -0.04367687
0.06846339 -0.023067337 -0.058962014 -0.06540946 -0.0073439586 -0.07419779 0.009861723 0.054500915
0.032338273 -0.010749405 0.012736234 0.049658865 0.087007605 0.020218365 -0.016773267 0.07705715
-0.0012774905 -0.025613587 -0.03657085 0.006645646 -0.06290603 0.037931062 -0.045752764 -0.0392163
0.055801086 -0.013689494 -0.06009223 -0.036778744 0.0023112723 -0.020773636 -0.036881007 -0.04337023
-0.022602024 -0.059775513 -0.018431645 0.06825415 -0.025255146 0.05278966 0.036399968 -0.055415228
-0.029972658 0.02935014 0.027477963 0.068821006 -0.05989529 -0.019982036 0.023683757 0.07494299
-0.02704288 0.023925556 -0.069875985 -0.043694705 -0.06609356 0.035834257 -0.0030215657 0.076113224
0.068293266 0.061443336 -0.0015293045 0.05050865 0.0040617404 0.060733534 0.03829835 -0.027127655
-0.04180999 0.05457726 -0.07975237 -0.059645064 -0.028074782 0.00017814478 0.006781032 -0.037595317
-0.058467217 0.07817208 0.05369725 0.016457476 -0.034554377 0.041691963 0.022470703 -0.04266565
0.06429383 -0.08051765 -0.04737313 -0.043032818 0.028691119 -0.02166029 0.0390356 -0.015549966
-0.08113283 0.009833773 -0.06246668 0.008017061 0.038496368 -0.05203892 0.059256043 -0.047439136
0.027301922 0.073338285 0.041505385 -0.031290367 -0.03380182 0.0331277 0.054805238 0.014622097
-0.04627685 -0.035269197 -0.006770261 -0.06082382 0.09196345 0.0085649835 -0.0157777 0.0498226
0.0009921994 0.08333175 0.02207928 -0.025187451 -0.032732707 0.08233544 -0.049185228 -0.033186033
-0.0818536 -0.061934944 -0.0055381767 -0.017842397 -0.055704027 0.06240199 -4.3903365e-05 -0.00015540097
-0.087775245 -0.031822797 -0.06636256 -0.012863788 -0.03043551 0.046865147 -0.05166595 0.026049227
-0.0596228 0.031665634 0.017041687 0.06291947 -0.0044028866 -0.04880231 -0.0064600427 -0.0045230906
0.05193785 -0.033326518 -0.09561086 0.0020055973 0.0050393064 -0.024500577 -0.015236837 0.073193975
-0.036347188 0.039146923 -0.0071305013 0.022611342 0.084142506 -0.03380004 -0.0579182 0.0476038
0.059407488 0.0026662867 -0.005061888 0.07361513 0.041047435 0.06813281 -0.0017012965 0.017993588
-0.01690723 0.068687275 -0.024487607 -0.013582613 0.060212366 -0.07504371 -0.06921923 -0.017302765
-0.0053133867 0.055505574 -0.028658977 -0.080202036 -0.0553105 0.087525785 0.02395592 0.039644804
-0.056731846 -0.053474672 0.021388654 0.038184915 0.06505836 0.0783539 -0.020022146 -0.048648987
-0.07925558 0.04603173 -0.030517971 0.046949897 0.023811491 0.015867192 -0.030399377 0.07585108

net.2.bias f4 [167]
00000000: 94c4 983d c547 d53c 8b61 abba 4b82 793d
00000010: 8bf8 32bd 0e23 96bb 0b30 35bd 2835 a83c
00000020: d147 39bd ff3a f63c efbb 81bd 82dc 983d
00000030: 0a12 99bd 51c2 90bb 626e 66bb 19b9 babd
00000040: 5590 a43d 7f33 c43b 9994 b2bd a2d7 a73c
00000050: 10fb 84bd 5af5 7fbb b1cf 87bd 4d2f 7dbd
00000060: 6af5 bbbc 2aac 67bd 30b5 b3bb b8da 393d
00000070: 0582 a73b d98c 753a e74b 5fbd 8258 a1bd
00000080: 7da4 1d3d 9d15 71bb ca01 2e3d b825 593c
00000090: a245 00bc ae88 4bbd a9fa 323d 11f9 82bd
000000a0: 6850 8d3c 98e6 3abd f342 1f3c 80f9 5c3c
000000b0: 59d8 9fbd 3f07 d5bc 1962 873d 7fec 8bbd
000000c0: 2038 3b3c d572 f4b9 3684 8c3d c13d 7ebc
000000d0: 865e 77bc 0770 733d 0ea0 ca3c 14a4 90bd
000000e0: b583 8c3d b3e5 d1bc 292b 3b3d f770 69bd
000000f0: 41e7 133d 41a9 563d 96a9 3b3d 9028 343d
00000100: ffa3 31bc e04d 083c 7dd3 acbc fabd 65bd
00000110: d346 173c f51f a6ba d12c 92bd d346 983d
00000120: 4cf4 7fbd 892b 3b3d 8f1a 49bd 8707 3ebb
00000130: 2083 6cbc 5cbe 5cba f4dc 223d ef30 403d
00000140: 3036 373d 96f8 813d 56fc e53c ac5d 2e3d
00000150: 54bf c83a 0180 36bd 7991 323d 7a3c 653d
00000160: 1993 ec3c 0136 413d d01d afbd bb0b dcbd
00000170: ff83 30bb 5887 633c 68c0 f9bc bd4d 143d
00000180: fae8 1abc 7333 29bd 3019 233d 5b84 87bc
00000190: 5be5 d23b d21c 803d 4f51 333c 01aa a9bd
000001a0: 6194 0fbd 0e6d 043d a68f 2bbd 5aa1 6f3d
000001b0: 54b4 aa3d a3af bebd fbeb 963c 9005 38bc
000001c0: 86b6 53bc 9e8f 963d 2d0d 8b3d 7439 9a3c
000001d0: d309 d8bc a07b 2ebd d3ce aabc 8b63 00bb
000001e0: 174b 4fbd a150 febc de15 28bd 5c4d ee39
000001f0: 0b5f fd3c 8937 78bd 7299 68bc 1b1b 133d
00000200: d2ac 19bc 812c 02bb e153 963c b14e cebd
00000210: 100f c2bc 36e5 46bd 0359 d83c a18f 013d
00000220: 36b1 48bc 11fa 9cbd ad57 e53c d92a a8bd
00000230: 1b26 743c 0b5b 413b aaad b6bd ea74 bfbd
00000240: 0558 fbbc a54c 593d 9614 583d a7e5 923c
00000250: 264e 053b 4181 1e3d a488 55bd ee95 533d
00000260: d8c5 243d 2a0c fd3c e9e4 c43a 5a81 11bd
00000270: 9f9d 123d f577 6fbd 162a 9a3d 2836 933c
00000280: f4cc 563d b4eb e8bc 6038 9c3c b5f9 2d3d
00000290: 3543 cfba 2b7b ca3c db48 99ba
0.07459369 0.026035199 -0.0013075335 0.060915273 -0.04369406 -0.0045818156 -0.04423527 0.02053316
-0.045234505 0.030057428 -0.063346736 0.074639335 -0.07474144 -0.0044176956 -0.0035161008 -0.09117336
0.08035342 0.005987584 -0.08719749 0.020488564 -0.06493199 -0.0039056153 -0.06631411 -0.061812688
-0.022944171 -0.056560673 -0.0054842457 0.045374602 0.005111935 0.0009366996 -0.054515745 -0.0787821
0.038486946 -0.0036786564 0.042482175 0.013253622 -0.007829102 -0.049690895 0.04369608 -0.06395162
0.017250255 -0.045630068 0.009720552 0.01348722 -0.07804937 -0.026004432 0.066105075 -0.068322174
0.011426955 -0.00046624863 0.06861155 -0.015517653 -0.01509822 0.05943301 0.024734523 -0.070625454
0.068610586 -0.025622224 0.045695458 -0.056992497 0.036109213 0.052407507 0.045816027 0.043983996
-0.010842322 0.008319348 -0.02109694 -0.05608938 0.009233194 -0.0012674319 -0.07137454 0.07435384
-0.06248884 0.045695815 -0.049097594 -0.0028996186 -0.0144355595 -0.00084207 0.0397615 0.046921667
0.04472941 0.06346242 0.028074425 0.0425698 0.0015315809 -0.044555668 0.043595765 0.055965878
0.028878735 0.047170643 -0.08550608 -0.10744425 -0.0026934145 0.013887249 -0.030487254 0.03620695
-0.00945496 -0.04130883 0.039818943 -0.016542604 0.0064360327 0.06255497 0.010944678 -0.08284379
-0.035053615 0.032330565 -0.04188504 0.058503486 0.08335176 -0.09310844 0.018423071 -0.011231795
-0.012921935 0.073516116 0.067896225 0.018826224 -0.026371872 -0.042598367 -0.020850575 -0.0019590582
-0.05060872 -0.031044306 -0.04103648 0.00045452535 0.03092911 -0.060599837 -0.01419674 0.03591452
-0.0093795825 -0.0019862952 0.018350543 -0.10073603 -0.023688823 -0.048558436 0.026409632 0.031631116
-0.012249282 -0.07664884 0.027995909 -0.082112975 0.014901663 0.0029503729 -0.089198425 -0.093484715
-0.03068162 0.05305161 0.052754007 0.017931772 0.002034077 0.038697485 -0.052132264 0.051656656
0.04022774 0.03088959 0.0015021834 -0.03552375 0.03579485 -0.05846401 0.075275585 0.01797016
0.052441552 -0.028432705 0.01906985 0.042474467 -0.0015812876 0.024716934 -0.0011694686
