KMM-3d/kmm_outputs_1/kmm_autonomous_no_obs_slice_dec.pt (torch, 287131 bytes, 17 tensors)

A_param f4 [8, 8]
000000 54 61 3e bc 9b 8a 03 3b 88 4c 30 3b 8e bc d4 3b
       -0.0116198845 0.002007163 0.0026901085 0.006492204
000010 e8 b4 f7 bb ee b5 e9 3b c0 dc a5 3b af 68 32 bc
       -0.0075594075 0.0071322834 0.005061716 -0.010889216
000020 5f 66 86 bc 22 e7 45 3c 87 0e 9f 3a 92 43 4d 3c
       -0.016406236 0.012079032 0.0012135067 0.012528317
000030 a9 11 26 bc 8f 48 3a 3c aa aa 64 3b a4 92 58 bc
       -0.010136046 0.011369838 0.0034891763 -0.013218556
000040 f0 de ca bc e3 2e ec 3b 90 2f 71 3c fb d2 1f 3c
       -0.024764508 0.007207738 0.014720812 0.0097548915
000050 d9 e3 cf bb 08 ce 4b bb d9 62 ae b9 bb e4 c8 bb
       -0.0063443 -0.0031098146 -0.00033261513 -0.0061307824
000060 00 00 00 00 00 00 00 00 00 00 00 00 00 00 00 00
       0.0 0.0 0.0 0.0
000070 00 00 00 00 00 00 00 00 00 00 00 00 00 00 00 00
       0.0 0.0 0.0 0.0
000080 00 00 00 00 00 00 00 00 00 00 00 00 00 00 00 00
       0.0 0.0 0.0 0.0
000090 00 00 00 00 00 00 00 00 00 00 00 00 00 00 00 00
       0.0 0.0 0.0 0.0
0000a0 00 00 00 00 00 00 00 00 00 00 00 00 00 00 00 00
       0.0 0.0 0.0 0.0
0000b0 00 00 00 00 00 00 00 00 00 00 00 00 00 00 00 00
       0.0 0.0 0.0 0.0
0000c0 00 00 00 00 00 00 00 00 00 00 00 00 00 00 00 00
       0.0 0.0 0.0 0.0
0000d0 00 00 00 00 00 00 00 00 00 00 00 00 00 00 00 00
       0.0 0.0 0.0 0.0
0000e0 00 00 00 00 00 00 00 00 00 00 00 00 00 00 00 00
       0.0 0.0 0.0 0.0
0000f0 00 00 00 00 00 00 00 00 00 00 00 00 00 00 00 00
       0.0 0.0 0.0 0.0

g.0.weight f4 [128, 3]
000000 c2 e7 20 bd 89 ae a3 3e a4 44 fe be c4 ba b7 be
       -0.03928352 0.31969097 -0.49661744 -0.35884678
000010 8f a6 45 be fa 3c 3f 3e f1 8c 3d bd 73 38 e8 3e
       -0.19301818 0.18675604 -0.04627699 0.45355567
000020 c4 b1 a3 bd 0c ab 79 3e eb ab 10 be 34 cf 8f bd
       -0.079928905 0.24381655 -0.14128082 -0.07021943
000030 ab 6f 1e bf cb ad c7 be a5 fd 59 be 80 2a fb 3c
       -0.6188914 -0.3899978 -0.21288164 0.030659914
000040 ff 36 6b 3e 8d e5 ae 3e 29 72 bb be 1c f2 73 be
       0.22970198 0.34159508 -0.36610535 -0.23822826
000050 84 06 4b 3e 6d c9 00 3f dc 71 de bd e3 b7 ee 3e
       0.19826704 0.5030735 -0.10861561 0.4662467
000060 b8 ad bf bd 48 65 96 3d 1c 7a 09 3f 5e 2f 17 bf
       -0.09359306 0.073435366 0.5370195 -0.5905665
000070 59 0c c1 be 12 2b 2e be 58 c0 a4 be de 77 ff 3e
       -0.37704733 -0.17008618 -0.32177997 0.4989614
000080 ad 18 c9 be aa 11 8d be 1e e5 cc be c4 dc 0b bf
       -0.3927664 -0.2755254 -0.40018553 -0.54633737
000090 2b c5 d4 be 64 1c fd 3e b6 c3 86 3e 62 08 a0 3e
       -0.41556677 0.49435723 0.2632119 0.31256396
0000a0 51 c4 e8 3c ec 52 a1 be 25 29 8a 3d a2 e7 0a bf
       0.028413923 -0.31508577 0.06746129 -0.54259694
0000b0 6c ef cd be 6e ec cb be 59 1b ad 3e 37 4b a0 3e
       -0.40221727 -0.3982882 0.33809927 0.31307384
0000c0 9a bd 7b be c8 40 d1 bc 94 d3 c7 3e ec fb 1d 3f
       -0.24584046 -0.025543585 0.3902861 0.6171253
0000d0 32 f5 77 3e c6 65 9f 3d 1d 52 ce 3e 8e 9a b1 be
       0.24214628 0.077830836 0.40297022 -0.34688228
0000e0 73 42 eb 3d 67 40 e4 be 1a 50 d2 be 43 2d a4 be
       0.114872836 -0.44580385 -0.41076738 -0.32065782
0000f0 39 d4 73 3e db 5c 61 3e 4b a6 b1 be 6f 9f 0f 3e
       0.23811425 0.22008078 -0.34697184 0.14025663
000100 5c 06 a7 3e e8 10 9e bd 90 18 a7 3d 22 1a 0b 3e
       0.3262204 -0.07718068 0.08158982 0.13584188
000110 0e e9 ae 3e 34 47 10 3f 20 63 e0 be d6 f8 3a be
       0.34162182 0.5635865 -0.43825626 -0.18258986
000120 e0 65 65 3e a2 24 f3 3e b6 36 fa 3e db 2c 10 3f
       0.22402143 0.47488886 0.48869866 0.56318444
000130 59 bb 03 3e 57 03 03 bf af 99 e5 3c 38 44 bd be
       0.12864436 -0.5117697 0.028027384 -0.3696611
000140 a5 a9 08 bf c2 fb f5 3e c4 4c df 3e 6b 7b 11 bf
       -0.53383857 0.48043638 0.43613255 -0.56828946
000150 2e c4 22 3e 11 cb c2 bd 19 2d d5 bd 58 07 a2 be
       0.15895149 -0.09511388 -0.10408992 -0.31646228
000160 3c 34 70 3e 20 77 b0 be 24 63 46 3e 3c 05 9a 3e
       0.23457426 -0.34465885 0.19373757 0.3008212
000170 fb 95 d7 3e 4b 9a 1a 3e 4b f7 0c bf 49 3b b3 be
       0.42106614 0.1509792 -0.5506484 -0.35006168
000180 ec 0d a1 3e 53 31 0f 3e ee 06 e0 be ea f3 c3 be
       0.31455934 0.1398366 -0.43755287 -0.3827203
000190 1d 67 0e 3f 06 ad ca 3e 9d 10 8c be 1e 1f 17 be
       0.5562609 0.3958513 -0.27356425 -0.14757964
0001a0 4f fa 11 bf 60 9b 81 3c fc 61 dd be 25 d4 ec be
       -0.57022566 0.015821159 -0.4323882 -0.46255603
0001b0 2e 76 b0 bd eb 5a ce 3d 6b 37 70 be 91 a4 c6 3e
       -0.08616291 0.10075935 -0.2345864 0.3879743
0001c0 fd 89 b6 be cc dc 09 3f 2c 63 dd 3e 25 6c fc be
       -0.35652152 0.53852534 0.43239725 -0.49301258
0001d0 d2 ad e5 bd aa 43 3a bd c7 2d bf 3d 2b 36 11 3e
       -0.11214794 -0.045474686 0.09334903 0.1418082
0001e0 10 3f 81 3e 7e 08 3f 3d e1 91 8d be 66 2b 99 3e
       0.25243425 0.04663896 -0.2765036 0.29915923
0001f0 ed c6 0f bf fc af b3 be 54 3e 4b be 0e 23 91 be
       -0.5616291 -0.35095203 -0.19847995 -0.28347057
000200 cc 57 54 be f0 94 fc be bb 78 b7 bd 89 8e 0f 3e
       -0.20736617 -0.4933238 -0.089585744 0.14019217
000210 8a 45 be be f5 8b cc bc 8e 22 dd 3e 69 a9 34 bd
       -0.3716243 -0.02496908 0.43190426 -0.044106875
000220 ae ca d2 3c 22 c2 d0 bc 5a 2b 08 3e 02 30 c0 3e
       0.02573141 -0.025483195 0.13297787 0.37536627
000230 6a 7b 0d 3f 9e 8d d6 3e ff 50 0d 3f bd 78 84 bd
       0.5526644 0.4190492 0.55201715 -0.064683415
000240 74 ff 0a bf 25 43 7b be 5a 86 d8 3e 60 fd 08 3d
       -0.5429604 -0.24537332 0.42290002 0.033444762
000250 40 02 99 be d6 f0 e9 be 53 76 01 bf 6a 02 e6 be
       -0.2988453 -0.45691556 -0.50571173 -0.44923717
000260 fe f8 f1 bd cf 6e 8d 3e cb 88 99 3e fb 2c 14 bf
       -0.118150696 0.27623603 0.29987177 -0.57881135
000270 ce b2 d1 3e 31 13 e1 be 9b 8d d5 bd d5 cb 75 be
       0.4095673 -0.43959954 -0.104274 -0.24003537
000280 a2 2d e8 bd 29 59 0a be 79 b1 f1 be a7 01 02 bf
       -0.11336829 -0.13510574 -0.47205713 -0.5078377
000290 f7 88 b1 bd f9 5c 87 3c 99 4f 8d be 85 64 83 3e
       -0.08668702 0.016523825 -0.2759979 0.25662628
0002a0 31 76 10 bf 0d b6 b1 bc bc b5 08 3f 54 a8 92 be
       -0.56430346 -0.021693254 0.53402305 -0.2864405
0002b0 a9 25 04 3f 31 4d 4b 3e 52 96 1e bf 3d 85 bb 3e
       0.51619965 0.19853665 -0.6194812 0.3662509
0002c0 6a 6b a1 bd 7d 9f 9b be 96 ae f2 3e 0b 56 e8 be
       -0.07881816 -0.30395117 0.47398823 -0.45378146
0002d0 12 a6 a2 3c 40 62 10 be 12 00 e2 3e 5d c1 23 3e
       0.01985458 -0.1409998 0.4414068 0.15991731
0002e0 9c 3a 95 3e e2 02 52 3e 2e 0a 52 be 10 4b eb bd
       0.29146278 0.20508912 -0.20511696 -0.114889264
0002f0 57 a6 fb be 83 0e 90 3e 93 43 ec 3e d0 a2 c5 3e
       -0.49150345 0.28136072 0.46145305 0.3860078
000300 ce 1a ea be 01 2b 79 3d 3f 75 e2 be 1f 57 c7 be
       -0.45723575 0.060832027 -0.44230077 -0.38933656
000310 61 d1 a7 be fa 83 5a 3e 50 eb d5 be 13 82 82 bc
       -0.3277693 0.21339408 -0.41781092 -0.015931165
000320 cd 6e 3d 3d eb 6b d9 3e 8b 6f d4 be 23 34 d5 be
       0.046248246 0.42465147 -0.4149135 -0.4164134
000330 6f e3 cb be df 76 cf 3e 05 1c 5f be c9 20 06 3f
       -0.39821956 0.4052038 -0.21788032 0.52393776
000340 e1 c3 5e 3e de 8e 9a 3d c5 a3 79 bd 3f e5 01 be
       0.2175441 0.07546781 -0.0609472 -0.12685107
000350 07 21 8c 3d d0 4c e3 bd c4 e9 d3 3b 54 cb a2 3d
       0.06842237 -0.11098635 0.006467076 0.07948938
000360 89 45 e0 be e3 02 9e be 91 2f 00 3f 17 71 06 bf
       -0.4380305 -0.30861577 0.5007258 -0.5251631
000370 7b 97 fe bc 6d db 15 3f fe c7 80 3e c4 70 5d 3d
       -0.03107809 0.5853794 0.25152582 0.05406262
000380 45 2b 05 bf 40 c2 97 3e ed 7b d6 be 57 bd 04 be
       -0.5201915 0.29640388 -0.41891423 -0.12962852
000390 9b f8 ee bd 5d 29 9c bd fa 33 e0 3c 97 63 eb 3e
       -0.116685115 -0.07625077 0.027368534 0.4597442
0003a0 6b a6 b5 3d 5c 2a 09 3f 08 46 cb 3e 89 bc bf be
       0.08869632 0.5358026 0.39701867 -0.37448528
0003b0 2a 00 8a 3e 6d 7a f9 be da b2 79 be b3 5b 58 3e
       0.2695325 -0.48726216 -0.24384633 0.2112873
0003c0 e7 e3 51 3e 6b 5a dd 3e 5c f3 4f be d5 55 11 bd
       0.20497094 0.43233046 -0.20307678 -0.035482246
0003d0 8d ff 9c 3e f9 62 0f bf 2f 74 ba 3e f1 4c e1 be
       0.3066372 -0.56010395 0.36416766 -0.44004014
0003e0 87 4c 39 3d 45 1e 62 bd 5f 46 9a be 00 2e e5 3d
       0.045238998 -0.05520465 -0.30131814 0.111904144
0003f0 6a b6 f6 3e f4 9c 34 be 26 28 b6 be 6e e5 3c be
       0.48186046 -0.17637998 -0.35577506 -0.18446895

g.0.bias f4 [128]
000000 c5 2d 46 3e 82 20 15 3f de d5 95 3e 19 8f c0 3e
       0.19353397 0.5825273 0.2926473 0.37609175
000010 9f 11 4b be fd 96 90 3e f9 34 5f 3d 02 7e ca bd
       -0.1983094 0.28240195 0.054493878 -0.09887315
000020 5b ec a3 be aa 9d 9b be 5e 40 e3 be 2c 77 cc 3e
       -0.32016262 -0.30393726 -0.44385046 0.3993467
000030 67 e9 ce 3e 4c c5 8c bd ba 79 a5 be f1 b6 d5 3e
       0.40412447 -0.06873569 -0.32319432 0.41741136
000040 47 c3 bf 3e b5 8c 57 3d 5d 0f 84 be 58 dd 0a 3f
       0.37453672 0.052624423 -0.2579297 0.54243994
000050 b9 a3 63 3e 50 a3 df be 0e c8 0b 3f cb d9 e2 3e
       0.22230424 -0.43679285 0.54602134 0.44306788
000060 4b 15 61 be c0 93 ac 3e 4c 43 a4 be 3f 33 e8 bd
       -0.21980779 0.33706474 -0.32082593 -0.113378994
000070 5c 46 fb 3e fb 3c 07 3d cb 38 cf be ea f1 50 be
       0.49077117 0.03301714 -0.40473017 -0.20404783
000080 2e 32 19 be b0 8b d5 bd 75 51 8f 3d e8 77 0b 3f
       -0.14960548 -0.10427034 0.069979586 0.5447984
000090 0e 4e 16 3d fc 7b af be 76 fb 48 3d 6c 75 8d 3e
       0.036695533 -0.3427428 0.049067937 0.27628648
0000a0 89 34 84 3e 0f 83 03 bf d2 57 bf bd 88 32 c4 be
       0.2582133 -0.51371855 -0.09342922 -0.38319802
0000b0 aa 73 6e be fd 36 57 3e 7f eb d0 be 7d f8 5e 3e
       -0.2328631 0.2101707 -0.4080467 0.21774478
0000c0 88 b2 04 3f 2e d5 51 3d 64 ec d5 be e7 ea 6e be
       0.5183492 0.051228695 -0.41781914 -0.23331796
0000d0 e1 03 02 3e db 37 ce be 33 eb 97 3e b0 70 01 bf
       0.12696792 -0.4027699 0.2967163 -0.5056257
0000e0 c1 da 05 bf 2e 60 13 bf 75 cf d0 bd 35 f6 c9 3e
       -0.52286917 -0.57568634 -0.10195819 0.39445654
0000f0 4b be 05 bf 9a e1 f7 3e 3e c1 61 be ff 28 2a 3e
       -0.5224349 0.48414308 -0.22046372 0.16617201
000100 d5 66 5e 3d f2 86 03 bf 4b c3 f3 3e 50 aa a6 3e
       0.054297287 -0.51377785 0.47609934 0.32551813
000110 e2 b8 11 3f 4f 18 99 3e be a6 bf be 50 9e f4 3e
       0.56922734 0.29901358 -0.37431902 0.47777033
000120 92 52 49 3d 80 31 8f 3e 26 8c e0 be 29 08 1c be
       0.04915101 0.27967453 -0.43856925 -0.15237488
000130 ac 0e 0c bf dc fc 58 be e0 be 0f 3e 29 0d da be
       -0.5470989 -0.21190208 0.14037657 -0.42588165
000140 04 f0 35 3e 2e 6d a1 3e 3f 85 95 3d e3 1e c1 be
       0.1776734 0.3152861 0.07300805 -0.37718877
000150 76 c2 de be bc a8 24 be 0f f7 81 3e 5d 19 14 3f
       -0.43507737 -0.16079992 0.25383803 0.578512
000160 50 63 a9 3e 74 e8 92 bd 08 70 57 3e 3d 75 10 bf
       0.33083582 -0.07173243 0.2103883 -0.5642889
000170 54 e3 fc be 23 e0 83 3e f2 c7 ad be a2 ec 94 3e
       -0.49392188 0.2575694 -0.3394161 0.29086787
000180 ec 98 d1 be 49 f0 98 be d0 93 e7 be 5b 30 9d 3e
       -0.40936983 -0.29870823 -0.4522996 0.30700955
000190 57 cf 45 bd 34 8c e0 3e 7a 5f b9 3e 6f ba aa 3e
       -0.048293438 0.43856966 0.36205655 0.33345363
0001a0 e7 4f 0a 3d 3a 45 20 be 9b 1c f6 bd 58 a9 a8 3d
       0.033767607 -0.15651408 -0.12017175 0.08235425
0001b0 62 57 93 3e 4b 09 ce be 91 d3 00 3f 03 47 75 bd
       0.28777605 -0.40241465 0.50322825 -0.059882175
0001c0 f0 63 06 bf c1 a0 93 be f6 88 f3 3e ce 26 09 3f
       -0.5249624 -0.28833583 0.4756543 0.53574836
0001d0 0e 1c 0b bf 5a 99 db 3e 6b 89 84 3e b6 73 b3 3e
       -0.54339683 0.42890435 0.25886092 0.35049218
0001e0 be 09 fd 3e 65 95 9d be a0 bd 4a 3e 4a f9 81 3e
       0.49421495 -0.3077804 0.19798899 0.25385505
0001f0 f3 30 2f be 2e e7 43 3e b5 55 22 be 8b 8b b9 3e
       -0.17108516 0.19131157 -0.15853007 0.36239275

g.2.weight f4 [128, 128]
000000 d0 d8 fc bc d2 31 a3 bc 69 c3 57 3b 20 d0 48 3d
       -0.030865103 -0.019921217 0.003292287 0.04902661
000010 cd c3 e4 bc 0d f1 7a bc db d1 82 3d 9b 49 9e 39
       -0.027925396 -0.01531626 0.06387683 0.0003019095
000020 0e c0 bb 3b 3e 0f e1 bb 21 53 58 3c ad e0 40 bd
       0.005729682 -0.006868272 0.013203413 -0.047089268
000030 46 bd 9a bd 1d a8 81 bc dc 34 c8 3d 3e ee 47 bd
       -0.07555632 -0.015827233 0.09775707 -0.04881119
000040 7d f4 5b bc 75 15 68 bd 85 df d2 3d 51 d0 d1 3d
       -0.01342499 -0.056661088 0.10296539 0.10244811
000050 f7 a0 8f bd 68 da b1 bd 1e 57 b0 bd bf d7 8d 3c
       -0.070131235 -0.08684236 -0.08610366 0.01731479
000060 75 d7 2a bd bb c8 29 bd 53 72 78 bc 37 dd 43 3c
       -0.041709382 -0.041451197 -0.015163976 0.011954597
000070 67 0d ec bc 3f 2a 86 3b 3e 9c 1c bd 9f f7 d5 bc
       -0.028814984 0.0040943916 -0.03823494 -0.026119052
000080 62 2d fe 3c 2e 76 50 3d 64 e7 31 bd 31 4b af 3c
       0.0310275 0.050893955 -0.043433562 0.021398159
000090 0e de 09 bd c9 1c cd 3d 17 ac 89 bd 30 e5 d8 bd
       -0.033659033 0.10015256 -0.06722277 -0.10590589
0000a0 35 99 e0 3d 3b 75 22 bd 1e 33 04 3d aa 03 1d bc
       0.10966722 -0.03966258 0.03227531 -0.009583393
0000b0 02 08 26 bd c8 9a aa bc e4 65 10 3d 4c 2a 53 bc
       -0.04053498 -0.020825759 0.03525342 -0.012888502
0000c0 f6 63 a4 bd b0 d9 0f bd d7 b2 6d bc c8 ed 30 3d
       -0.080268785 -0.035119712 -0.014507971 0.043195516
0000d0 55 7c 25 bd 27 fc ad 3d 31 26 98 bb d0 aa 13 bc
       -0.040401775 0.0849536 -0.0046432246 -0.009012893
0000e0 48 4d 80 3d 1b a7 d0 3c 97 79 54 3d 8e f5 1f 3d
       0.0626474 0.025470307 0.05187377 0.03905254
0000f0 6c f0 fe bc 27 e0 a3 bd 71 3f 06 3c 59 af 62 3d
       -0.031120501 -0.08001738 0.008193837 0.055343006
000100 16 f4 40 bc 95 72 8f bd f8 7f 05 3d 31 6c d5 3d
       -0.011776945 -0.07004277 0.032592744 0.104210265
000110 34 c8 31 bd 91 ac b1 bd 28 c6 9e bd af f5 9a 3c
       -0.04340382 -0.086754926 -0.07752639 0.01891598
000120 7d 14 bf 3b 9a af 7a bd d0 ac 1c 3d d5 7b 4b 3d
       0.0058313 -0.061202623 0.038250744 0.049678642
000130 86 13 8e 3d cc 7c 3f 3d e4 f3 1c 3b 85 b1 94 bd
       0.069373176 0.046749875 0.002394908 -0.07260422
000140 a8 21 c2 bd 1d f4 a2 3d ad 36 63 3d 05 42 51 3d
       -0.09479076 0.07956717 0.055472065 0.05108835
000150 c0 46 6f bd 9f d2 c5 3d a3 0c cd 3d 40 da 73 3d
       -0.05841708 0.096593134 0.10012176 0.05953431
000160 73 8a 69 bd e9 f8 52 bd 08 37 34 bd 3b 2a cd 3d
       -0.0570168 -0.05150691 -0.043997794 0.100178204
000170 bc 70 c3 bc f0 32 95 bc 8e 18 d7 3c cc a4 ca bc
       -0.023857467 -0.018212765 0.026256826 -0.024736784
000180 3a 86 16 bd 76 a9 b3 bc e0 60 9d 3b e6 b3 ba bd
       -0.036749102 -0.021931391 0.004802808 -0.09116344
000190 ac d5 71 3d 30 a0 fd bc f5 7e 17 3c c4 5d be 3d
       0.059041664 -0.030960172 0.0092465775 0.09295228
0001a0 ab 77 71 3d 30 b1 e4 3c 5a ce 78 3d f0 9e e1 3c
       0.058952015 0.02791652 0.060743667 0.027541608
0001b0 d0 20 6d bd 85 88 90 3d db 47 0c 3d 38 08 91 bd
       -0.05789262 0.07057289 0.034248214 -0.07081646
0001c0 36 53 39 bd 32 7b 26 bd 82 83 97 3d 9c 79 04 bd
       -0.04524537 -0.040644832 0.0739813 -0.03234254
0001d0 4e 45 c7 bd 36 a8 86 3b 7d 4a 32 3d 8d 22 20 3d
       -0.09730016 0.004109408 0.04352807 0.03909545
0001e0 25 78 36 3d 19 31 24 bc cf f2 4f 3d 48 bb e3 bb
       0.044548173 -0.010021471 0.05076867 -0.006949816
0001f0 85 c0 9f bc 5f b7 d6 bd 7e 6d ab bd 1f 49 62 3c
       -0.01950098 -0.10484194 -0.08370493 0.013811379
000200 c4 b1 6e bd 9b b9 b8 3c 7f 13 e1 3c e5 f6 f6 3c
       -0.058275 0.022549441 0.027475117 0.030147025
000210 57 0f 77 bd 4f d7 bf 3d ac 56 39 bd 51 51 f7 3d
       -0.060317364 0.09367239 -0.045248672 0.12076057
000220 74 9b 9e bd 85 65 d6 bc b6 db 12 3d 1c 5b e8 bc
       -0.07744494 -0.026171455 0.035854064 -0.028363757
000230 63 97 8a 3d d6 c2 86 bd 18 6e 85 bd d5 c4 3a bd
       0.06767156 -0.06580131 -0.06515139 -0.04559787
000240 7d 90 d2 3c 72 10 dd 3d 67 0c 9d bc 12 9b 20 3d
       0.025703663 0.10794152 -0.019170953 0.039210387
000250 cd 8f 36 bc 7b 0f c7 bc 6f f9 a6 3d 08 64 36 bd
       -0.011142683 -0.024299374 0.081530444 -0.04452899
000260 40 cc 73 3c f9 3c d3 3d 93 71 df bb 27 45 9d 3d
       0.01488024 0.10314364 -0.006818959 0.076792054
000270 ad 61 2e bc f2 29 32 3d 8d 57 a8 bd f8 45 66 ba
       -0.010643405 0.043497033 -0.08219824 -0.000878423
000280 c7 ad a7 bc 2b 11 b6 3c c7 e6 c5 3c e0 31 a6 3d
       -0.020468606 0.022224983 0.024157895 0.08114982
000290 b5 b3 14 bd 5b 19 b8 3c 6d 41 a4 3d 84 31 49 bc
       -0.036304194 0.022473028 0.080202915 -0.012279872
0002a0 5a 98 be 3d a5 3b 45 bd fd fe ee bb 86 9a fa bc
       0.093064025 -0.048152585 -0.0072935806 -0.03059126
0002b0 b1 85 ba 3c ec 09 7a 3d 16 54 33 bc aa 2b 84 bd
       0.022768827 0.06104462 -0.010945341 -0.06453641
0002c0 3b 09 61 3d ce f8 0e 3d cf c0 10 3d f0 a9 60 bd
       0.054940443 0.034905247 0.035340127 -0.054849565
0002d0 cd c8 9e 3d 7b 14 67 3d 55 5b 7e 3c ea 13 ba bd
       0.077531435 0.056416016 0.015524705 -0.090858296
0002e0 9d b4 22 3d de c3 94 bd cf 5e 54 bb 56 6c be 3a
       0.039723027 -0.07263921 -0.0032405143 0.0014528136
0002f0 4f 57 36 bd 5e b1 38 3d 91 4a d7 bd 07 4a f8 3c
       -0.044516858 0.045091026 -0.10512269 0.030308736
000300 10 96 06 be 90 ad 7f bc 20 1e 1d 3b d8 8d c0 3d
       -0.13143182 -0.015605345 0.0023974255 0.094020545
000310 4f b2 60 bd 89 6b af 3d 66 c8 d6 bc bc 99 0d bd
       -0.05485755 0.085654326 -0.026218604 -0.03457044
000320 dc 6f 84 bd 78 6a 92 bd 04 8d 8e 3d 75 da b9 bb
       -0.06466648 -0.071492136 0.0696049 -0.005671794
000330 9c 1f 2c bc da c5 50 3d d2 4c b0 3d e1 1e 6e 3d
       -0.010505583 0.050969936 0.08608402 0.058134917
000340 c1 5f 9b 3d f3 b7 90 bd 35 cd f8 3b 05 a7 56 bd
       0.07586623 -0.070663355 0.007592822 -0.052405376
000350 c8 19 21 bd 07 55 0a 3d 37 41 b9 3d 8d 7f 53 bd
       -0.039331228 0.033772495 0.09045642 -0.051635314
000360 98 50 99 3d 09 42 31 bd 74 36 78 bc ca 57 8f 3d
       0.07486075 -0.043275867 -0.015149701 0.06999166
000370 06 dd dc b9 27 3c 43 3c 48 3d 9c bd 49 3b e8 3d
       -0.00042126345 0.011916197 -0.07628876 0.11339433
000380 9d 8e 24 bd ef 67 93 bd 8e 8c 0f 3d a2 2a b9 bd
       -0.04017507 -0.07197558 0.035046153 -0.09041335
000390 3c c9 fe bd db cc 3b 3c 4b 4b a8 3d 95 7a 32 bc
       -0.12440726 0.011462416 0.08217486 -0.010893484
0003a0 47 f3 8b 3d e5 68 cd 3d d2 5a 97 3d 44 a2 fc bc
       0.06833511 0.10029773 0.073903695 -0.030839093
0003b0 cb 05 8f 3a 81 f7 23 bd 15 e6 61 bd c0 fd c3 3c
       0.0010911761 -0.04003096 -0.055151064 0.023924708
0003c0 c5 a6 93 3d 92 4c c8 3d 4d 0f d6 3c 97 69 3a 3d
       0.07209543 0.0978023 0.026130343 0.045510855
0003d0 93 55 93 bd 93 7f e4 3d 22 69 06 bd 38 06 1f bd
       -0.07194056 0.11157145 -0.032815106 -0.03882429
0003e0 fb 8e b7 3c 01 37 88 3d bd 2e 7b bd e8 7e ca 3d
       0.022407046 0.06651116 -0.06132387 0.09887487
0003f0 2a 44 c3 3c 93 7f 88 bd 76 c4 03 bc 90 0c a8 3d
       0.023836214 -0.06664958 -0.008042445 0.08205521

g.2.bias f4 [128]
000000 9a cd 1e bd bc 0d 71 bd 8b 9e 83 bd 6e 7f c5 3b
       -0.038770296 -0.05885099 -0.06426724 0.0060271537
000010 b1 c2 d1 bc c6 20 78 bd e2 1e a0 3d 0f ec 4d bd
       -0.025605531 -0.06057813 0.078183904 -0.05027395
000020 3d f7 e7 bc f7 60 8e 3d 48 9c 62 bd 29 a0 44 3d
       -0.028316135 0.06952088 -0.055324823 0.048004303
000030 97 5d 8f bd 26 55 77 bc db 19 cf 3c 5e f5 80 bc
       -0.07000273 -0.015095985 0.025280884 -0.015742
000040 6c 5d 5d bd 3e bf af 3c 31 28 10 bb 0a b4 ab 3d
       -0.054044172 0.021453496 -0.0021996612 0.08383949
000050 fa 4d 35 3c c6 5c b5 3d 7c bc 47 bd fe fa f7 bc
       0.011065954 0.08855586 -0.048763737 -0.03027105
000060 35 3d ba 3b 50 ad 85 3d 71 50 9f 3d e0 69 21 3d
       0.005683566 0.06527197 0.07779015 0.03940761
000070 b6 dc ef bc 86 48 72 3c 7b 5e 8e 3d 19 0c 87 3d
       -0.029280048 0.014787799 0.069516145 0.06594104
000080 2c 91 94 3d 39 d6 da 3c cc d4 14 3d 57 03 b2 3d
       0.07254252 0.026713477 0.03633575 0.08692043
000090 c7 18 f8 3c 1b 54 ae bd cc b7 9e 3d 75 52 be 3b
       0.030285252 -0.085121356 0.077499 0.0058081695
0000a0 52 2a d1 3d 76 fd a0 3d 64 d5 30 39 54 3d 8b bd
       0.1021315 0.07860844 0.00016864162 -0.06798807
0000b0 02 22 93 bd a1 1d 25 bd 68 65 47 3d 86 3b ad 3c
       -0.07184221 -0.04031146 0.048680693 0.021146547
0000c0 18 e9 71 3c c6 61 82 bd 55 d3 82 3d 1a 8b 3d bb
       0.014765047 -0.06366305 0.06387965 -0.0028922022
0000d0 9d ce 24 3d 6c 93 a4 bd ec 09 1b 3c 04 98 66 3d
       0.040236104 -0.08035931 0.009462815 0.056297317
0000e0 68 64 10 3d 8f 22 c5 bd b2 4f b0 3d 97 75 6c bd
       0.035252005 -0.09625732 0.08608951 -0.05772933
0000f0 84 3e 97 bd 6d fe 14 bd e0 b0 c0 bd cb b5 2c 3d
       -0.07384971 -0.03637545 -0.09408736 0.04216556
000100 1c dd 8b 3d 81 6a 67 3d fc f9 f1 3c d0 92 33 bc
       0.06829283 0.056498054 0.029538147 -0.010960296
000110 c7 f3 e7 3c 36 b2 6e 3c 42 57 a7 bd 95 30 91 3b
       0.028314484 0.014568856 -0.0817094 0.0044308403
000120 52 f4 ac 3c 5d 45 95 3d 59 f7 6e 3d 47 4d 7a bc
       0.021112595 0.072886206 0.058341358 -0.015277213
000130 fd 0f 1f 3c 55 40 82 3d 4d 2a 89 3d 89 ea 33 bd
       0.009708402 0.063599266 0.06697521 -0.043924842
000140 39 73 df 3d 51 1e 8a bc 1c 58 1d bd 77 84 65 bc
       0.10910649 -0.01686016 -0.038414106 -0.014008633
000150 19 b4 92 3d dd 7a 2b bd e0 d9 44 39 05 01 3e bd
       0.07163257 -0.04186522 0.00018773181 -0.04638769
000160 95 cf 74 ba a1 2d a9 3d cb 3a 19 bd 04 68 f8 bc
       -0.00093387935 0.08260656 -0.037409585 -0.030323036
000170 a4 b2 12 3d a3 5c 69 3d 2c 7b 19 bb 20 9c 21 bd
       0.035814896 0.05697311 -0.0023419363 -0.039455533
000180 e5 4e 35 bb c6 aa 25 3d e4 d1 ec 3d 33 65 0f 3d
       -0.0027665433 0.040446065 0.11563471 0.03500862
000190 07 38 0e 3c b0 4c 0c 3d db f6 bb 3c 6d 75 fa 3b
       0.00868035 0.034252822 0.022944858 0.007643393
0001a0 f8 b0 5c bd 54 65 e3 bc 5e 7b 20 3d ea e5 1e 3c
       -0.053879708 -0.027758278 0.039180152 0.0096983705
0001b0 81 10 96 bd c7 43 3b bd c4 6d 31 3d ee d2 c0 bc
       -0.073273666 -0.045718934 0.04331757 -0.02353808
0001c0 2a 9a 85 3d 46 de 40 3d 90 5c c1 ba 28 57 5d 3c
       0.06523545 0.047086976 -0.0014752317 0.013509549
0001d0 eb 93 10 bd 82 22 ab 3c 42 96 51 bd 2e bf 18 bd
       -0.035297316 0.020890478 -0.051168688 -0.0372917
0001e0 43 ef 6e bd a4 3c e8 3a ac 41 2a bd fe f1 ae bc
       -0.058333647 0.0017718268 -0.041566536 -0.021355625
0001f0 1d 7f 31 bd 5d b8 4c 3d 95 84 5d 3d ed 8a 90 3d
       -0.043334115 0.04998051 0.05408152 0.07057748

g.4.weight f4 [128, 128]
000000 cd 7a d5 bc b1 ac 27 3d c1 ea 28 bd c7 b4 9d bc
       -0.026059533 0.040936176 -0.041239504 -0.01925124
000010 4e c1 16 3c bd 88 c3 bd fe 4d 62 3d f4 da 86 3d
       0.009201361 -0.09547565 0.05525016 0.06584731
000020 6f 8c ad 3d 8b 5d 86 3d 1a 19 31 3d 77 9f 5b bd
       0.08474051 0.06560811 0.04323683 -0.053618874
000030 cc 21 1d 3d a8 41 66 bd 2f 03 db 3c 43 aa 9b bd
       0.03836231 -0.05621496 0.026734916 -0.07600834
000040 66 2f 4a 3a cb 60 20 bd e1 68 8a bd 83 77 6e bd
       0.00077127514 -0.03915481 -0.06758285 -0.058219444
000050 35 87 07 bd 7a e4 86 bd 3e 6a 73 bd 69 7a d8 bd
       -0.033087928 -0.06586547 -0.059427492 -0.10570223
000060 a0 7f 46 3d af 97 4e 3d 04 66 12 bd bb 2f 91 3c
       0.048461556 0.050437625 -0.03574182 0.017722955
000070 f1 15 6a 3c f6 39 9a bd be 08 88 bc d0 eb ee 3c
       0.014287458 -0.075305864 -0.016605731 0.029165179
000080 41 86 8c 3c 87 8c 8e bc 6b fa dc 3c 6b b8 35 3d
       0.017153861 -0.017400993 0.026974877 0.044365328
000090 95 28 57 bd 91 ae b2 3c 1e 60 e5 bc 04 cc 45 3d
       -0.052528936 0.021811755 -0.027999934 0.048290268
0000a0 4a 98 f6 bb 8c 81 a3 bd 4f 51 99 bd bc 84 3b 39
       -0.0075254785 -0.079836935 -0.074862115 0.00017883157
0000b0 c9 69 a5 bc d1 f6 17 3d 2f 7d 31 bc 81 84 75 bd
       -0.020192044 0.037100617 -0.010833069 -0.05994082
0000c0 2f dd 96 bd 04 8c 7e bc 52 4c a5 3d 71 8d f1 bd
       -0.07366406 -0.015536312 0.080711976 -0.11794556
0000d0 3a b8 0c bb ce 9a 9d 3d 5e 3a b2 3d 89 7a 4f bd
       -0.0021472112 0.07695542 0.08702539 -0.050653968
0000e0 43 67 8a bd 1e ed c8 3d ef c9 85 bd b9 8a 0b 3d
       -0.06757977 0.098108515 -0.065326564 0.034067843
0000f0 bb 2c e0 bd 14 ed 6a 3d 4c 62 bd 3a 62 59 0a bc
       -0.10946032 0.057355 0.001444885 -0.008444162
000100 10 1f 26 bd f3 44 56 3d 33 26 de bc cb 43 25 bd
       -0.040556967 0.05231185 -0.027117824 -0.040347856
000110 7d 61 9e bd ba 40 a4 3d 10 73 79 3c e8 29 3a 3b
       -0.07733438 0.08020158 0.015225187 0.0028406326
000120 bd 59 95 bb 01 22 4d 3d c4 36 8d bd c3 17 84 3d
       -0.004557817 0.050081257 -0.06895211 0.06449845
000130 5a eb 5c 3d 43 dc f8 3c e4 5e 6b bc 0f f8 9a bd
       0.053935386 0.030378466 -0.014365885 -0.07566845
000140 43 6e 50 bc 13 b6 94 3d a2 f9 4b bd 2e 38 84 bd
       -0.012721601 0.072612904 -0.049798615 -0.06456028
000150 78 56 f3 bc c2 dc ae 3c 7f 94 a2 bd 63 57 89 3a
       -0.029704317 0.0213455 -0.0793848 0.0010478314
000160 64 2a af 3c 13 c8 5e bd 39 df 83 bd bf ad de bc
       0.021382518 -0.054390024 -0.06439061 -0.027182458
000170 66 da 4a bc 2e e9 35 3d d6 e0 ac bd 49 52 0f 3d
       -0.012381172 0.04441183 -0.084413216 0.034990583
000180 97 bf 92 bc ba dc 78 3d 6b f6 9d bd 17 94 32 3d
       -0.017913623 0.060757376 -0.07713016 0.04359826
000190 e1 db bc bc 4b f6 15 3d 5b 06 c9 bd 0b d2 2d bd
       -0.023054065 0.036611836 -0.09815665 -0.04243664
0001a0 f9 f3 8b bd da 93 e0 3c 36 17 88 bd 62 8a 8d 3d
       -0.068336435 0.027414251 -0.06645052 0.0691116
0001b0 97 1d b2 bd 30 3e 20 3d a4 40 40 bd 43 ef 60 bd
       -0.0869705 0.039121807 -0.046936646 -0.054915678
0001c0 36 03 29 3c 44 74 c1 bd 03 b5 20 3d ee 6d 4e 3d
       0.010315707 -0.09446004 0.039235126 0.050397806
0001d0 a5 a4 fb bc d5 43 93 bd 5d 9a 46 3d 63 2b 24 bc
       -0.030718157 -0.07190672 0.048487056 -0.01002011
0001e0 91 2e 30 bc 78 a5 05 3d 6e 43 91 bd 46 8f 0c bd
       -0.01075329 0.032628506 -0.07092939 -0.034316324
0001f0 b5 cf 2d 3d cc b9 29 3c d4 11 6a bd b7 04 a9 bd
       0.042434413 0.010359239 -0.05714591 -0.082528524
000200 1d 48 91 3d 9b fe 8a bd db 79 c9 bc 0e 58 7d 3c
       0.07093833 -0.067868434 -0.024594238 0.015462888
000210 b6 a7 c8 3c 1e 96 4d bd 19 3e cd bd 94 ab db 3c
       0.024494033 -0.05019199 -0.1002161 0.026815213
000220 c5 b2 06 3c 0b e7 43 3d be 7b 5d 3d 5e 04 0b 3d
       0.008221333 0.04782776 0.054073088 0.03393971
000230 15 3d 78 3c e4 a2 3d 3d 30 bb 68 3d f6 0d 11 bd
       0.015151282 0.046297923 0.05681914 -0.035413705
000240 55 b9 16 3d 22 e5 07 bd 45 57 da bc ba b6 f3 3c
       0.03679784 -0.033177502 -0.026652941 0.029750217
000250 c1 0f d8 bd fa 2d 9b 3d e1 66 9a bc b0 7e 3f bd
       -0.1054988 0.07577129 -0.018847885 -0.046751678
000260 1b 99 0f bc b9 9d ac bd d8 89 a0 3c 50 14 41 bd
       -0.0087645305 -0.08428521 0.019596979 -0.047138512
000270 86 61 0a 3d 68 da 35 bc 6b 4a ba 3c 59 d5 5f 3d
       0.03378441 -0.011099435 0.022740563 0.054646824
000280 5d 0e 60 bd 9e 28 d5 ba b0 c4 dc 3d 10 27 7f 3d
       -0.054701198 -0.0016262715 0.10779703 0.062293112
000290 28 a3 17 3d d5 dd 31 3d a7 23 50 bd 4d 41 d4 bd
       0.037020832 0.043424446 -0.05081525 -0.10364018
0002a0 47 4f 9c bd f2 96 a4 3d e0 db 62 3d 86 c0 97 3d
       -0.076323085 0.08036603 0.05538547 0.07409768
0002b0 30 2d 4c 3d 00 04 8f bc 95 1b 90 3d 01 16 0a 3c
       0.04984778 -0.017457962 0.07036511 0.008428098
0002c0 dc df 1e 3d 68 e9 41 bd 34 79 25 bd 95 ad ba bd
       0.038787708 -0.047341734 -0.04039879 -0.091151394
0002d0 c5 1b 76 3b 97 ee 40 3d ef e3 30 bd 1e 0b 78 bd
       0.0037553173 0.047102537 -0.043186124 -0.060557477
0002e0 ca 45 ac 3a a8 b3 ba bd c2 28 95 bc 88 54 95 3c
       0.0013143357 -0.09116298 -0.018207911 0.018228784
0002f0 cb 60 fc ba cf 96 24 3d 5d 74 31 3d 86 11 8e bd
       -0.0019254921 0.040182885 0.043323863 -0.06936936
000300 00 3a b9 33 62 77 9f bc 6a 07 3e 3d 91 65 65 bb
       8.625284e-08 -0.019466106 0.04639379 -0.0035003165
000310 b0 88 96 bd e8 56 b1 bc 15 1b 7f bd 6b ef 2f bd
       -0.0735029 -0.021647885 -0.062281687 -0.042952936
000320 49 ec 3b bc 16 8b d1 bc f6 d3 8b 3d 0d 12 7c bd
       -0.011469909 -0.025579017 0.06827538 -0.061540652
000330 bf 4d 8b bc 53 fe 8f 3d 03 7d 23 3d 91 0b ff 3b
       -0.017004846 0.0703093 0.039914142 0.0077833612
000340 7f 14 da 3c 5d d3 af 3b 24 43 0b bd 52 fa 9b 3d
       0.026621101 0.0053657726 -0.033999577 0.07616104
000350 26 49 40 3d 7a cb 9c bd 7d 2b 83 3d d3 52 82 3d
       0.04694476 -0.076559976 0.06404779 0.06363454
000360 ff ef c8 bc 49 a8 22 bd 47 75 2c bb c2 fe c6 bc
       -0.024528502 -0.03971127 -0.002631502 -0.0242914
000370 b7 b4 70 bd b0 76 0a bc 5c 11 b5 bd a4 68 2a bd
       -0.058766093 -0.008451149 -0.08841202 -0.0416037
000380 b5 1f 07 3d 77 aa 2d bd 10 2c 1d bc 07 3d 96 3d
       0.032989223 -0.042398896 -0.009593025 0.07335859
000390 29 31 8f 3d 1d 79 2e bd 7a 1c ee 3c 02 f2 86 bd
       0.069917984 -0.04259597 0.029066313 -0.06589128
0003a0 73 e6 1f 3d 88 50 e4 bd db 81 84 3d 3a 9f 43 3d
       0.039038133 -0.111481726 0.064700805 0.047759272
0003b0 80 83 5e bc 8d cb 69 bd cf 90 88 3d ac c2 5e 3d
       -0.013581157 -0.057078887 0.06668245 0.054384872
0003c0 1a 9c c1 3d d6 68 80 bd b1 ac b2 bd 60 6f b4 bd
       0.09453602 -0.06269996 -0.087243445 -0.088103056
0003d0 c4 b8 29 bb 26 5f 3c bc e6 3d a9 3d 05 43 2c bd
       -0.0025897482 -0.0114972945 0.08263759 -0.042056102
0003e0 f0 a1 b5 bd 68 a1 00 3d 38 3a b3 3c 0d e9 0a 3d
       -0.08868778 0.03140393 0.021878347 0.03391366
0003f0 3d 31 5d bd 3b 59 b0 bd a8 67 94 bd 65 82 ca 3d
       -0.054002035 -0.08610769 -0.07246333 0.09888152

g.4.bias f4 [128]
000000 a5 3c 88 bc 37 6a b5 bd fd 56 ac bc bc ca 84 3d
       -0.01663048 -0.088581495 -0.021037573 0.06483981
000010 c0 88 cc 3d b5 87 36 3c 7f 98 c3 3c a8 dc 94 3d
       0.099870205 0.0111407535 0.023876427 0.07268649
000020 69 97 9b bd f8 6b c7 bb 99 1a 45 3d 91 a1 a1 bd
       -0.075972386 -0.006085869 0.04812107 -0.078921445
000030 3d 4e 3b bb 79 ec fc bc 4b 82 3a bd 33 f9 34 bd
       -0.002858057 -0.030874478 -0.045534413 -0.044182967
000040 7c a1 6c 3d 7e d2 25 3d 0f 27 bc 3d f0 75 0e bd
       0.05777119 0.040483944 0.09187137 -0.034780443
000050 f7 04 58 3d 69 65 53 3d e1 6a ec bc e0 38 8e 3c
       0.05273911 0.051610384 -0.028859558 0.017361104
000060 3d ef 42 3d ba 8d 80 bd fa f6 77 3a af 39 89 bc
       0.047591437 -0.06277032 0.00094591046 -0.016751138
000070 48 9d 72 3d e4 b4 72 3d 11 ae 1b bd 8c 7f 45 3b
       0.059232026 0.059254542 -0.0380078 0.0030135838
000080 7a 05 3c 3d fd 96 7d 3d 8c 0a 12 bd 36 de 5a 3c
       0.04590366 0.06191157 -0.03565459 0.013358643
000090 6d 6a ff 39 39 78 1c 3b a1 b4 90 3c ec cb 04 bb
       0.00048716684 0.002387537 0.017664256 -0.0020263148
0000a0 5b 48 b0 bc a9 56 8d bd 32 ca 80 3d e6 12 1b 3d
       -0.021518877 -0.06901295 0.06288566 0.03785982
0000b0 e4 5f 99 ba 6c 07 82 3c 3d 64 57 3b cc ab eb bb
       -0.0011701551 0.01587268 0.0032866143 -0.0071921106
0000c0 0c e7 0c bc 8f b4 3e 3c e1 15 9b bd b1 5e 0f 3d
       -0.008600008 0.011639728 -0.075725324 0.035002414
0000d0 90 d0 98 3d 41 23 e3 3c 52 d3 1b bd 20 02 85 3d
       0.07461655 0.027726771 -0.038043328 0.06494546
0000e0 88 0f c9 3d 25 26 96 3d 80 b7 1c 3d f5 f3 d5 3a
       0.098174155 0.07331494 0.038260937 0.0016323315
0000f0 85 91 55 3d d9 90 b8 3d a0 21 95 3d 26 76 83 3c
       0.05214073 0.090120025 0.07281804 0.016047549
000100 e7 3a c4 bc 2d 19 b0 3d d0 07 c8 bb 6d ea f1 bc
       -0.023953868 0.08598552 -0.006104447 -0.029530728
000110 4e 0b b1 3c 04 06 4f 3c 75 78 bf bd 91 f9 20 3c
       0.021611836 0.012635712 -0.09349147 0.009825126
000120 9b 93 ba 3b 94 c3 ba 3d 68 97 18 3d 19 92 8f bd
       0.0056938655 0.09119335 0.037253767 -0.07010288
000130 e1 a1 a6 3d 74 ce 3a bd 8a 79 8a 3d 7b 6c b9 bc
       0.08136345 -0.045607045 0.06761463 -0.022634735
000140 84 3d 25 bc a2 cb f0 bc 5b 16 62 3d 78 4c 48 3d
       -0.010085467 -0.029393975 0.0551971 0.04890105
000150 86 7e 07 bd 7e 66 3f 3d 1d 39 99 bd 68 2b 33 3c
       -0.033079647 0.046728604 -0.074815966 0.010935642
000160 95 bc 9c bd 3e a4 86 3d 4a 6b 38 3c 2d a9 b4 bc
       -0.07653157 0.065742955 0.011256048 -0.022053326
000170 e0 16 85 3d 4c 7f a8 bd b4 40 7e 3d ea 75 91 3c
       0.06498504 -0.08227405 0.062073424 0.017756421
000180 a0 26 dd bd 71 b0 0a 3d 1f e5 f1 bc 91 bf 00 bd
       -0.10798383 0.033859674 -0.029528199 -0.031432692
000190 8f b2 1f 3d 46 1e 67 3c 6b 9d 2d bd c9 3a 05 bd
       0.038988646 0.014106339 -0.042386454 -0.032526765
0001a0 e5 72 92 3d 58 17 2c 3d 89 db b1 bd 53 53 7d bc
       0.07150821 0.04201445 -0.08684451 -0.015461761
0001b0 9f a3 5b bd 63 a3 40 bc 11 a5 26 3c f5 3f ac 3c
       -0.053622838 -0.011757704 0.010171191 0.02102659
0001c0 8f 68 9e 3c 13 b9 cd bb 5d dc bd 3d 38 a9 95 3d
       0.019336967 -0.006278166 0.092705466 0.073076665
0001d0 c5 02 84 bd 78 9c fa bc 43 bf ec bc 74 df f6 bc
       -0.06445841 -0.030592188 -0.028899794 -0.030135848
0001e0 c9 26 c4 3c 36 30 eb bc 60 f5 99 bc 21 d9 ae 3d
       0.023944275 -0.028709512 -0.018793762 0.08537508
0001f0 9d df f4 3c 7a 60 ec bc bb 14 a0 3c a7 fc c9 bc
       0.029891783 -0.028854597 0.019541135 -0.024656607

g.6.weight f4 [8, 128]
000000 f2 2f 1c bc aa fe 91 bd 59 42 9f bd 01 b0 14 3d
       -0.009532915 -0.071286514 -0.07776327 0.036300663
000010 48 17 b4 bd ad f9 63 bd 30 d5 1e bd ac 68 6f 3c
       -0.08793503 -0.05565803 -0.03877753 0.014612358
000020 bd 63 10 bc f5 5d bf bd 7a 82 d7 bc ee 8d 03 3b
       -0.008812842 -0.09344093 -0.026307333 0.002007361
000030 4f 8c a3 bd 6a 64 cc 3c 10 f6 f2 bd db 82 77 bd
       -0.07985746 0.024950225 -0.11863339 -0.060427528
000040 8c d1 03 3d 7f ef 6d bc ab c1 74 bd b7 cd a1 bd
       0.03218226 -0.014522432 -0.05975501 -0.07900565
000050 b3 e5 92 3c f3 03 43 3d d8 b4 99 bd ce 5d 41 3c
       0.017931795 0.04761119 -0.07505196 0.01180215
000060 35 eb 51 bd 6e cc 14 bd 5a ff a0 3d e6 88 dd bb
       -0.0512497 -0.03632777 0.078612044 -0.0067607043
000070 fd d7 84 3d 6d 14 b0 3d 44 46 9d 3d 25 05 ac 3d
       0.06486509 0.08597646 0.07679418 0.08399419
000080 77 1b 70 3d 1f 7b 82 bd 20 bf 85 3d 81 4f 8c 3d
       0.058619943 -0.0637114 0.06530595 0.06851102
000090 03 0f 8a bc e0 ca 3d bd f1 7e b0 3d c3 c9 2d bb
       -0.016852861 -0.046336055 0.08617962 -0.0026517964
0000a0 02 d7 65 bc 97 0e c6 bd 2a 8b 9e 3d 3f 74 d7 3d
       -0.014028313 -0.096707515 0.07741387 0.10520219
0000b0 a3 78 98 3c a2 49 ad 3d 74 ed 03 be 6f 33 73 bd
       0.018612212 0.0846131 -0.1288355 -0.059375223
0000c0 d8 eb 9f 3d 8e 92 b5 3b ea 0b 35 3d 8b f0 2d bc
       0.078086555 0.0055411523 0.044200815 -0.010616432
0000d0 8b f7 ab bd 04 d6 0e 3e a5 f2 71 bd 38 eb 03 3e
       -0.083968244 0.13948828 -0.059069294 0.12882698
0000e0 66 0d 7e 3d 29 d5 a7 3b f2 a9 a3 3d 0c eb 59 bc
       0.062024496 0.005121846 0.07991399 -0.013300668
0000f0 2a ea 94 bd 91 47 e2 bd d3 f6 db bd 7e 7b a5 3c
       -0.07271226 -0.110488065 -0.10740437 0.020200487
000100 03 1c 7a bd 73 f3 a5 bc 51 4b 3d 3d 06 90 a5 bd
       -0.06106187 -0.020257687 0.046214405 -0.08084111
000110 68 e7 21 3b f1 4b 59 3d dc 63 92 bd 55 86 62 bd
       0.002470458 0.05305094 -0.07147953 -0.05530389
000120 44 b5 90 3d 0c 77 dd bc 49 86 96 3d ba e8 16 bd
       0.07065824 -0.027034305 0.073498316 -0.03684304
000130 7a 0d 03 bd 1a be 46 bd 3a a0 71 3d 76 f4 25 3d
       -0.031995274 -0.04852114 0.058990695 0.04051634
000140 99 98 91 3d 0c 13 39 3d e1 6c 07 3d 07 9c da 3d
       0.07109184 0.04518418 0.03306282 0.10674291
000150 75 b0 9a 3a ac dd 8c 3d 61 0d 3a 3d c8 da 0c 3d
       0.0011801856 0.06878218 0.045422915 0.034388334
000160 9f 33 25 3d 2c 16 07 3d ce e5 8d 3d c1 0a 74 3d
       0.040332433 0.03298013 0.069285974 0.05958057
000170 1a 09 87 3d 35 c9 a9 bd 57 82 15 3d 35 8e 99 bd
       0.06593533 -0.0829033 0.036501255 -0.07497827
000180 96 e4 d9 3b d0 7d 0a 3d 94 0d 23 bc d4 cb d3 bd
       0.006649564 0.03381139 -0.009951968 -0.103416115
000190 09 30 f9 3c d2 18 12 bd dd 43 97 bd ea 06 d8 3d
       0.030418413 -0.0356682 -0.07385991 0.10548194
0001a0 53 c6 1d bd 68 03 c4 bd b2 21 6b bd 70 2a 7b bd
       -0.038519215 -0.09570962 -0.05740518 -0.06131977
0001b0 ac 50 94 bd 32 0c b1 bd a5 9f 29 3d a1 a4 09 3d
       -0.072419494 -0.08644904 0.041412015 0.033604268
0001c0 92 09 e2 3c a5 c7 8b 3d 43 9c 34 bd 48 8b bb bc
       0.027592454 0.068251885 -0.044094335 -0.022893563
0001d0 1e 9b 55 3c 70 58 0b bd ef db d1 bc 5f 5d 92 bd
       0.013037471 -0.034019887 -0.025617568 -0.071467154
0001e0 86 67 29 bd f8 af dc bc 04 a6 70 3d f2 3a 91 bd
       -0.041358493 -0.026939377 0.058752075 -0.07091321
0001f0 d0 20 93 bd 06 be 53 bd 73 e7 d2 3c a0 02 9e 3d
       -0.07183993 -0.051694892 0.02574513 0.077153444
000200 9c a9 e0 3b cd ba 91 bc 6d 85 a3 bd 9f e1 f3 3c
       0.0068561565 -0.017789269 -0.07984433 0.02977067
000210 7f c1 0b 3b c9 3e df 3c b6 11 cb 3c f0 b0 cf bd
       0.002132505 0.027251618 0.024788719 -0.1014117
000220 17 0d 96 bd 1f 9b 63 3d 02 14 0e bd af 5a 2d bd
       -0.073267154 0.055567857 -0.03468705 -0.04232281
000230 2e 55 7d bc 15 06 aa bd 09 37 40 bb c4 97 5c 3d
       -0.015462203 -0.08301941 -0.0029329679 0.053855672
000240 e8 93 3b 3d d6 18 ad bd 0a 6d 36 3d 89 e2 84 3d
       0.04579535 -0.08452003 0.04453758 0.06488521
000250 90 5b 8c 3d e6 2f 20 bd 40 51 37 bd 93 ea 38 bd
       0.06853402 -0.03910818 -0.04475522 -0.045145582
000260 aa c8 e3 3c 9f de 8c 3d 08 21 57 bd f1 d3 b7 3c
       0.027805645 0.06878399 -0.052521735 0.022439929
000270 29 10 de 3c 9d 25 ff bb e3 ca a8 3d 31 99 83 3b
       0.027107315 -0.0077864663 0.082418226 0.0040160646
000280 8a 9e d2 bc 7d b4 99 bd 18 ea af 3d 6d 5d 40 3d
       -0.025710363 -0.075051285 0.08589572 0.046964098
000290 09 ad a2 3d 10 b3 ec bc 44 a3 ab bc 37 de 13 3d
       0.0794316 -0.028893977 -0.020951875 0.036100592
0002a0 0d 1b ca bd 48 bd bc bd 65 58 26 bd e5 fa 41 bd
       -0.09868441 -0.0921579 -0.040611643 -0.047358412
0002b0 84 60 ca 3d 2f 8b 9b 3d 90 8a 2d bd b1 e1 c6 bd
       0.0988169 0.075949065 -0.04236847 -0.09711016
0002c0 17 8b c3 bd d2 a5 c5 bc ac 1d b1 bd 55 00 61 bd
       -0.09548014 -0.02412692 -0.086482376 -0.054931957
0002d0 5c a6 5a 3c 14 a8 25 bd 32 79 67 bd 44 27 a3 ba
       0.013345327 -0.040443495 -0.056512065 -0.0012447615
0002e0 98 f6 c6 3d 13 c2 81 3d 46 40 32 3a 87 4a 92 3d
       0.09715003 0.06335845 0.00067997386 0.07143121
0002f0 c2 a1 e1 bc c1 65 51 bc 10 5f 3a bc c7 4b 50 bc
       -0.027542952 -0.012780608 -0.011375204 -0.012713379
000300 99 2b 74 bc 76 1e 8e 3d 0f 95 76 3d ea 1b ca 3d
       -0.014902973 0.06939404 0.060200747 0.098686054
000310 b5 67 d0 bd 52 65 b8 bd b6 2f 73 bd de 3f 8e 3c
       -0.101760305 -0.090037 -0.059371673 0.017364439
000320 6c 8a 75 3c f2 98 8b 3d a7 03 b3 bd 54 04 7c bd
       0.014986616 0.068162814 -0.08740931 -0.061527565
000330 0f b3 8e 3d 3f 49 c6 3b 87 da a0 bd 19 c9 be bd
       0.069677465 0.006051212 -0.07854181 -0.093157
000340 c3 1f c2 3d b6 94 1b bc 01 6a 92 3d 48 15 bb bd
       0.09478714 -0.009495905 0.07149125 -0.091349185
000350 cd 62 62 bc 0d 16 23 3d 77 4c 79 bd 64 3f 51 3c
       -0.013817501 0.03981595 -0.06086394 0.012771461
000360 35 76 b0 bd b6 42 b9 bd 55 cb 90 3c 33 a6 62 3d
       -0.08616296 -0.09045927 0.017675081 0.05533428
000370 3a 8e 25 3c 5d e1 0c bd 42 ea 84 3d 53 c9 96 3d
       0.01010471 -0.03439461 0.06489994 0.07362618
000380 7c 8c 13 3c f4 fb 74 3d 48 1f 85 bd ad 47 b9 bd
       0.009005662 0.059810594 -0.06500107 -0.09046874
000390 26 2c d6 3c 80 f6 72 bd a8 35 5b 3d 27 b5 d6 bc
       0.026144098 -0.059317112 0.053517967 -0.026209427
0003a0 e3 3d c1 bc 83 5c 98 bd 25 46 b6 bc 64 ad d1 3c
       -0.02358908 -0.0743952 -0.022250244 0.025595374
0003b0 c9 aa 5b 3d ef 75 6b bd 57 d6 a6 bc 0a fd 8d bd
       0.05362967 -0.057485517 -0.020365877 -0.06933029
0003c0 25 8b 7a bc 42 d2 58 bb 85 90 59 3d a7 0c 49 3a
       -0.015291964 -0.0033084308 0.05311634 0.0007669427
0003d0 1e 75 1c 3d 4d cc 83 3d 10 11 ce bd 93 86 19 3d
       0.03819763 0.06435452 -0.10061848 0.037481856
0003e0 01 1d fd bc 1a 22 8c bc ca 6e 91 3c 85 97 a4 3d
       -0.03089762 -0.017106105 0.017753024 0.080367126
0003f0 b5 af 03 bc 7b d7 89 bd 00 f9 e7 3c ad 58 08 b9
       -0.008037497 -0.06730553 0.028316975 -0.00013003005

g.6.bias f4 [8]
000000 31 1c 8b bd eb 6a 96 bd c9 ec 04 bd f5 53 86 3c
       -0.067924865 -0.07344612 -0.03245238 0.016397456
000010 6f 73 80 bd c7 54 96 bc 48 da c2 3c 67 71 88 bd
       -0.06272017 -0.018350972 0.023785725 -0.06662255

Gnl.0.weight f4 [128, 8]
000000 7e 49 21 be 9a d7 81 3d 40 cc cb 39 d7 d8 2f be
       -0.15750691 0.06339951 0.00038871355 -0.17172562
000010 59 d5 be bc 23 67 94 be f7 4f f2 bd b1 b0 9f 3d
       -0.023295091 -0.28984937 -0.11831658 0.07797373
000020 a6 eb 7c 3e d5 ea 32 3e be 1b 86 be f7 d9 4f 3e
       0.24699268 0.17472394 -0.2619304 0.2029799
000030 02 84 3e 3e aa 08 1a be 35 b6 70 3e 81 49 95 3e
       0.18605044 -0.15042368 0.23507006 0.29157642
000040 b4 c7 3b bc d2 47 d6 bd 18 04 9b 3d db d9 46 be
       -0.011461187 -0.104629174 0.0756914 -0.19419043
000050 0b af 86 3d 08 74 41 be 90 83 80 be 1b e6 aa be
       0.065763555 -0.18891919 -0.25100374 -0.33378682
000060 3a 22 e6 3d 1e fb 87 be c1 91 1e be f9 6f a9 3e
       0.11236997 -0.26558775 -0.15485288 0.3309324
000070 74 00 88 3e a9 c9 8e 3e f3 12 b9 be 86 02 36 be
       0.26562846 0.2788823 -0.3614727 -0.177744
000080 f5 22 72 3e da 7b 7c 3d 31 fd 93 bd 85 fc 16 3e
       0.23646148 0.06164155 -0.07226027 0.14744766
000090 d8 31 91 be 2b d4 ef bb fd d3 81 be 47 60 a7 be
       -0.2835834 -0.0073189936 -0.25357047 -0.3269064
0000a0 a2 70 c3 3d 30 d9 45 be 8c e4 a7 be c0 56 35 3c
       0.095429674 -0.19321132 -0.32791555 0.011068046
0000b0 40 e5 10 3e 3a 27 22 3d 9d 40 4b be 34 86 b9 be
       0.14149952 0.03958819 -0.19848867 -0.362352
0000c0 10 79 41 3e a0 bc f7 3c 82 18 12 be 37 58 27 be
       0.18893838 0.03024131 -0.14267161 -0.16342245
0000d0 40 46 59 3e 86 27 3a be cc f1 23 be ca ea 8f 3e
       0.21218204 -0.1817914 -0.16010207 0.28108817
0000e0 1c 0d 85 3e cc f2 26 3e f5 e5 55 3e 08 7e 1b be
       0.25986564 0.16303557 0.20888503 -0.15184796
0000f0 61 a6 c2 3d a4 95 2a be eb 27 ec bd 94 ba 7d be
       0.095043905 -0.16658646 -0.11531051 -0.24778205
000100 c0 15 b5 be b3 0c 0f 3e 78 f8 1f be e6 32 aa 3d
       -0.35368156 0.13969688 -0.15622127 0.08310489
000110 d2 43 8e be 50 4a 85 3e 40 a2 7c 3e 66 b5 9c 3c
       -0.27786118 0.26033258 0.24671268 0.019129466
000120 98 41 a0 3d 8c 2a 48 3e 15 a2 13 3d d1 4a 87 be
       0.07825011 0.1954748 0.036043245 -0.26424268
000130 06 03 c7 3d 7e b8 0f 3e bc 1f 4d 3e b8 d3 d6 3d
       0.097173735 0.14035222 0.20031637 0.10489601
000140 a5 7c 29 3e 8f a7 03 3e 45 fb 0a be 10 64 20 be
       0.16551454 0.12856887 -0.13572414 -0.15663171
000150 32 ad 46 be d2 57 98 be fb a3 3e be ab e8 a7 3e
       -0.19402006 -0.29754502 -0.18617241 0.327947
000160 7c 47 af be 10 35 9f 3e a0 44 fc bd 5c 7f 7f 3e
       -0.34234226 0.3109517 -0.12317777 0.24950927
000170 c7 05 c9 3d 34 a1 91 be 86 8d 88 bd fc 43 a7 be
       0.09815555 -0.284433 -0.066676185 -0.32669055
000180 9d 3e 97 3d 81 44 04 be 95 36 9a 3e 1f 0b 18 3e
       0.073849894 -0.12916757 0.30119768 0.14847992
000190 36 39 3c 3d b7 3c 53 be 17 a4 20 bd 41 9f 93 be
       0.045952998 -0.2062863 -0.03921899 -0.2883244
0001a0 83 bf 57 3e 1a 34 45 be 37 88 92 3e 52 35 24 be
       0.2106915 -0.19258156 0.2861955 -0.16035965
0001b0 fd 9c b5 bd 00 8e 75 3e 3e 5a 86 be 42 aa 82 3d
       -0.08867834 0.2397995 -0.26240724 0.0638013
0001c0 53 01 55 3e 3e 37 41 be 6c 17 4d bd 0c e6 11 3e
       0.20801286 -0.1886873 -0.050071165 0.14247912
0001d0 e2 9a 3d 3e a0 6d 20 be 25 71 41 3e ff 60 62 be
       0.18516114 -0.15666819 0.18890817 -0.22107314
0001e0 f5 f1 4b bd ed 0b a9 3d f7 55 76 3c 11 47 0a 3d
       -0.049791295 0.08254228 0.015035144 0.03375918
0001f0 53 0b b5 bd 53 18 cb bd 11 28 a3 3d 76 0b 1e 3e
       -0.088400505 -0.09916749 0.079666264 0.1543406
000200 e8 a0 31 3e 7e 2a ea bd b7 c2 9d be ce 85 91 3e
       0.17346537 -0.11433886 -0.30812618 0.28422397
000210 97 53 32 be 27 ba 98 3e ca dd 5e 3e 6e 7d 16 3e
       -0.174147 0.29829523 0.21764293 0.14696285
000220 b3 b0 c0 bd 38 1e 74 bd 3b b3 59 3c 2f bf 48 be
       -0.09408703 -0.05959913 0.013287361 -0.19604181
000230 53 36 4c be 8b 23 52 3e 03 4b e0 bd da 7d 1e be
       -0.19942598 0.20521371 -0.10951807 -0.15477696
000240 1f 47 08 be fa 76 3d be 2e cd 13 be 4b c5 3c 3e
       -0.1330838 -0.18502417 -0.14433739 0.18434636
000250 62 88 d4 bb ae f4 a0 bd f4 80 84 be b2 f6 97 3e
       -0.0064859847 -0.07859169 -0.25879633 0.296804
000260 18 d4 94 3c 32 fa 37 be 71 78 4f bd 93 61 a5 3d
       0.01816754 -0.17966536 -0.05065197 0.080752514
000270 13 00 83 be ce 3c 36 bd d4 e7 d0 bb bf 9a da 3d
       -0.25585994 -0.04449158 -0.0063752923 0.10674047
000280 d7 d6 bf bb 24 55 71 bd 6a 94 9f 3e 3b 57 b3 3b
       -0.0058544683 -0.058919087 0.31167918 0.005473045
000290 c7 df 22 be ac 7b 9d 3e 29 05 9c 3d 6a df 52 be
       -0.15905677 0.30758417 0.07618172 -0.20593038
0002a0 3f 65 e5 3d 8d 8c 87 be 21 fa 40 3e 03 8d be bd
       0.11200952 -0.2647442 0.18845417 -0.093042396
0002b0 fa 31 ad 3d 2b 7f b6 bd d6 27 6b 3e b6 04 85 be
       0.08456798 -0.08910974 0.22964415 -0.25980157
0002c0 f4 e3 30 be 84 0b 8d bc 38 b6 96 be 23 e9 a9 be
       -0.17274457 -0.017217405 -0.29435897 -0.33185682
0002d0 51 2e c8 bd 36 cf 13 3e ef f3 9e be 0b 31 3d 3e
       -0.09774459 0.14434513 -0.31045482 0.1847574
0002e0 b8 d1 6d bd 35 1e a1 3e a3 ae 5e bd 9b 7b 8b be
       -0.05806133 0.3146836 -0.054365765 -0.2724274
0002f0 cf d9 67 3e e0 22 8c be 23 29 53 be ec 12 9c bd
       0.22641681 -0.27370358 -0.20621161 -0.076207966
000300 86 e9 9c be bb e4 b4 b9 ed 9d 0e 3e 8c c5 54 be
       -0.30646914 -0.00034502693 0.13927431 -0.20778483
000310 71 2c 50 3d 5e 20 3d 3e 98 e8 5b 3e 8c 81 9c bd
       0.050823633 0.18469378 0.21475446 -0.076418966
000320 0d 2f aa 3e c1 e6 1f 3e a8 21 3f bd bb 2b 04 bd
       0.33239022 0.1561537 -0.046662956 -0.032268267
000330 56 8d 92 be 93 db 75 3d 58 04 4f be 61 9a de 3d
       -0.28623456 0.060023855 -0.20216501 0.10869289
000340 94 bf 5a 3e 1d d3 2d be a1 51 ab bd a3 5a 5a be
       0.21362144 -0.16975065 -0.08365179 -0.21323638
000350 92 1d f5 bd ed 28 b9 3e d5 71 ba be 03 05 7f 3e
       -0.11968531 0.36164036 -0.36414972 0.24904256
000360 ea 02 74 be 7b 3d 6f 3e bb 41 0f be fc 69 11 3e
       -0.23829237 0.23363297 -0.13989918 0.14200586
000370 79 e3 2d 3e 8e 84 2e 3e 21 73 11 3e 87 ce 72 3e
       0.16981305 0.17042753 0.14204074 0.23711596
000380 f1 97 6f bc 3e 11 30 bd e1 a3 0d bd 7f 56 21 3e
       -0.014623628 -0.042985193 -0.034580115 0.15755652
000390 90 af d5 3c 32 7b 63 be a5 30 ef bd b4 57 fd bd
       0.026084691 -0.22214964 -0.116792 -0.12370244
0003a0 0f 16 a0 be d5 7d 77 bc 41 ab f6 bd 46 ad 62 be
       -0.3126683 -0.015105684 -0.12044383 -0.22136411
0003b0 89 c6 5b 3e 51 b8 a9 3e fa a5 f6 3c 99 a4 71 be
       0.21462454 0.33148435 0.03010844 -0.23597945
0003c0 63 61 6f 3e 24 69 ec 3d 29 23 5c be 63 47 67 3c
       0.23376994 0.115434915 -0.21497788 0.014116141
0003d0 be 3a ab 3d a1 a5 38 3e 73 2f 61 be 15 9f df 3d
       0.083608136 0.18031932 -0.21990757 0.10919014
0003e0 4f a8 6a 3e a9 f2 4f be a8 9f 1e 3d 15 a3 85 be
       0.22915767 -0.20307411 0.03872648 -0.26100984
0003f0 b6 99 fa bd bb 6f 53 be c0 6b 0a 3e 2f 41 cd 3d
       -0.12236349 -0.2064809 0.13517666 0.100221984
