KMM-3d/kmm_outputs_no_obs_slice_dec_idlift/kmm_autonomous_no_obs_slice_dec_idlift.pt (torch, 285806 bytes, 17 tensors)

A_param f4 [8, 8]
000000 78 43 d9 ba 84 9e 90 b9 08 24 97 39 ef 5f 8c bb
       -0.0016575893 -0.00027583924 0.0002882781 -0.004283897
000010 c3 6e fb ba 4d bc 04 bb 5b 42 75 3a 32 63 6d 3a
       -0.001918279 -0.0020253838 0.0009355896 0.0009055614
000020 63 c4 d0 b9 31 05 49 38 6c 14 02 3c 1c ab 01 3a
       -0.0003981917 4.792697e-05 0.007939439 0.0004946457
000030 22 d5 b9 3a cb 6d 75 3a a0 fb 0c 3b c6 02 41 ba
       0.0014177898 0.0009362369 0.0021512285 -0.0007362779
000040 e1 7e b9 39 3e 86 95 b7 8e 84 fd b9 cf 6f ad 3b
       0.00035380482 -1.7824696e-05 -0.0004835468 0.0052928696
000050 3e e6 62 bb 12 b3 86 3c 37 e5 4a 3c 2b 33 09 bc
       -0.0034622098 0.01644281 0.012383751 -0.008374016
000060 00 00 00 00 00 00 00 00 00 00 00 00 00 00 00 00
       0.0 0.0 0.0 0.0
000070 00 00 00 00 00 00 00 00 00 00 00 00 00 00 00 00
       0.0 0.0 0.0 0.0
000080 00 00 00 00 00 00 00 00 00 00 00 00 00 00 00 00
       0.0 0.0 0.0 0.0
000090 00 00 00 00 00 00 00 00 00 00 00 00 00 00 00 00
       0.0 0.0 0.0 0.0
0000a0 00 00 00 00 00 00 00 00 00 00 00 00 00 00 00 00
       0.0 0.0 0.0 0.0
0000b0 00 00 00 00 00 00 00 00 00 00 00 00 00 00 00 00
       0.0 0.0 0.0 0.0
0000c0 00 00 00 00 00 00 00 00 00 00 00 00 00 00 00 00
       0.0 0.0 0.0 0.0
0000d0 00 00 00 00 00 00 00 00 00 00 00 00 00 00 00 00
       0.0 0.0 0.0 0.0
0000e0 00 00 00 00 00 00 00 00 00 00 00 00 00 00 00 00
       0.0 0.0 0.0 0.0
0000f0 00 00 00 00 00 00 00 00 00 00 00 00 00 00 00 00
       0.0 0.0 0.0 0.0

g.extra.0.weight f4 [128, 3]
000000 03 54 26 bd f4 8b 9e 3e f6 8f fa be bf 5b d2 be
       -0.040607464 0.3096615 -0.48937958 -0.41085622
000010 96 e7 60 be 31 e9 15 3e 64 fd 61 bd de 49 e6 3e
       -0.21963343 0.14639737 -0.055173293 0.4497823
000020 47 a4 9b bd 0a 04 38 3e 22 f7 12 be 1e da b9 bd
       -0.07599693 0.17970291 -0.14352086 -0.09074806
000030 e6 d3 11 bf 09 da c0 be 2b ba 77 be 75 aa d0 bb
       -0.56963956 -0.37666348 -0.24192111 -0.0063679763
000040 b5 3b 62 3e ff c1 a7 3e 97 d8 c4 be 4d da 85 be
       0.22093089 0.32765195 -0.38446495 -0.26143113
000050 5d 25 4b 3e 5d 74 fd 3e 04 2f f1 bd 4c 20 e3 3e
       0.19838472 0.4950284 -0.11776546 0.44360578
000060 46 54 0d be cc bc 40 3d 49 bf 08 3f f5 76 01 bf
       -0.13801679 0.04705505 0.5341688 -0.5057214
000070 25 e2 c6 be 9b d1 f8 bd 34 9c de bd f9 6d 06 3f
       -0.3884441 -0.12149354 -0.10869637 0.52511555
000080 97 6e c4 be c4 19 85 be a9 b0 b8 be 05 d8 f9 be
       -0.38365623 -0.2599622 -0.3607228 -0.48797622
000090 42 2d 92 be 4d cb ff 3e 90 ca 57 3e 30 9e b1 3e
       -0.28550154 0.49959794 0.21073365 0.34691
0000a0 99 41 fa 3c 15 8a 9b be c7 b6 43 3d b0 3c 0d bf
       0.030548858 -0.30378786 0.047781732 -0.55170727
0000b0 79 b9 b9 be b3 80 8c be 19 e2 bb 3e ab eb 9e 3e
       -0.36274317 -0.2744194 0.36695936 0.31039175
0000c0 e2 59 8b be 80 61 58 bc b2 df bc 3e 52 04 12 3f
       -0.27217013 -0.01320684 0.36889416 0.5703784
0000d0 43 3f 53 3e 70 c2 9f 3d 20 48 75 3e bc c6 b6 be
       0.20629601 0.07800758 0.23953295 -0.35698497
0000e0 fc 84 95 3d 36 4e db be d2 1a c0 be 11 d1 8d be
       0.073007554 -0.42833108 -0.37520462 -0.27698568
0000f0 0d 99 84 3e 7a 17 7f 3e 2c 93 ac be d7 a2 0e 3e
       0.25898018 0.249113 -0.33706033 0.13929306
000100 ff e8 a8 3e b5 92 e1 bd f9 50 21 3d 9f 01 0e 3e
       0.32990262 -0.1101431 0.039383862 0.13867806
000110 fe be b9 3e 2a be 09 3f 1e 98 cd be 6e f9 3c be
       0.36278528 0.5380579 -0.4015512 -0.18454525
000120 7d 2a c4 3d 9d 70 f5 3e d9 ad da 3e d0 e4 08 3f
       0.095784165 0.4793748 0.4271076 0.5347414
000130 c3 cb dd 3d 7a c2 fa be ad 91 b1 3d 70 ff ac be
       0.1082988 -0.489765 0.086703636 -0.33788633
000140 76 a6 04 bf 85 c6 f3 3e ba 77 e8 3e d4 aa 1b bf
       -0.518165 0.47612396 0.45403844 -0.6080754
000150 cc a9 a6 3d 69 fd ad bd 66 dd 9e bd ec fc 68 be
       0.08137855 -0.084956 -0.07757072 -0.22752732
000160 bc 65 83 3e c6 18 a9 be 90 e0 bb 3d b5 69 8e 3e
       0.25663555 -0.33026713 0.09173691 0.27815023
000170 34 5c ae 3e 61 1f 8d 3d f5 bc 15 bf 29 53 b9 be
       0.3405472 0.06890751 -0.5849145 -0.3619626
000180 49 1e 92 3e 4f 52 1a 3e 5d 99 dd be 29 1e bb be
       0.2853873 0.1507046 -0.4328107 -0.36546448
000190 a0 1d 03 3f 53 27 b6 3e d3 46 8a be 48 8b 13 be
       0.5121708 0.35576877 -0.2700716 -0.144086
0001a0 d7 6c 00 bf bd 00 2b bb c2 f8 ce be b0 b0 df be
       -0.50166076 -0.002609297 -0.40424162 -0.4368949
0001b0 60 b3 39 bd ca 2f be 3d cb 38 78 be ad 0f 45 3e
       -0.04533708 0.09286459 -0.24240415 0.19244261
0001c0 29 0a bc be ea 0e f7 3e f4 a1 a9 3e 91 12 e3 be
       -0.36726502 0.48253566 0.33131373 -0.44350103
0001d0 20 4c f1 bd 32 b7 2b bc c9 39 8f 3d 22 da 04 3e
       -0.11782098 -0.010480689 0.069934435 0.12973836
0001e0 1d 76 58 3e 57 0a 28 3d a2 14 84 be 22 02 1d 3e
       0.21138807 0.041025486 -0.25796992 0.15332845
0001f0 4c 28 16 bf 3a e5 b0 be 18 fd 2d be 90 94 77 be
       -0.5865524 -0.34549886 -0.16991079 -0.24177766
000200 64 05 2a be 4d 1e de be 06 c5 16 be c4 44 e0 3d
       -0.16603619 -0.43382493 -0.14723596 0.10950616
000210 7b a6 fe be 48 5b d9 bc dd e2 dd 3e 03 2a 59 bd
       -0.4973639 -0.026532784 0.43337145 -0.05301858
000220 9c b7 41 3c 6c bb b0 bc ad 8a 06 3e d4 b4 bd 3e
       0.011823561 -0.021573745 0.13138838 0.37052023
000230 1f 19 ff 3e a7 de 77 3e 92 3e 0c 3f d0 db ac bd
       0.49823853 0.24206029 0.54782975 -0.084403634
000240 f0 0d 08 bf d0 cc 76 be 63 d7 c8 3e 1d 6d e5 3a
       -0.53146267 -0.24101567 0.39226827 0.0017503832
000250 15 e0 82 be cb be de be 98 81 f2 be c0 d1 fa be
       -0.25561586 -0.43504938 -0.47364497 -0.48988152
000260 dd 40 18 be de e4 92 3e 21 65 a7 3e e2 c5 16 bf
       -0.14868493 0.28690237 0.32694343 -0.58895695
000270 70 17 74 3e d3 54 e1 be b2 f0 d7 bd cc 8f 62 be
       0.23837066 -0.44010028 -0.10543956 -0.22125167
000280 51 90 07 be 87 df fc bd ee 6e f1 be 00 19 eb be
       -0.13238646 -0.12347322 -0.47154945 -0.4591751
000290 cd bc a2 bd 00 4e 93 3b 4a 28 90 be bd 21 3d 3e
       -0.07946167 0.0044953823 -0.28155738 0.18469901
0002a0 2c a5 12 bf 0b 05 4b bd a7 d4 05 3f f4 ac 88 be
       -0.5728328 -0.049565356 0.52277607 -0.26694453
0002b0 87 8b 07 3f c2 95 9f 3d b0 df 13 bf 97 f7 b1 3e
       0.52947277 0.07792236 -0.57763195 0.3475921
0002c0 45 f5 f0 bd 74 42 79 be ce 2b e4 3e de b7 f4 be
       -0.117655315 -0.24341756 0.4456467 -0.4779653
0002d0 19 17 1b 3d f2 2c 06 be 24 25 db 3e 54 4a 0e 3e
       0.037863825 -0.13103083 0.42801774 0.13895541
0002e0 74 bf 85 3e 99 70 57 3e 5f e2 04 be e8 69 ea bd
       0.2612263 0.21039046 -0.12976979 -0.11445981
0002f0 ca 29 f8 be 21 a0 79 3e 36 7f de 3e d8 78 ad 3e
       -0.48469383 0.2437749 0.4345643 0.3388126
000300 65 39 d1 be 6d f1 e1 3c 8c 1a ca be 27 9b 8e be
       -0.408641 0.027580941 -0.3947338 -0.27852747
000310 38 6a b7 be d2 c4 22 3e 50 ac 94 be a6 de ee bb
       -0.35823226 0.15895393 -0.29037714 -0.0072897254
000320 45 c0 38 3d 6b f4 b4 3e 56 b1 d6 be ec 79 b7 be
       0.045105238 0.35342726 -0.41932172 -0.35835207
000330 8d fb 98 be 41 35 d8 3e 30 41 61 be 56 9e f7 3e
       -0.29879418 0.4222813 -0.21997523 0.48362988
000340 01 d5 52 3e e6 8d bf 3d 33 be 1c bd 4d b6 16 be
       0.20589067 0.09353237 -0.038267326 -0.1471798
000350 8f 30 52 3d 33 aa 2e be 84 9a 48 3b 45 6d be 3d
       0.05131584 -0.17057113 0.0030609677 0.09298185
000360 76 a6 01 bf 2e b7 9e be c9 ac f2 3e 7b c6 f6 be
       -0.50644624 -0.3099913 0.4739745 -0.48198304
000370 fc 7a 2b bd a4 c4 10 3f 1f c0 96 3e 2b a3 8c 3c
       -0.041865334 0.5655005 0.29443452 0.017167648
000380 db bd 09 bf 66 40 4b 3e be 53 d5 be d7 83 1e be
       -0.5380532 0.19848785 -0.41665453 -0.1547998
000390 69 f4 41 be fc 41 b2 bd c5 72 0b 3c 24 7a 0b 3f
       -0.18940891 -0.08703992 0.00851125 0.54483247
0003a0 de 3c 54 3d bd 16 0a 3f 89 78 aa 3e 99 6b b4 be
       0.05181586 0.53940946 0.33295086 -0.3523834
0003b0 b6 64 89 3e 1b 54 be be c8 2a 92 be 04 87 0e 3e
       0.2683465 -0.37173542 -0.28548265 0.13918692
0003c0 4f e0 f2 3d 36 60 e4 3e 3a 66 44 be 17 4d f3 3a
       0.1185919 0.44604653 -0.19179621 0.0018562403
0003d0 29 06 92 3e 41 45 0d bf 32 a3 92 3e 8e 55 f4 be
       0.28520325 -0.551838 0.28640133 -0.47721523
0003e0 73 a6 e7 3b 90 72 cb bd ee 60 a7 be c8 39 10 3d
       0.007069403 -0.099339604 -0.3269114 0.035211354
0003f0 b3 4e 0b 3f ef 87 11 be f9 27 b9 be 1b 8c 2d be
       0.5441696 -0.14212011 -0.3616331 -0.16947977

g.extra.0.bias f4 [128]
000000 15 50 25 3e 9e c1 0e 3f cf f3 89 3e 4b 32 ac 3e
       0.1614383 0.55764186 0.26943824 0.3363212
000010 95 0a 51 be 37 c3 82 3e f0 2f 54 3d b5 91 06 be
       -0.20414193 0.25539562 0.05180353 -0.1314152
000020 88 29 94 be 19 a1 ab be 87 9b ea be 3c 88 bb 3e
       -0.28937936 -0.33521345 -0.45821783 0.36627376
000030 20 40 b6 3e 7d f0 82 bd 0e d7 b6 be 98 ac d9 3e
       0.35595798 -0.06393526 -0.3571095 0.4251449
000040 4a 6b b6 3e f5 4c 06 3d f7 24 8e be 02 94 03 3f
       0.3562873 0.032788236 -0.27762577 0.51397717
000050 76 a1 58 3e cd 98 e1 be e8 1a 0c 3f 1d 48 da 3e
       0.21155342 -0.4406189 0.54728556 0.42633143
000060 4a 92 81 be 6f ea a3 3e 6a 18 b7 be 6a b9 e5 bd
       -0.25306922 0.32014796 -0.35760814 -0.112170056
000070 d5 43 f5 3e fe 88 b4 39 08 7b f8 be 7b ff 5b be
       0.47903314 0.00034434343 -0.48531365 -0.21484177
000080 34 cc 31 be d1 c4 2c be ea b5 cd 3c 3f 81 01 3f
       -0.17363054 -0.16871955 0.025111157 0.5058784
000090 03 aa 33 3c c0 68 bc be b3 b6 eb 3c 06 3a 95 3e
       0.010965827 -0.36798668 0.028773641 0.2914583
0000a0 93 98 89 3e ce dc 07 bf 5b 9b 01 be c7 80 da be
       0.26874217 -0.53071296 -0.1265692 -0.42676374
0000b0 87 22 67 be 2d 0e 47 3e ac 18 da be c8 9e 2b 3e
       -0.22571765 0.19439001 -0.42596948 0.16759789
0000c0 0d e8 ed 3e c9 ec b1 3c 36 f1 c7 be cf 06 5d be
       0.46466103 0.021719353 -0.39051217 -0.21584629
0000d0 18 4f bd 3d 35 b1 dd be bb 84 83 3e 5c e5 03 bf
       0.092436016 -0.4329926 0.25687203 -0.5152185
0000e0 f7 53 08 bf 44 bd 13 bf 0c af 16 be 9c f6 b3 3e
       -0.5325312 -0.5771067 -0.14715213 0.35149086
0000f0 9b 5a 08 bf 54 0d f5 3e ed ef 5a be 16 a2 10 3e
       -0.5326325 0.4786173 -0.21380587 0.14124331
000100 11 fa 85 3c d7 e8 04 bf d2 83 f2 3e 8f 33 94 3e
       0.016354593 -0.51917785 0.47366196 0.28945586
000110 3d 74 01 3f af b7 90 3e 67 e0 be be 86 16 f6 3e
       0.5056799 0.2826514 -0.3728058 0.4806406
000120 26 e1 c4 3c d3 d7 89 3e 86 78 e0 be f0 1a 34 be
       0.02403314 0.26922473 -0.43841952 -0.17588401
000130 f7 7a 0e bf be df 43 be e8 95 e3 3d a1 01 e1 be
       -0.5565638 -0.1912832 0.11112577 -0.43946555
000140 0e aa 15 3e 87 81 98 3e 1a df 8f 3d a7 f1 c2 be
       0.14615652 0.29786322 0.07024975 -0.3807499
000150 cd 2c de be 49 eb 36 be e7 3b 60 3e 37 e4 11 3f
       -0.43393555 -0.17863192 0.21897851 0.56988853
000160 56 74 a6 3e d7 c3 e2 bd b5 18 44 3e 8c 5e 11 bf
       0.32510632 -0.1107251 0.1915005 -0.5678489
000170 d4 0a f9 be 81 59 8b 3e 61 fd b3 be 6e 13 8c 3e
       -0.48641074 0.27216724 -0.3515425 0.27358574
000180 97 59 cd be 24 e6 97 be 11 41 ec be 47 60 8a 3e
       -0.40107414 -0.2966777 -0.46143392 0.2702658
000190 c3 21 8d bd 63 71 e3 3e bd 9d b5 3e c8 b6 91 3e
       -0.06891205 0.44422445 0.35471907 0.28459764
0001a0 6f 61 df 3b 2e 54 33 be 7f d6 13 be 3b 5c 80 3d
       0.006817035 -0.17512581 -0.14437293 0.062675916
0001b0 67 99 87 3e eb 8a d6 be 77 af ef 3e 86 f0 aa bd
       0.26484224 -0.4190286 0.46813557 -0.083466575
0001c0 db 2d fe be ce b5 9d be 4b e9 fc 3e 95 1c fc 3e
       -0.4964436 -0.30802768 0.49396738 0.49240556
0001d0 60 59 08 bf ed 07 ce 3e 31 d3 89 3e dc 36 af 3e
       -0.53261375 0.40240422 0.2691894 0.34221542
0001e0 d7 8f f8 3e ab 96 b6 be 4b a9 2d 3e 97 a4 65 3e
       0.4854724 -0.35661826 0.16959111 0.22426067
0001f0 b8 20 48 be 86 02 0f 3e 31 a3 60 be e1 2c b2 3e
       -0.19543731 0.13965806 -0.21937253 0.34799865

g.extra.2.weight f4 [128, 128]
000000 89 c2 e9 bc c2 04 37 bd 60 21 c5 3c fa 1d c6 3c
       -0.028535144 -0.04468227 0.024063766 0.024184216
000010 c9 c2 49 bd 2a c3 38 3c ef 4a 08 3d a2 9c b6 3b
       -0.049258027 0.0112769995 0.033274587 0.0055728713
000020 a5 36 1c 3c 74 d8 e2 bc 87 a8 ba 3c e6 1f 8f bd
       0.009534513 -0.027691104 0.022785438 -0.06988506
000030 e1 0c 49 bd 50 a2 57 bd 6a af b1 3d d3 4e a3 bc
       -0.049084548 -0.052645028 0.08676036 -0.019935047
000040 b8 5a 38 3c 61 74 25 bd 62 c0 b1 3d c5 ba a5 3d
       0.011252098 -0.04039419 0.08679272 0.08092264
000050 32 ad 8a bd 5f 4c a9 bd 12 e9 6c bd f3 ba 11 bb
       -0.06771316 -0.0826652 -0.05783946 -0.0022236675
000060 7a ca bc bc 02 e7 56 bd 3b d5 05 bd a9 ba 64 3c
       -0.023045767 -0.0524664 -0.032674056 0.013960519
000070 82 5c 2f bd 55 b9 00 3c 3b 03 ea bc b5 72 1d bd
       -0.04281283 0.007856687 -0.028565994 -0.03843947
000080 74 c9 41 ba 52 0e 92 3d e8 e9 95 bd 01 b8 99 b8
       -0.00073923846 0.07131638 -0.07320005 -7.329882e-05
000090 a8 56 25 bd 3e a7 af 3d 3f fd aa bd 14 bd a5 bd
       -0.040365845 0.08576821 -0.08349084 -0.080927044
0000a0 df bd c3 3d 8c ea 47 bd 79 50 14 3c 49 43 08 bd
       0.095576994 -0.048807666 0.009052389 -0.033267293
0000b0 29 28 1c bd f0 78 3a bc 1b cb 4e 3d a9 c3 cd 3b
       -0.038124237 -0.011381373 0.050486665 0.006279428
0000c0 58 c3 d0 bd 04 c7 70 bd 2c 54 02 bd 95 e0 04 3d
       -0.10193509 -0.058783546 -0.031818554 0.03244074
0000d0 b6 c8 69 bd 5f 70 69 3d 7e 4c bf bc 73 ab 08 bd
       -0.05707618 0.05699193 -0.023351904 -0.03336663
0000e0 f5 f5 59 3d 47 00 1b 3d 19 b0 85 3d ba b2 4f 3d
       0.05321308 0.03784206 0.065277286 0.050707556
0000f0 45 a3 3b bd 7d c4 54 bd 68 7e eb bc a4 5d 9d 3d
       -0.045810003 -0.0519452 -0.028746799 0.07683876
000100 2f c1 09 bd 31 7f be bd 7e ed 3a 3d f2 22 ab 3d
       -0.0336315 -0.093016036 0.045636646 0.08356275
000110 3a 94 bc bc 2b 06 89 bd 0c 7f d6 bd 26 95 0e 3d
       -0.023019899 -0.066906296 -0.10473451 0.034810208
000120 fd 95 c2 bc 02 eb 26 bd 4d ac be bc 12 c7 0c 3d
       -0.02375316 -0.040751465 -0.023275519 0.034369536
000130 8d 8c 4f 3d 90 95 8f 3d 03 56 95 bc 5c 0f d1 bd
       0.05067115 0.07010949 -0.01822949 -0.10208008
000140 78 ad a1 bd 63 c5 a2 3d c5 8c 21 3d b2 e2 e6 3c
       -0.07894415 0.07947805 0.03944089 0.028184269
000150 96 bb da bd e8 f1 a0 3d 01 9c a2 3d e3 c0 b5 3d
       -0.106803104 0.0785864 0.07939912 0.08874681
000160 b5 83 a8 bd 8d c8 08 bd e5 fa 8d bd 87 ee ac 3d
       -0.08228246 -0.033394385 -0.0693262 0.08443933
000170 49 ad 16 bd 52 0d 1d bd 24 61 25 3d 1d 7f 43 bd
       -0.03678635 -0.03834278 0.040375844 -0.047728647
000180 69 25 a1 bd e0 6c bf bc d7 24 70 bc 12 78 98 bd
       -0.078684635 -0.023367345 -0.014657221 -0.074447766
000190 8f 4b 6e 3d 93 54 11 bd c9 7b 17 3d 9e 5b 9a 3d
       0.058177527 -0.035481047 0.036983285 0.07537006
0001a0 8b 1f cf 3c ab d7 f7 3b 4d 59 93 3d fb 21 37 3c
       0.025283596 0.0075635514 0.07194767 0.011177535
0001b0 47 21 14 bd c5 d7 82 3d 61 d5 6e 3c d0 a2 b2 bd
       -0.03616455 0.06388811 0.014577241 -0.0872246
0001c0 ef 59 de bc 93 3c c1 bd b5 43 a9 3d bb 07 ba bb
       -0.027142493 -0.09435382 0.08264867 -0.005677191
0001d0 67 13 ec bd a4 04 5a 3c 4f 93 66 3d 08 d3 a5 3c
       -0.11527138 0.0133067705 0.05629283 0.02024223
0001e0 29 a8 c9 3c e8 1f a9 3b a1 58 03 3d a0 37 ea bc
       0.024616318 0.005161274 0.032066945 -0.028590977
0001f0 42 b8 34 bd 49 02 a6 bd c8 20 88 bd c2 53 2e 3d
       -0.044121034 -0.081059046 -0.066468775 0.042560346
000200 a8 19 8c bd 82 97 c7 ba 23 46 69 3c 2e 6f 4b ba
       -0.06840831 -0.0015227648 0.014237913 -0.00077604025
000210 1d 1c a9 bd 07 db 97 3d ad 07 f2 bd d8 e0 00 3e
       -0.08257315 0.07414823 -0.1181787 0.12585771
000220 26 ff 90 bd 81 9d 47 bd 06 da 4e bc 07 8e 35 bd
       -0.07079916 -0.04873419 -0.012625223 -0.0443249
000230 df 26 74 3d 0c 85 41 bd ce f4 d5 bd ae da 54 bd
       0.059607383 -0.047246024 -0.104470834 -0.05196636
000240 c8 b2 31 3c 5c 38 a6 3d cb 3b c7 bd 10 8c 08 3c
       0.010845847 0.081162184 -0.097282015 0.008334175
000250 87 7f fb bc 96 7b f5 bd a6 3b 80 3d 2a e7 b1 bd
       -0.030700458 -0.11986463 0.06261377 -0.08686669
000260 01 a2 00 bc 13 c2 b2 3d d2 90 e1 bc be 53 45 3d
       -0.007851125 0.08728423 -0.027534876 0.048175566
000270 00 6e be bc e6 11 30 3d 82 b3 fb bd 2f c6 18 bd
       -0.023245811 0.04298582 -0.12290098 -0.037298378
000280 c6 c5 a5 bc 91 fa 47 3b ee 4c d7 3c 7f 72 53 3d
       -0.020235907 0.003051434 0.0262818 0.051622864
000290 2c 50 c8 bc 01 6a fa bc 58 d0 ef 3c 5f 2a f1 bc
       -0.024452291 -0.030568125 0.02927415 -0.02943915
0002a0 4c 19 a9 3d 22 54 ca bd 83 67 62 bd 51 0b 6e bc
       0.08256778 -0.09879328 -0.055274498 -0.014529065
0002b0 62 a7 21 3d f9 ea 73 3d 21 c6 0c bd 49 7f a9 bd
       0.03946627 0.05955026 -0.034368638 -0.08276231
0002c0 c4 51 04 3d e8 4a ab 3b a6 a5 00 3c 30 fc a0 bd
       0.03230454 0.0052274354 0.007851994 -0.07860601
0002d0 5b 0c ae 3c 76 5b 94 3d eb b1 b2 bc ed 46 dc bd
       0.021246126 0.07244007 -0.021813354 -0.107557155
0002e0 cc 21 46 3d a4 a2 04 be 8b f3 f0 bc 9e 07 c2 ba
       0.048372075 -0.12952667 -0.029413005 -0.0014803295
0002f0 fb 82 09 bd ac 48 d8 3c 74 3a bb bd 3b df 3d 3c
       -0.03357218 0.02640184 -0.091420084 0.011588867
000300 74 50 3e bd a7 9a 0a bd aa 74 49 3c 52 31 7e 3d
       -0.046463445 -0.033838894 0.012295881 0.062058754
000310 7c 23 5c bd 6b 67 6b 3d 8d 71 d7 bc 38 b0 26 bd
       -0.053744778 0.057471674 -0.026299262 -0.0406954
000320 99 16 03 be e1 28 af bd 10 c6 e0 3d f9 a5 89 bd
       -0.12801589 -0.08552719 0.109752774 -0.0672111
000330 f5 c2 59 bb ca 1e 35 3d 7a 33 08 3d 34 d4 59 3d
       -0.0033227776 0.044218816 0.033252217 0.05318089
000340 b8 3b 67 3d b7 1c 9b bd ea a8 49 bd e1 d1 af bd
       0.056453437 -0.07573836 -0.049233355 -0.08584953
000350 87 57 58 bd f9 68 91 bc d8 cd 63 3d bd 93 92 bd
       -0.052817848 -0.01775025 0.05561623 -0.07157085
000360 d8 a9 39 3d 0f 02 8e bd 51 1d c3 bc 1d 6c 32 3d
       0.04532799 -0.069339864 -0.02381769 0.043560136
000370 59 67 7d bd e6 57 50 3c 75 c6 ea bd f2 7f c6 3d
       -0.061866138 0.012716269 -0.11463634 0.096923724
000380 75 a8 45 bc ed f4 27 be 2c e9 be bc 4b 1d a8 bd
       -0.012064089 -0.16402026 -0.023304544 -0.08208712
000390 40 32 a0 bd da 68 bc 3b 88 5d 7e 3d 1e 53 8a bd
       -0.078220844 0.005749804 0.062100917 -0.067541346
0003a0 0e d7 af 3c 51 9c be 3c f2 da 83 3d eb df c7 bd
       0.02146485 0.023267897 0.06438245 -0.09759506
0003b0 c2 5e 89 bc 42 49 15 be 57 ba d6 bd 63 46 51 bd
       -0.016768817 -0.14578727 -0.1048476 -0.051092517
0003c0 6d d6 42 3d ea ef a4 3d d0 a9 d2 3b 5b 4b ad 3c
       0.047567774 0.080535725 0.0064289346 0.021154096
0003d0 02 e0 84 bd 07 9e b7 3d aa ea 44 bd ac 2a c9 bd
       -0.064880386 0.08965688 -0.048075356 -0.09822592
0003e0 36 21 04 3c cf 09 3b 3d a5 fc af bd 96 97 27 3d
       0.008064559 0.04566365 -0.0859311 0.040916048
0003f0 a7 9d ce 3c 55 17 a3 bd b2 0a ee bc 25 6d 8a 3d
       0.025221659 -0.079634346 -0.029057834 0.06759099

g.extra.2.bias f4 [128]
000000 54 a1 d7 bc 80 24 84 bd 09 c1 9d bd a3 f2 fe 3b
       -0.026322044 -0.06452274 -0.07702834 0.0077803894
000010 4b c2 34 bd 0c c8 92 bd 26 b4 a4 3d 0f 72 3e bd
       -0.044130605 -0.07167062 0.08042173 -0.046495494
000020 55 07 47 bc 98 4d 54 3d 15 f6 24 bd 6a d9 30 3d
       -0.012147744 0.05183181 -0.040273745 0.043176092
000030 78 f2 3e bd 1c b6 7f 3c 9e 1d 20 3d ad 8b cf bc
       -0.046617955 0.015607383 0.039090745 -0.025335157
000040 25 a3 84 bd 09 d5 fd 3c 9c ae 2e bc b0 23 88 3d
       -0.0647643 0.030985372 -0.010661747 0.06647432
000050 bf 0b 23 bc c0 42 82 3d e7 13 6c bc ac 7f e5 bc
       -0.009951531 0.06360388 -0.014409042 -0.02801498
000060 3d c3 36 3c 7a b0 6d 3d fc 21 ab 3d 81 95 62 3d
       0.011154947 0.05802963 0.083560914 0.05531836
000070 d8 b8 ea bc 58 2e 08 3c 5b 20 72 3d c9 9a 8b 3d
       -0.028652593 0.00831183 0.059112888 0.06816632
000080 ea 8b 9b 3d 70 61 e1 3c b5 1f 80 3c 24 5c 63 3d
       0.07595046 0.027512282 0.01564012 0.055507794
000090 8d 45 9b 3c 1d 10 9b bd fd c9 b0 3d cb eb a2 bc
       0.018954063 -0.07571433 0.08632276 -0.019887825
0000a0 54 74 a8 3d 71 74 6b 3d c8 8c 00 bc bb 52 a1 bd
       0.08225313 0.057484094 -0.007846065 -0.07877108
0000b0 7c ba a4 bd 59 05 1d bd 4b 93 5e 3d 75 a8 1b 3c
       -0.080433816 -0.038335178 0.05433969 0.0095006125
0000c0 7d 6f c0 3a b8 0b 93 bd 2e de 22 3d 7a 6d d5 bc
       0.0014681664 -0.071799695 0.03976267 -0.026053179
0000d0 32 d3 3d 3d 54 6a 93 bd 5c a3 1f bc 19 ae 12 3d
       0.04634399 -0.07198015 -0.009743538 0.035810564
0000e0 3c 31 00 3d a7 3e ab bd e2 d4 b0 3d 21 62 38 bd
       0.031296954 -0.08361559 0.08634354 -0.045015458
0000f0 75 25 96 bd 4e 24 69 bd 0d 40 af bd f2 da ce 3c
       -0.07331363 -0.05691939 -0.085571386 0.025250886
000100 f3 79 94 3d 04 2d 81 3d f6 a9 14 3d 52 96 ed bc
       0.072498225 0.06307414 0.0362949 -0.029002342
000110 cb df bd 3c 4e 4c 98 3c af 51 b7 bd 25 59 50 bb
       0.023178002 0.018591072 -0.08951127 -0.0031791416
000120 da 15 1a 3d d9 a4 aa 3d 28 8a 3b 3d 5b 9c fb bc
       0.037618496 0.083322234 0.045786053 -0.030714205
000130 93 23 42 3b a7 7a 61 3d c2 89 aa 3d 3f cf 1d bd
       0.0029623255 0.05504861 0.083270565 -0.038527723
000140 75 76 c7 3d fd 0a f1 bc a4 b2 6b bd fb 47 ef bb
       0.09739391 -0.029424185 -0.05754341 -0.007302282
000150 22 36 86 3d c7 23 29 bd b7 0e 54 3c 91 0d 2f bd
       0.06553294 -0.041293886 0.012942961 -0.042737547
000160 82 21 0f bc ae a0 60 3d 5a 37 61 bd d1 7b 39 bd
       -0.008736016 0.054840736 -0.054984428 -0.045284096
000170 9f a7 c8 3c 34 d7 23 3d 46 94 07 3a bd a4 8f bc
       0.02449399 0.040000156 0.0005171936 -0.017534608
000180 03 f4 5f 3a c7 56 aa 3c 65 1c 96 3d 08 f1 b2 3c
       0.00085431355 0.020793332 0.073296346 0.021843448
000190 30 b9 9f 3c 91 af 1c 3c 45 54 9d 3c 07 4c 93 ba
       0.019497484 0.009563343 0.019205222 -0.0011237868
0001a0 15 d7 42 bd 92 d0 66 bd 95 71 cb 3c 18 dd db 3c
       -0.0475684 -0.056351252 0.024834434 0.026838824
0001b0 46 33 8f bc 3e 99 3a bd 36 84 29 3d ca 10 7c bc
       -0.017480504 -0.0455563 0.04138585 -0.015384862
0001c0 7d 87 89 3d b2 5d 44 3d 65 15 55 3c 4e a7 8f bc
       0.067152955 0.047940917 0.013005589 -0.017535832
0001d0 ae 0e db bc a6 a2 10 3d 9b aa 59 bd e0 a0 1b bd
       -0.026740398 0.035311364 -0.053141218 -0.03799522
0001e0 d9 9a 87 bd fb 0f 96 bb 38 48 78 bd 73 63 33 bd
       -0.06621332 -0.0045795417 -0.06061575 -0.043796014
0001f0 7e a8 02 bd a4 d4 0f 3d f2 d7 30 3d e0 19 7a 3d
       -0.031898968 0.0351149 0.04317469 0.061059833

g.extra.4.weight f4 [128, 128]
000000 54 c1 73 bc c1 29 6f 3d 76 67 3c bd 46 3f db bc
       -0.014877636 0.05838943 -0.045997106 -0.02676357
000010 2b b0 e5 bc 73 b4 8e bd 3f 20 5d 3d 1c 4d ba bb
       -0.028038105 -0.06968012 0.05398583 -0.0056854617
000020 62 7c b1 3d d0 0c 84 3d b7 ba 1d 3d 59 3c 5b bd
       0.08666302 0.06447756 0.038508143 -0.05352435
000030 89 d6 00 3e c6 1d f9 bc 6a 24 24 3d 79 46 d1 bd
       0.12581839 -0.030409705 0.04007379 -0.1021852
000040 fe 13 6b bc 47 e2 c1 bd 2e 97 2a bd 24 85 96 bd
       -0.014348028 -0.09466987 -0.041648082 -0.07349613
000050 76 39 17 bc e7 9c 52 bd ee 5f 4d bd 08 80 a6 bd
       -0.009230008 -0.051419165 -0.050140314 -0.08129889
000060 d8 b5 36 3d c3 f4 72 3d 0d bf 31 bb 54 ab ea 3c
       0.044607013 0.059315454 -0.0027121932 0.028646149
000070 6d bc 2d 3c ed 29 ac bd 7b 67 15 bd cb 3e 98 3d
       0.010604006 -0.08406434 -0.03647564 0.07433852
000080 4b 1e c1 bc 7b 4b 98 bb e5 48 86 bd 9e 1e 39 3d
       -0.023574015 -0.00464767 -0.06556872 0.045195214
000090 c1 8f 91 bd b5 35 4d 3c 4a 63 91 bd ce 1b 1b 3d
       -0.07107497 0.012525012 -0.07099016 0.037868313
0000a0 35 5e 05 bc 6f 49 51 bd 56 25 34 bd 96 30 86 bb
       -0.0081401365 -0.051095422 -0.04398092 -0.0040951474
0000b0 72 77 fc bb f7 25 8b 3d 76 2c 7c 3c 8a a9 a9 bd
       -0.0077046687 0.067943506 0.01539146 -0.0828429
0000c0 ae aa a6 bd e0 1f db 3c e0 a8 8b 3d 8a 50 a6 bd
       -0.08138023 0.026748598 0.0681932 -0.0812083
0000d0 b4 e7 d3 bc 46 2b a2 3d 0f fa 83 3d ab 25 66 bd
       -0.02586732 0.0791841 0.06444179 -0.056188267
0000e0 8a 0b a4 bd c0 5f aa 3d 88 3a 0f bd 9c c9 99 3c
       -0.080100134 0.08319044 -0.03496793 0.018772893
0000f0 6c ca c3 bd 4b 0c a2 3b d0 68 68 3b 4f 72 8e bc
       -0.09560093 0.004945313 0.0035462864 -0.017388491
000100 e9 4b d7 bd ee 33 11 3d bd bc 2b bd d4 5e ad bc
       -0.105125256 0.035449915 -0.04192804 -0.021163382
000110 36 c9 84 bd 65 3f 82 3d ae a8 ee bb 1a 7e c4 bb
       -0.064836904 0.06359748 -0.007283292 -0.005996478
000120 b9 ea db 3c dd f9 91 3d 5f a9 a8 bd 2a 03 71 3d
       0.026845323 0.07127736 -0.0823543 0.058840908
000130 c0 e9 04 3d 11 ca 23 3d 60 fc 34 bb 74 43 d7 bc
       0.032449484 0.039987627 -0.0027616248 -0.026277281
000140 c2 0f 98 bc be 0e ad 3d 5d 37 31 bd b4 dd ac bd
       -0.018562201 0.084500775 -0.04326569 -0.08440724
000150 a6 d9 2c bd 69 7d 3e 3d 8c 00 af bd c0 3b 92 bc
       -0.042199753 0.04650632 -0.08545026 -0.017850757
000160 2c f7 51 3c 84 39 00 bd 73 1a ad bd ad 31 24 bd
       0.012815278 -0.03130485 -0.084523104 -0.040086437
000170 51 58 59 bb 83 e4 17 3d 46 25 0f be bc 59 06 3d
       -0.0033164213 0.03708316 -0.13979062 0.03280042
000180 16 3d ff bb 1e 22 7a 3d 99 cf df bc 78 f1 65 3d
       -0.0077892644 0.061067693 -0.02732067 0.056138486
000190 2f 87 12 bd bd b2 9c 3c 2c 9f dd bd 2e 78 d9 3b
       -0.035773452 0.019128198 -0.10821375 0.006636641
0001a0 56 e3 94 bd 8b e0 01 3d e2 84 95 bd ee 2b a0 3d
       -0.072699234 0.03170828 -0.07300736 0.07820879
0001b0 3f c2 08 be 06 1c 4b 3d de f8 2f bd 98 1d ae bd
       -0.13355349 0.049587272 -0.042961948 -0.08501738
0001c0 97 37 f0 b9 84 71 0b be 2f 6b 8b 3c b7 58 7f 3d
       -0.00045817785 -0.13617522 0.017018883 0.062340464
0001d0 12 1d 08 bd 5e 29 14 bd 78 b5 bb 3d ec f5 01 3c
       -0.03323085 -0.036172263 0.09165472 0.0079321675
0001e0 fe 7a ac bb a0 37 b5 3c b2 5e ba bd e4 86 54 bd
       -0.0052636852 0.02212125 -0.09100093 -0.051886454
0001f0 cf a5 43 3d 8d fa 16 3c fe 74 3c bd 92 c2 76 bd
       0.04776555 0.009215009 -0.04601001 -0.06024415
000200 6d cc 1d 3d b9 df 89 bc 11 fc e5 bc 61 73 a2 3c
       0.038525034 -0.016830312 -0.028074296 0.019830408
000210 8d 37 30 bd 24 c2 6a bd 2c 2a ab bd f2 e1 7f bd
       -0.043021727 -0.057314053 -0.08357653 -0.062471338
000220 23 83 46 3d e4 d6 80 3d e9 d6 09 3d 41 54 ac 3d
       0.048464905 0.06290987 0.03365222 0.08414508
000230 ef c9 b3 3d 9a 27 ff 3c 36 9a bd 3d c3 2d 4e bd
       0.0877875 0.031146813 0.09257929 -0.05033661
000240 b4 3e e8 3c 31 46 30 bd ba 27 a8 3c f7 b5 1b 3d
       0.028350212 -0.04303569 0.020526756 0.038015332
000250 d1 4d b2 bd b1 e0 5d 3d 68 ff b4 3c 4e 1c 1a bd
       -0.087062486 0.05416936 0.022094443 -0.03762465
000260 c7 3b 40 bd c9 06 ce bc 5b 9f fc 3c 59 86 03 bd
       -0.046932008 -0.02514972 0.030837705 -0.032110546
000270 0f a5 39 bc 6d 6f 33 bd 68 ee ea bb 37 10 93 3d
       -0.011330857 -0.043807436 -0.0071695335 0.07180827
000280 2c c8 de bd 47 d2 10 bc ac de a0 3b 82 91 26 3d
       -0.108780235 -0.0088391965 0.004909357 0.04066611
000290 0a d2 d8 3c e0 56 6d 3d ab 7f c7 bd 0d 30 9f bd
       0.026467342 0.05794418 -0.097411476 -0.07772837
0002a0 3b 80 a9 bd 03 72 a1 3d 58 5c 3a 3d 26 40 77 3d
       -0.08276411 0.07883074 0.045498222 0.06036391
0002b0 f6 b3 90 3d 69 72 69 bc 0d b5 c1 3d 89 27 4f bc
       0.07065575 -0.014248469 0.09458361 -0.012643703
0002c0 27 2f b8 3c 78 ee a4 3b 6c 7c 20 bd ed e3 56 bd
       0.022483421 0.0050333105 -0.039181158 -0.05246346
0002d0 75 e4 92 3c 1e 93 5e 3d 3a e1 94 bd 8c 42 24 bd
       0.017931202 0.05433952 -0.07269521 -0.040102527
0002e0 76 d5 85 bc 71 db ba bd 95 67 fb 3b a1 48 cd 3c
       -0.016337138 -0.091238864 0.00767226 0.025059046
0002f0 ba 4a a9 bc 6f 34 6f bc db 3f 45 3d 41 bd 79 bd
       -0.020665515 -0.0145999035 0.0481566 -0.060971502
000300 87 4f 3d bd 36 08 d6 bc 9b 8f ea 3c 57 55 48 3d
       -0.04621842 -0.026126962 0.02863293 0.04890951
000310 1e 7e af bd ff bc 94 bc 94 79 aa bd 3c ab 95 bd
       -0.08568977 -0.018156527 -0.083239704 -0.07308051
000320 9a 5b f4 3c 4f 7e 3c bd 98 b7 5b 3d 9c 8d 51 bd
       0.029828835 -0.046018895 0.053641886 -0.05116044
000330 07 fa e1 bc 6d cb 2b 3d ed 93 e4 3c 11 de 06 3d
       -0.027585043 0.04194205 0.027902568 0.032926623
000340 22 1d 88 bc fc f7 c2 bb 6e 6c c9 bc c1 0f 90 3d
       -0.016615454 -0.005949972 -0.024587836 0.07034255
000350 a8 dc 41 3d 6d 24 02 bd 35 ac 16 3d cc c6 a8 bb
       0.047329575 -0.03177302 0.036785323 -0.0051506516
000360 ae dd fa bc 69 19 42 bd 53 1d a6 bb d0 d9 73 bd
       -0.030623283 -0.047387514 -0.0050694137 -0.059533894
000370 a6 ca 1f bd 83 be 5a bb f9 0e aa bd 44 91 56 bd
       -0.03901162 -0.0033377714 -0.08303637 -0.05238463
000380 f4 8f b3 3c a0 e5 92 bc 06 f7 57 3d f4 29 8f 3d
       0.021919228 -0.01793176 0.052725814 0.06990424
000390 23 f3 12 3d b7 23 4b bd df 0a 65 bc 75 8a e2 bc
       0.035876404 -0.049594607 -0.013979643 -0.027653912
0003a0 6e 55 00 bb 37 88 b2 bd ee be 98 3d 96 54 8c 3d
       -0.001958217 -0.08717387 0.07458292 0.06852071
0003b0 79 6c 95 bd f8 ff 6c bd e8 31 28 3d 59 ac 37 3d
       -0.0729608 -0.0578613 0.04106322 0.044842098
0003c0 0f e7 a1 3d 98 29 d6 bd 38 ee 9d bd f2 ca a6 bd
       0.07905399 -0.10457152 -0.07711452 -0.081441775
0003d0 b1 1f 9a bc 08 e2 b8 bc 02 4b ec 3d 26 98 32 bd
       -0.01881394 -0.022568718 0.11537744 -0.04360213
0003e0 d7 ac c0 bd 56 e8 2d bb 94 3e fa 3a 28 19 7f 3c
       -0.094079666 -0.0026536188 0.0019092136 0.015569963
0003f0 69 a3 09 bd 5c 41 79 bd fe d7 90 bd 65 a4 83 3d
       -0.033603106 -0.060853347 -0.07072447 0.0642784

g.extra.4.bias f4 [128]
000000 7a 97 01 bd f0 f0 a6 bd 39 15 81 bb 7e 01 51 3d
       -0.0316386 -0.08151424 -0.0039392975 0.051026814
000010 ab 43 af 3d 9c 3a 62 3c ef ed 93 3c fe 5f 91 3d
       0.085578285 0.013807919 0.018057792 0.07098387
000020 5e d6 5c bd 4b e4 86 bc 8a 5d 63 3d 0e b7 a3 bd
       -0.053915374 -0.01646628 0.055509128 -0.07993899
000030 f2 fd 4a bc 1d 5a a8 bc 20 df 43 bd a0 fb 62 bd
       -0.012389647 -0.020550782 -0.04782021 -0.05541575
000040 f1 8e 21 3d d0 a5 2e 3d a6 24 b0 3d c7 0f 19 bd
       0.03944296 0.0426386 0.0860074 -0.037368562
000050 ed 10 18 3d b0 8a 43 3d 3a 30 80 bc de 41 d1 3c
       0.037125517 0.047739685 -0.015647996 0.025544103
000060 c1 a7 13 3d 65 41 8d bd 46 91 fd 3b 8c e6 dd bc
       0.036048654 -0.06897239 0.007738265 -0.027087472
000070 63 ec 4e 3d 97 26 18 3d 6f 5d 59 bd 8a 40 33 bc
       0.050518405 0.037146177 -0.05306762 -0.01094068
000080 9e 1b 3c 3d 13 8a 89 3d e6 07 63 bd 9d 31 ec 3a
       0.045924775 0.06715789 -0.055427454 0.0018020157
000090 df cd 3e bc e1 14 36 3c d1 91 c6 3c 35 31 5a bb
       -0.011645763 0.011113376 0.024239453 -0.003329349
0000a0 09 22 20 bc 6e 9d 7c bd 0e 9d 80 3d ee 2c 43 3d
       -0.00977374 -0.061673574 0.06279956 0.04765027
0000b0 f2 31 bb bc 80 94 44 bb 7c 10 cb 3b ad c1 d4 3a
       -0.022850964 -0.002999574 0.0061970335 0.0016232036
0000c0 c0 9f c8 bb a2 3a 92 3c 91 83 93 bd 2d 47 3e 3d
       -0.0061225593 0.017850224 -0.07202829 0.046454597
0000d0 f2 1e 90 3d 79 f8 56 3c 51 eb 05 bd 53 92 59 3d
       0.07037152 0.013120764 -0.03269512 0.05311806
0000e0 62 8a 96 3d 1f fb 5a 3d cc 7d 7f 3c f6 33 25 bc
       0.07350613 0.053462144 0.015593957 -0.010083189
0000f0 76 79 35 3d 53 bb b7 3d 74 4d 8e 3d bf af 5a 3c
       0.044305287 0.08971276 0.06948367 0.013347565
000100 35 e3 00 bc 27 d4 9b 3d 2b 1a ce bc 6b 9a 1c bd
       -0.00786667 0.07608824 -0.025158962 -0.038233202
000110 66 99 ba 3c 55 d1 8a 3c 65 c0 95 bd 75 1f 23 bc
       0.022778224 0.01694552 -0.07312087 -0.00995623
000120 b7 db c4 bb d1 7b 93 3d 08 f6 ec 3c 2d fa 66 bd
       -0.0060076374 0.072013505 0.02892591 -0.05639093
000130 05 cb 87 3d d0 c4 47 bd 11 f0 97 3d 62 9c b5 bc
       0.0663052 -0.04877168 0.07418836 -0.022169296
000140 e1 29 e2 bc 98 bd 9b bc ab d1 39 3d c1 c1 35 3d
       -0.02760786 -0.019011304 0.04536597 0.04437423
000150 73 56 04 bd de de c1 3c 8a 1a 73 bd 0d 98 7f bc
       -0.032309007 0.023665842 -0.05935148 -0.015600217
000160 64 40 91 bd 3e d7 94 3d e8 80 9b bc 2c f4 13 bd
       -0.0709236 0.07267617 -0.018982366 -0.036121532
000170 4e 39 3f 3d a0 72 94 bd 89 af 34 3d d1 84 5d 3b
       0.04668551 -0.072484255 0.044112716 0.0033801089
000180 8a 54 98 bd 81 e2 77 3c 3d 9c a5 bc 22 bb ee bc
       -0.074379995 0.015129686 -0.020216102 -0.029141966
000190 bc be 9c 3c 43 34 a1 3c 87 ba 4b bd 75 c4 1d bd
       0.019133918 0.01967824 -0.049738433 -0.038517434
0001a0 14 f9 8e 3d 36 b5 43 3d 7d 9b 9a bd b0 87 19 bc
       0.06981102 0.047780238 -0.07549188 -0.009370729
0001b0 46 07 75 bd 63 c1 b1 3a da a0 88 3c dd d0 d8 3c
       -0.05982139 0.0013561662 0.016678263 0.026466781
0001c0 df 6e 1d bc e8 6a f6 bc bd 70 8b 3d 50 44 a7 3d
       -0.009608953 -0.030080274 0.068086125 0.081673265
0001d0 ee 09 92 bd b1 b7 1c bd ac 65 7a bc d3 06 0a bd
       -0.071308 -0.03826112 -0.0152830295 -0.033697914
0001e0 68 39 1d 3c ab bb 13 bd af 20 6a bc 85 b6 86 3d
       0.009596206 -0.036067646 -0.014290019 0.065777816
0001f0 5b d9 42 3d 29 aa 35 bc 0e 36 88 3c c1 a7 6d bc
       0.047570568 -0.011087933 0.016627338 -0.014505328

g.extra.6.weight f4 [5, 128]
000000 cc 8c 87 ba 42 cd da bc 67 6e 88 bd b5 83 02 3d
       -0.0010341643 -0.026709203 -0.066616826 0.031863887
000010 15 f5 82 bd f8 2d 94 bd 12 bf 65 bd 63 96 da 3c
       -0.06394402 -0.0723533 -0.056090422 0.026683038
000020 b7 8a 8d 3c 39 f0 50 bd d6 d4 b6 bc 3a f0 7f 3c
       0.017278058 -0.051010344 -0.022318285 0.015621239
000030 16 a2 37 bd 84 a5 75 3d 1e c4 8c bd 58 73 53 bd
       -0.04483231 0.0599723 -0.06873344 -0.051623672
000040 3f a4 0e bb c1 7c 23 bd 59 25 ba bd f3 7b 8b bd
       -0.0021765379 -0.039913896 -0.09089155 -0.06810751
000050 9d f1 ce bb 61 6d 51 3d cc c0 41 bd 93 20 7b 3c
       -0.0063154236 0.051129702 -0.047303006 0.0153275905
000060 1f 14 83 bd b4 ac 47 bc 96 0c 81 3d a5 05 21 3d
       -0.06400322 -0.012187172 0.06301229 0.039312024
000070 4b 35 74 3d c9 82 9d 3d 79 6f 68 3d 37 9b 31 3d
       0.059621137 0.07690961 0.056746934 0.043360915
000080 2a 5b 48 3d ee dd 6d bd 9a 4b 37 3d ad b7 8c 3d
       0.048915066 -0.058072977 0.044749834 0.06870971
000090 ce 04 88 3b a8 af 6c bc b4 c4 9c 3c ee c3 32 bc
       0.0041509634 -0.014446177 0.019136764 -0.010910971
0000a0 4e b9 3a bd 80 54 34 bd 93 3c 10 3d 27 39 88 3d
       -0.045586877 -0.044025898 0.035214018 0.06651526
0000b0 f8 0b 7c 3b 42 5b 8d 3d 74 65 8e bd cb 20 82 bd
       0.0038459282 0.06902172 -0.069529444 -0.06353911
0000c0 14 51 da 3d 40 4a a7 3c 1a d5 c2 3c 54 69 48 3b
       0.10659996 0.020421147 0.023783255 0.0030580359
0000d0 f1 9c c5 bd 28 51 95 3d 4a 99 1d bd 1e 76 9c 3d
       -0.09649075 0.0729087 -0.038476266 0.076397166
0000e0 6c bc 6f 3d 0a d5 95 bc eb 0e 0b 3d 83 df ec bc
       0.058529302 -0.018290062 0.033949774 -0.028915172
0000f0 9e cb 12 bd c5 b7 7b bd 3f 59 7d bd 83 85 5c bc
       -0.035838716 -0.061454553 -0.06185269 -0.013459566
000100 62 a2 79 bd 50 4c 20 bd 3f bd 03 3d 46 3c 95 bd
       -0.060945876 -0.039135277 0.0321629 -0.07286887
000110 9e 49 04 3d f8 4e 21 3d 2c 5d 4c bd 0a 42 44 bd
       0.03229677 0.03938195 -0.049893543 -0.047914542
000120 44 24 e4 3c 21 32 30 bd 86 fc 8e 3d fe 9d 1d 3c
       0.027849324 -0.043016557 0.06981759 0.009620188
000130 bd d9 4b bd 5f 75 82 bd 8e b8 c1 3c c7 91 70 3d
       -0.0497682 -0.06370043 0.023647573 0.058732774
000140 0f 18 38 3d 93 1b 17 3d 54 ad ab 3c f3 73 9e 3d
       0.04494482 0.03689153 0.020956673 0.07736959
000150 21 d9 27 bd d2 b5 55 3d 25 18 aa 3d f2 c9 ad bc
       -0.040978555 0.05217535 0.083053865 -0.02121446
000160 20 fe 29 3d b6 00 e8 bb ea ab 85 3d 72 11 a2 3d
       0.041502118 -0.007080163 0.06526931 0.07913484
000170 86 b0 f8 3c 2e 28 08 bd b9 f3 a8 3c 83 dd 93 bd
       0.03035761 -0.033241443 0.020624029 -0.072199844
000180 de bc 13 bc e4 05 b1 3c d1 c2 1b bc a0 16 93 bd
       -0.009017197 0.021609254 -0.009506897 -0.0718205
000190 d3 82 3a 3c 81 4f 02 bd 95 a3 ab bd 3b a7 94 3d
       0.01138373 -0.031814102 -0.0838081 0.07258459
0001a0 ce 81 e4 bc d5 29 96 bd ee c1 b2 bc 4a 02 ab bd
       -0.027893927 -0.073321976 -0.021820989 -0.08350046
0001b0 f0 37 89 bd 84 65 5b bd 81 53 af 3b 14 d0 24 3c
       -0.06700122 -0.05356361 0.0053505306 0.010059375
0001c0 2c ce 4b bc 8d 22 02 3d 71 3d 02 bd 3d 66 36 bd
       -0.012439292 0.03177123 -0.031796876 -0.044531096
0001d0 9d b1 b1 3c 9c bb 42 bd 4f fa c1 3c b5 35 91 bd
       0.021691138 -0.0475422 0.023678927 -0.07090322
0001e0 7a 69 3c bd 84 42 8d bc f0 7c 29 3d be c9 98 bd
       -0.045999028 -0.017243631 0.041378915 -0.07460354
0001f0 d1 04 a6 bd 46 96 07 bd cb 74 1a 3c 42 96 6c 3c
       -0.081063874 -0.033102296 0.00942726 0.014440121
000200 e2 8d 5f 3d 13 60 4d 3a 6f 8f 93 bd bd d1 7a 3c
       0.05457867 0.00078344456 -0.07205092 0.015308795
000210 3b 4e 9c bc f3 7f 4a 3c 0d 62 ca 3b f5 f1 9f bd
       -0.019080272 0.012359607 0.0061762393 -0.078098215
000220 c4 3c 91 bd 11 f6 8c 3d a0 8f dc bb 1a 48 f4 bc
       -0.07091668 0.06882871 -0.0067309886 -0.029819537
000230 c7 bd 20 3c cd 20 8b bd 20 79 04 3b bf c0 48 3d
       0.009810871 -0.06793366 0.0020213798 0.049011942
000240 85 19 b3 3c 59 4f 98 bd 8c ef bd 3c 49 92 43 3d
       0.021862755 -0.07437009 0.023185514 0.04774693
000250 eb b4 66 3d ae 0b ea bc da 4d 18 bd e6 37 71 bd
       0.05632488 -0.028570022 -0.03718362 -0.0588912
000260 56 90 fb 3c 63 c7 89 3d 2d e4 37 bd 46 5e 31 3d
       0.030708473 0.06727483 -0.04489534 0.043302797
000270 ed e0 09 3d 46 32 6f 3b 9a cd 72 3d 52 74 79 bc
       0.03366177 0.003649847 0.05927811 -0.015225487
000280 c7 c3 83 bc 16 0b 73 bd 53 47 56 3d 3e 7b 2c 3d
       -0.016084565 -0.059336744 0.052314114 0.04210972
000290 4d 66 b7 3d ad d9 19 bd 69 56 b2 bc cd 58 bd 3c
       0.08955059 -0.037561107 -0.02176972 0.023113633
0002a0 91 d4 9c bd d5 ea a4 bd a0 64 1d bd 79 bd 58 bd
       -0.07657731 -0.08052603 -0.03842604 -0.05291507
0002b0 e9 9f 9a 3d 26 e1 73 3d da 8d cf bc a2 5a a2 bd
       0.07550032 0.05954089 -0.025336195 -0.07927443
0002c0 dd 07 87 bd d5 b3 a2 39 4e e0 95 bd a8 67 0a bd
       -0.06593297 0.00031033033 -0.07318173 -0.03379026
0002d0 04 41 ca 3c 9c 25 01 bd b5 48 19 bd 3d 34 3f bc
       0.024689205 -0.031530008 -0.037422854 -0.011670169
0002e0 3b e4 9e 3d a3 93 22 3d 7f dd c6 3b eb 2b 71 3d
       0.07758375 0.03969158 0.006068885 0.058879774
0002f0 89 7d 3d bc fe 40 c6 bb a9 84 90 bc 2c a0 56 bc
       -0.011565574 -0.006050228 -0.017641382 -0.013099711
000300 fc 71 27 bd 1d da 2d 3d ed 30 1f 3d 5e b8 d1 3d
       -0.04088019 0.042444337 0.03886502 0.102402434
000310 88 19 9b bd 06 3d 93 bd 19 21 4f bd 96 1c 2d 3c
       -0.07573229 -0.07189374 -0.050568674 0.010565897
000320 64 33 63 3c 16 15 68 3d 6a 6f 8b bd aa 10 3f bd
       0.013867233 0.056660734 -0.0680836 -0.04664675
000330 b6 38 4e 3d ee 9f ec ba c1 f6 8d bd ae c5 91 bd
       0.050347053 -0.0018053034 -0.0693183 -0.071177825
000340 83 84 a9 3d a2 15 92 3a 07 0e 64 3d 3f 52 95 bd
       0.08277228 0.0011145363 0.05567744 -0.07291078
000350 07 b5 b8 bb 1a ff bc 3c 49 c7 65 bd 7a 82 35 3b
       -0.0056368145 0.02307086 -0.056098256 0.0027696178
000360 63 52 84 bd 16 9a 9b bd 74 95 18 3c 97 14 65 3d
       -0.064610265 -0.07597749 0.009312976 0.05592784
000370 11 1d 6d 38 65 24 8f bc 11 41 25 3d dd 20 9a 3d
       5.6532273e-05 -0.017473409 0.040345255 0.075257994
000380 f9 df 37 bb 29 38 2d 3d 9b d2 7a bd 30 72 9b bd
       -0.0028057082 0.042289887 -0.061236005 -0.07590139
000390 57 5e 30 3c 03 31 2c bd b4 53 39 3d 76 46 92 bc
       0.01076468 -0.04203893 0.04524584 -0.017855864
0003a0 f1 d2 9d bc 11 a9 47 bd b7 4e 5f bc b7 b8 02 3c
       -0.019265624 -0.04874522 -0.013629607 0.00797861
0003b0 eb 76 2b 3d 32 3d 27 bd 0f 7e bc bc 0f 0b 1c bd
       0.041861456 -0.040829845 -0.023009328 -0.038096484
0003c0 b9 47 d2 ba a2 58 8b bc 8f 59 f4 3c b8 7f 9a bc
       -0.0016043104 -0.017010037 0.029827861 -0.01885973
0003d0 9a 0f 17 3d 98 23 01 3d 5a 4f 99 bd 33 69 56 3c
       0.036880113 0.031528085 -0.07485838 0.013086605
0003e0 9f bd 68 bc 3b 57 f4 bb 39 f5 a1 3a 95 06 85 3d
       -0.014205365 -0.0074566877 0.0012356407 0.06495396
0003f0 ce cc 82 bc fa d4 ab bd cc 2b c8 3c cf 0d 0e bd
       -0.0159668 -0.083902314 0.024434946 -0.034681138

g.extra.6.bias f4 [5]
000000 a4 62 74 3d 0e a5 cc 3c 52 22 18 bd 37 f5 39 bd
       0.059664384 0.024981048 -0.037142105 -0.04539987
000010 a5 0e 6c bd
       -0.057631154

Gnl.0.weight f4 [128, 8]
000000 fb 23 58 3d 45 42 8f be bc d8 25 be 4c b9 58 bd
       0.05276869 -0.27980247 -0.16195959 -0.052911088
000010 b1 58 6c 3e 0a e2 a2 be 3b 7c 60 be 03 93 76 be
       0.23080708 -0.3181308 -0.2192239 -0.24079518
000020 3e 71 8b be 73 b4 39 be 7d c2 5a 3e c0 aa 48 bd
       -0.27234834 -0.18135242 0.21363254 -0.048990965
000030 19 30 d7 bd cb 14 c0 bc d6 98 24 be c3 73 a4 3e
       -0.10507221 -0.023447415 -0.16073927 0.3211957
000040 55 e8 0e be 8b 8a 87 be 64 73 a5 bd 67 5a 9d 3d
       -0.13955815 -0.26472887 -0.0807865 0.076832585
000050 52 ed 9f be 6d 10 59 3e 65 55 09 be 3b 44 5b be
       -0.3123575 0.21197672 -0.13411482 -0.21412747
000060 51 5a 7a be 9e be 2d 3e 49 4c bc bd 49 e7 29 be
       -0.24448515 0.16967246 -0.09194238 -0.16592135
000070 1f b0 47 3d 6b d8 a3 3e 01 5c 36 3e ce 16 8c 3e
       0.048751947 0.3200105 0.17808534 0.2736115
000080 a4 7c 97 be 07 06 c2 bd 7f 49 b5 bd 45 39 aa 3e
       -0.2958728 -0.09473806 -0.08851909 0.33246818
000090 72 b7 ad 3e 16 b0 0f be 9f f1 84 be cd 0f 90 3e
       0.3392902 -0.14032015 -0.25965592 0.28137055
0000a0 c7 7b 33 be e7 a0 9a be a3 59 9f 3e 31 0f 80 3e
       -0.17527686 -0.30200884 0.31123075 0.2501159
0000b0 5b 1b c9 3c a5 1f ac bd bf ce 4e 3e 21 a9 a9 be
       0.024549177 -0.08404473 0.20196055 -0.33136848
0000c0 e2 47 70 3d c8 37 b4 bd 79 fe 91 bd 4e af c4 3d
       0.058662303 -0.08799702 -0.07128615 0.09603749
0000d0 a2 46 46 3e 77 7f 03 be 83 21 1e 3e ec 18 be bd
       0.19362882 -0.12841593 0.15442471 -0.09282097
0000e0 34 20 87 be 4e 10 9e be d4 7f f3 bc 88 22 ae be
       -0.26391757 -0.30871814 -0.02972404 -0.3401072
0000f0 2c d7 3d 3e 68 0b 38 3d ad bf 54 be c6 1b ea bd
       0.18539113 0.044932753 -0.20776244 -0.114310786
000100 d9 df a9 be e2 70 42 3e 7d fb 59 3e 43 7e 38 3d
       -0.33178595 0.18988374 0.21287341 0.045042288
000110 46 aa 96 be 1c e2 85 3e 33 b2 53 be 8f f5 a7 be
       -0.29426783 0.2614907 -0.20673446 -0.32804534
000120 e5 3a 9c bc 27 7b 6d 3e 3e ba 14 be 4e 64 15 3d
       -0.019071052 0.2319151 -0.14524171 0.03647261
000130 94 17 46 3e 75 dd 07 3e 8b d8 b9 3d 8a 97 92 3d
       0.19344932 0.13268073 0.090745054 0.0715781
000140 9e 03 15 3e 9a 7b 11 3e 2b b9 87 3e cf e3 fc bd
       0.14552161 0.14207307 0.2650846 -0.123481385
000150 c3 a7 24 3d e3 7c a7 3e 33 25 97 3e ff f4 ee bc
       0.040199053 0.32712469 0.29520568 -0.029169558
000160 da d5 85 be 76 f0 60 be 86 c2 76 3a 67 7b e9 bd
       -0.26139718 -0.21966729 0.00094131415 -0.1140049
000170 af 37 82 3e 5d b2 0b 3e c9 1a ac be bb 65 b7 3d
       0.25433108 0.13642259 -0.33614185 0.089549504
000180 cb f8 c8 3c 7f 38 99 be 68 ff 31 bc 02 7c 90 3e
       0.024532696 -0.29925916 -0.010864116 0.2821961
000190 ee f7 81 3e 9b c1 99 be 48 69 e6 3d 36 04 38 be
       0.25384468 -0.30030522 0.112505496 -0.17970356
0001a0 49 76 c2 3d 84 98 92 3d cf 0e b7 3d 2d 88 9e 3e
       0.09495217 0.07157996 0.089383714 0.3096327
0001b0 e1 6c 8d 3e 61 7c 97 3e 98 0b 09 3e 66 dc 05 be
       0.2762213 0.2958708 0.13383329 -0.13072357
0001c0 46 5e 96 3e af c2 aa be 5e b3 2c 3e ba 92 26 be
       0.293688 -0.33351657 0.16865298 -0.16266909
0001d0 39 bf 92 3e ba 56 b5 3d d0 cd 99 3e d6 3c ae 3d
       0.28661516 0.088544324 0.30039835 0.08507697
0001e0 a6 27 0b be a0 32 b8 3c 88 67 05 be ff 04 f5 3d
       -0.13589343 0.022485077 -0.13027775 0.119638436
0001f0 be 1e 8f 3e 2f f2 bf bd 0d 35 79 3e 21 48 42 be
       0.27953142 -0.09372365 0.24336644 -0.18972827
000200 45 46 ee 3d 99 ca a5 be 5c 6f 63 3a 8f 80 f7 bd
       0.116344966 -0.32381132 0.00086759566 -0.120850675
000210 cd 41 88 3e b7 a8 4a 3e 81 e8 67 be 3d 1d a6 bd
       0.26612702 0.19790922 -0.22647287 -0.081110455
000220 d1 61 32 be e0 92 85 bc a2 17 1b be f4 79 f0 bd
       -0.17420126 -0.016305387 -0.15145734 -0.11742011
000230 76 65 90 be 53 37 51 3c 26 a4 3b be a0 8b ce 3d
       -0.2820241 0.012769538 -0.18324336 0.10085225
000240 3e 86 5d 3e fe 65 a2 3e 61 72 82 be 03 91 06 be
       0.2163324 0.3171844 -0.2547789 -0.13141255
000250 bb 55 06 3e b9 88 92 bc 37 ef 80 3e a7 36 70 bc
       0.13118641 -0.01788746 0.25182506 -0.014661468
000260 c6 13 3a be 3d 13 1c bd f3 3f ae 3e ac 8f 78 3e
       -0.18171605 -0.038104285 0.34033164 0.24273556
000270 e7 12 34 be b1 90 88 be ca 46 4e 3e 67 3a b3 3d
       -0.17585336 -0.2667289 0.20144191 0.08751374
000280 d6 28 2a 3e ac b8 ac be 94 c5 83 be 71 1b 87 be
       0.1661714 -0.33734643 -0.25736678 -0.26388124
000290 ed 45 78 be 5e 75 45 3e 1a 95 8d 3e ce 97 84 bd
       -0.24245425 0.19283053 0.27652818 -0.06474267
0002a0 7c de 74 be cc 57 34 bd 69 50 14 3e fe 6f 72 be
       -0.23912996 -0.044029042 0.14483799 -0.23675534
0002b0 27 03 42 be 64 82 68 3d 8e 8b 11 be a4 8a 67 3e
       -0.18946515 0.056764975 -0.14213392 0.22611481
0002c0 fe ac 6b 3e 63 42 e9 3c 12 e8 6e be 71 65 58 bd
       0.2301521 0.028474038 -0.23330715 -0.052831117
0002d0 b3 e8 73 3e c2 c5 68 be a2 ee 89 bd 26 83 a2 3e
       0.23819236 -0.22731689 -0.06734969 0.31740683
0002e0 c2 79 23 3e 95 f6 0c 3e 1e 2d d9 bb 66 99 df bd
       0.15964416 0.13765939 -0.006627693 -0.1091793
0002f0 52 17 00 be 68 0d 8c 3e da 55 9b 3e de 45 56 3e
       -0.12508896 0.27353978 0.30338937 0.2092509
000300 52 5a 06 3e 06 c7 9b 3e 9b ea 83 be db a7 1b 3e
       0.13120392 0.3042528 -0.25764927 0.1520075
000310 d6 7b 06 be 6a f5 21 3c 43 90 af 3e 19 d5 3f be
       -0.13133177 0.009885171 0.3428975 -0.18733634
000320 42 5e 85 3d a8 9a 5c 3c c6 5f 3b 3e 2d 43 a2 3c
       0.06512119 0.013464607 0.18298253 0.019807423
000330 b6 dc 6e be 74 d5 0f 3e 69 fb a8 be ff db 65 bd
       -0.23326382 0.1404627 -0.3300431 -0.056118008
000340 87 89 ae bd 15 72 e4 bd e3 33 c4 3d 70 2a 89 be
       -0.08522325 -0.11154572 0.09580209 -0.2679019
000350 44 01 9e be 99 87 32 be 7e 57 8f 3d a3 e3 57 be
       -0.3086034 -0.17434539 0.0699911 -0.2108293
000360 86 ca e6 bd 42 e2 93 bd 24 b8 5d be ad c4 a3 be
       -0.11269097 -0.0722089 -0.21652275 -0.3198599
000370 d9 cc 4c 3e d4 cb 85 be dc 1b 7d 3e 27 01 9e 3e
       0.20000018 -0.2613207 0.24717659 0.30860254
000380 90 34 77 be 66 3b d1 3d a6 cb 12 3e d8 8d 9c 3c
       -0.24141145 0.102164075 0.14335498 0.019110605
000390 7d b4 57 be 0a 9b 97 3e 77 a8 0d 3e 00 47 80 be
       -0.21064945 0.29610473 0.13833795 -0.2505417
0003a0 c9 83 cd 3a 0e 56 9a 3e 86 ab a3 be 88 75 97 3e
       0.0015679534 0.3014378 -0.319668 0.29581857
0003b0 08 f4 f1 3d 33 72 94 be ca 0a 8b 3d 9b ca ad bd
       0.118141234 -0.28993377 0.06789167 -0.084859096
0003c0 1a 56 36 3e c1 61 9f bd b1 45 17 be 6b f8 07 bc
       0.17806283 -0.07782317 -0.14772679 -0.008298974
0003d0 7b f9 58 be 15 5e b2 3e 63 25 a4 be 30 ee 63 bd
       -0.21188919 0.34837404 -0.32059774 -0.055647075
0003e0 fa 6c 79 be af 5b 87 be db 00 b3 bd b6 29 1c 3e
       -0.24357978 -0.26437137 -0.087403975 0.15250286
0003f0 dd e2 14 3e 6e 6b 4c be 8f 38 b9 be d0 8c 12 be
       0.14539666 -0.19962856 -0.36175963 -0.14311528
